final/best_model_fold_3.pth (torch, 575082 bytes, 50 tensors)

embedding.weight f4 [50, 8]
-0.34034503 1.1916183 2.8467443 0.36136574 -0.5722972 -0.3537221 0.20461027 -1.1208863
-0.7699369 2.2409246 0.7445347 -0.30562115 0.9588451 0.14454651 1.4881753 1.0395856
-0.15514627 0.22611722 -1.05797 1.0152242 1.2636871 0.7096123 0.78274906 0.49483606
-0.020094065 -1.4519626 0.05812899 -0.0031323978 -0.10100846 0.021729684 0.65691656 -1.1696287
0.8240928 -0.34573844 -0.018162746 -0.039742034 0.68468004 -1.447091 -0.19558364 -0.85448974
0.50565064 0.55254966 -1.9916918 -0.030608054 -1.1515182 -0.7583266 0.17310338 -1.1206834
-1.116299 1.2792416 1.1043957 1.1570162 0.24642275 0.16968454 -1.5286554 1.039786
-0.58668345 0.5313231 0.25308493 -0.13510156 -0.024217721 1.0825939 0.66689277 -0.50595856
0.843887 0.36954635 -0.23018292 -2.2859325 -1.3852072 -0.18960635 -0.727199 -0.51712304
2.484597 0.5640079 0.65304005 0.18526681 -0.67850727 -0.10806987 0.19566408 -0.7426424
-1.1474736 1.5956053 0.536658 1.7483517 -0.7919919 0.96654856 0.07266078 0.5806712
-0.96290183 -0.07559597 -0.11914844 0.08485028 0.4978299 -0.060422666 -1.131576 1.9271251
-0.4113573 -0.10499998 0.13636841 0.23353747 0.8925947 -0.848818 1.1882197 -0.4469734
-0.76181245 1.1041385 0.75902605 -0.9223923 0.19423662 1.3300545 0.52863973 -0.75041306
-0.34063694 0.65071565 2.9752185 -0.25896746 -0.23135379 0.34947887 -0.16621657 1.6769809
-0.6037656 0.8827843 0.77164066 0.29412934 -0.3869647 1.3208785 0.2558219 -1.1079445
0.06227016 -0.5842678 0.042897206 1.6144503 0.45979497 0.20838366 -0.7404701 -0.4278583
1.1151103 2.0956304 -0.27788892 0.051895812 -0.45037884 -0.21808496 1.034567 0.7393107
-0.9949819 -1.6045009 -0.39214325 -1.4066066 -0.35493678 0.57916117 -0.40527487 1.0272788
-1.0201291 -0.90481246 1.9914662 1.4129372 0.104257286 1.0843215 1.4133478 -1.1036654
1.3230674 2.0450602 0.60472846 1.6247045 -1.0099549 -0.33791187 0.29374248 0.3664181
1.412791 -0.53640825 0.9244851 -1.1609033 0.53060555 -0.40714407 -0.93511474 0.2801618
-0.17269868 -0.60371554 -0.626624 -0.27266353 -0.31232983 -0.678843 0.8792623 0.5107635
-1.376902 -0.17508079 1.9401505 0.8293103 -1.9814987 -0.99853337 0.57132906 1.4336092
-0.93693954 1.0860136 -0.3223025 -0.6373236 0.26343814 3.561456 -1.7637136 2.112831
1.2288553 0.6179097 -0.61224145 0.85893315 1.3307006 -0.9299958 0.679868 0.6296297
0.6807983 3.3323095 0.08534517 -1.4538705 0.89423555 -0.8150743 -1.657768 -0.2880679
1.0638545 -1.2649871 -0.14412199 -0.26802078 -0.24788116 0.19601566 1.9338342 0.5190406
2.1026669 0.10021142 -0.6691679 0.13560046 0.99258316 1.0790012 0.9406808 0.33966482
0.4852283 -0.14550185 -0.48773345 -0.37260073 0.6746743 -1.0520103 0.10128252 -0.20352711
2.3287501 -2.0166419 -0.99435335 -0.9662688 -0.34046254 -2.255091 -0.7501842 0.3857721
-0.39856252 1.2470852 0.3595178 0.7647936 -1.3479822 -0.56176996 0.6770232 0.41680276
00000000: b441 aebe f386 983f 0f31 3640 ee04 b93e
00000010: 1282 12bf 101b b5be 5b85 513e 3479 8fbf
00000020: 961a 45bf 4f6b 0f40 d399 3e3f 607a 9cbe
00000030: df76 753f 0004 143e 877c be3f 2411 853f
00000040: aade 1ebe 468b 673e 906b 87bf def2 813f
00000050: 80c0 a13f 27a9 353f 3e62 483f 275b fd3e
00000060: 4f9c a4bc e9d9 b9bf aa18 6e3d ea48 4dbb
00000070: 86dd cebd 7302 b23c af2b 283f 65b6 95bf
00000080: bff7 523f a104 b1be 0aca 94bc 8bc8 22bd
00000090: 3147 2f3f 473a b9bf 1447 48be d7bf 5abf
000000a0: 5272 013f e573 0d3f c2ef febf bebd fabc
000000b0: f364 93bf b121 42bf 0342 313e 8e72 8fbf
000000c0: e3e2 8ebf 30be a33f d75c 8d3f 1b19 943f
000000d0: 3f56 7c3e c9c1 2d3e fbaa c3bf b517 853f
000000e0: e330 16bf ca04 083f 5994 813e 1058 0abe
000000f0: 3e64 c6bc 7092 8a3f 7cb9 2a3f 8086 01bf
00000100: fa08 583f 2e35 bd3e 12b5 6bbe b84c 12c0
00000110: 784e b1bf 2b28 42be b729 3abf 2d62 04bf
00000120: a303 1f40 d262 103f a22d 273f 95b6 3d3e
00000130: a7b2 2dbf bc53 ddbd 2a5c 483e d01d 3ebf
00000140: 6ae0 92bf cb3c cc3f 6b62 093f fdc9 df3f
00000150: fbbf 4abf ba6f 773f 2dcf 943d dea6 143f
00000160: bc80 76bf 0fd2 9abd 1904 f4bd fcc5 ad3d
00000170: 90e3 fe3e c27d 77bd 7bd7 90bf 09ac f63f
00000180: 6d9d d2be 3b0a d7bd 29a4 0b3e 7224 6f3e
00000190: 1681 643f 234c 59bf 9517 983f b3d9 e4be
000001a0: 2406 43bf 6954 8d3f 884f 423f e721 6cbf
000001b0: f7e5 463e 3a3f aa3f ef54 073f 121b 40bf
000001c0: f767 aebe 4d95 263f fb69 3e40 6297 84be
000001d0: 02e8 6cbe e5ee b23e ad34 2abe 4fa7 d63f
000001e0: 6290 1abf 27fe 613f 3e8a 453f 1f98 963e
000001f0: 3d20 c6be 8c12 a93f 17fb 823e 20d1 8dbf
00000200: ff0e 7f3d 9392 15bf fbb4 2f3d 4fa6 ce3f
00000210: 3f6a eb3e 8762 553e 738f 3dbf 3e10 dbbe
00000220: efbb 8e3f cf1e 0640 7547 8ebe b490 543d
00000230: 0e98 e6be aa51 5fbe b16c 843f 7743 3d3f
00000240: 22b7 7ebf 4960 cdbf 00c7 c8be af0b b4bf
00000250: 46ba b5be e843 143f 3080 cfbe df7d 833f
00000260: 9793 82bf caa1 67bf 5de8 fe3f 20db b43f
00000270: d884 d53d 0ccb 8a3f 95e8 b43f e844 8dbf
00000280: 465a a93f 44e2 0240 7ccf 1a3f 51f6 cf3f
00000290: 3446 81bf c902 adbe 6a65 963e 279b bb3e
000002a0: 56d6 b43f 0d52 09bf 0eab 6c3f 7b98 94bf
000002b0: c4d5 073f 3075 d0be ae63 6fbf 5e71 8f3e
000002c0: ecd7 30be 1a8d 1abf 6e6a 20bf 8e9a 8bbe
000002d0: b2e9 9fbe a8c8 2dbf 5617 613f 66c1 023f
000002e0: 533e b0bf 6148 33be da56 f83f ae4d 543f
000002f0: c0a1 fdbf e29f 7fbf 9f42 123f 8280 b73f
00000300: 45db 6fbf 7e02 8b3f d504 a5be a427 23bf
00000310: 5de1 863e e5ee 6340 5ec1 e1bf a038 0740
00000320: 214b 9d3f 552f 1e3f dbbb 1cbf 0be3 5b3f
00000330: 6654 aa3f 3414 6ebf d40b 2e3f 692f 213f
00000340: cc48 2e3f 8f44 5540 73c9 ae3d 6e18 babf
00000350: 9fec 643f b6a8 50bf be31 d4bf a37d 93be
00000360: 622c 883f 19eb a1bf b794 13be 053a 89be
00000370: 8fd4 7dbe 54b8 483e e187 f73f d8df 043f
00000380: 1892 0640 a53b cd3d 964e 2bbf d9da 0a3e
00000390: ee19 7e3f b61c 8a3f 75d0 703f 8ce8 ad3e
000003a0: d86f f83e 70fe 14be 33b8 f9be 86c5 bebe
000003b0: 74b7 2c3f 46a8 86bf 366d cf3d 6969 50be
000003c0: 3e0a 1540 a910 01c0 f18d 7ebf 645d 77bf
000003d0: 1b51 aebe 6953 10c0 120c 40bf ec83 c53e
000003e0: 6310 ccbe 7da0 9f3f b812 b83e 83c9 433f
000003f0: ae8a acbf 28d0 0fbf 6451 2d3f 2c67 d53e

pos_encoder.pe f4 [1000, 1, 8]
0.0 1.0 0.0 1.0 0.0 1.0 0.0 1.0
0.84147096 0.54030234 0.099833414 0.9950042 0.009999833 0.99995 0.0009999998 0.9999995
0.9092974 -0.41614684 0.19866931 0.9800666 0.019998666 0.9998 0.0019999985 0.99999803
0.14112 -0.9899925 0.2955202 0.9553365 0.0299955 0.99955004 0.0029999954 0.9999955
-0.7568025 -0.6536436 0.38941833 0.921061 0.039989334 0.9992001 0.003999989 0.999992
-0.9589243 0.2836622 0.47942552 0.87758255 0.049979165 0.99875027 0.004999979 0.9999875
-0.2794155 0.96017027 0.5646424 0.8253356 0.059964005 0.99820054 0.0059999637 0.999982
0.6569866 0.75390226 0.6442176 0.7648422 0.06994285 0.997551 0.006999942 0.9999755
0.98935825 -0.14550003 0.717356 0.6967067 0.07991469 0.9968017 0.007999914 0.999968
0.4121185 -0.91113025 0.78332686 0.62161 0.089878544 0.9959527 0.008999879 0.9999595
-0.5440211 -0.8390715 0.84147096 0.54030234 0.099833414 0.9950042 0.009999833 0.99995
-0.9999902 0.004425698 0.89120734 0.4535962 0.1097783 0.9939561 0.010999777 0.9999395
-0.53657293 0.84385395 0.9320391 0.36235783 0.119712204 0.99280864 0.011999711 0.999928
0.42016703 0.9074468 0.9635582 0.26749888 0.12963414 0.9915619 0.012999633 0.9999155
0.9906074 0.13673721 0.98544973 0.16996728 0.13954312 0.990216 0.013999541 0.999902
0.65028787 -0.7596879 0.997495 0.07073732 0.14943813 0.9887711 0.014999436 0.9998875
-0.2879033 -0.9576595 0.9995736 -0.029199427 0.15931821 0.98722726 0.015999317 0.999872
-0.96139747 -0.27516335 0.9916648 -0.12884443 0.16918235 0.9855848 0.01699918 0.9998555
-0.75098723 0.6603167 0.9738476 -0.22720204 0.17902957 0.9838437 0.017999027 0.999838
0.1498772 0.9887046 0.94630015 -0.32328942 0.1888589 0.9820042 0.018998856 0.9998195
0.9129453 0.40808207 0.90929747 -0.41614673 0.19866931 0.9800666 0.019998666 0.9998
0.8366556 -0.54772925 0.8632094 -0.50484604 0.2084599 0.9780309 0.020998454 0.9997795
-0.008851309 -0.99996084 0.80849653 -0.588501 0.21822962 0.97589743 0.021998223 0.999758
-0.8462204 -0.53283304 0.74570525 -0.666276 0.22797751 0.9736664 0.02299797 0.99973553
-0.9055784 0.42417902 0.67546326 -0.7373936 0.23770262 0.971338 0.023997694 0.999712
-0.13235176 0.99120283 0.59847236 -0.80114347 0.24740396 0.9689124 0.024997395 0.9996875
0.76255846 0.6469193 0.51550144 -0.8568887 0.25708055 0.96639 0.025997069 0.99966204
0.95637596 -0.29213881 0.42738006 -0.90407205 0.2667314 0.9637709 0.026996719 0.9996355
0.2709058 -0.9626059 0.33498842 -0.94222224 0.27635565 0.96105546 0.027996339 0.99960804
-0.6636339 -0.74805754 0.23924947 -0.9709581 0.2859522 0.9582439 0.028995933 0.99957955
-0.9880316 0.15425146 0.14112024 -0.98999244 0.2955202 0.9553365 0.029995497 0.99955004
-0.40403765 0.91474235 0.04158076 -0.99913514 0.30505863 0.95233357 0.030995032 0.9995195
00000000: 0000 0000 0000 803f 0000 0000 0000 803f
00000010: 0000 0000 0000 803f 0000 0000 0000 803f
00000020: a46a 573f 4151 0a3f 7675 cc3d 98b8 7e3f
00000030: 57d6 233c b9fc 7f3f 6d12 833a f8ff 7f3f
00000040: b7c7 683f 3311 d5be f86f 4b3e a5e5 7a3f
00000050: 3ed4 a33c e5f2 7f3f 6812 033b dfff 7f3f
00000060: c381 103e 2670 7dbf 6c4e 973e ef90 743f
00000070: 1fb9 f53c 83e2 7f3f 929b 443b b5ff 7f3f
00000080: cfbd 41bf 3055 27bf d761 c73e a7ca 6b3f
00000090: dbcb 233d 94cb 7f3f 5712 833b 7aff 7f3f
000000a0: 107c 75bf 2c3c 913e 4377 f53e 40a9 603f
000000b0: f4b6 4c3d 19ae 7f3f ddd6 a33b 2eff 7f3f
000000c0: 8c0f 8fbe b8cd 753f 688c 103f 3249 533f
000000d0: d19c 753d 128a 7f3f 589b c43b d2fe 7f3f
000000e0: 4630 283f bdff 403f 72eb 243f b3cc 433f
000000f0: 323e 8f3d 815f 7f3f c55f e53b 65fe 7f3f
00000100: 9546 7d3f f6fd 14be a5a4 373f 5f5b 323f
00000110: 50aa a33d 652e 7f3f 1212 033c e7fd 7f3f
00000120: 3201 d33e d53f 69bf 1c88 483f d521 1f3f
00000130: 3e12 b83d c2f6 7e3f 3a74 133c 59fd 7f3f
00000140: f844 0bbf 64cd 56bf a46a 573f 4151 0a3f
00000150: 7675 cc3d 98b8 7e3f 57d6 233c b9fc 7f3f
00000160: 5cff 7fbf 7205 913b 2a26 643f c33d e83e
00000170: 72d3 e03d e873 7e3f 6938 343c 09fc 7f3f
00000180: d85c 09bf d006 583f 1d9a 6e3f f786 b93e
00000190: ac2b f53d b528 7e3f 709a 443c 48fb 7f3f
000001a0: 2220 d73e 6f4e 683f c0ab 763f 9df5 883e
000001b0: d0be 043e 00d7 7d3f 6afc 543c 76fa 7f3f
000001c0: 7298 7d3f d704 0c3e 6f46 7c3f e70b 2e3e
000001d0: 64e4 0e3e cc7e 7d3f 555e 653c 94f9 7f3f
000001e0: 4479 263f e87a 42bf d55b 7f3f bade 903d
000001f0: 4f06 193e 1a20 7d3f 32c0 753c a1f8 7f3f
00000200: 1068 93be 2c29 75bf 0ee4 7f3f a333 efbc
00000210: 5024 233e edba 7c3f 0011 833c 9df7 7f3f
00000220: 251e 76bf 36e2 8cbe bfdd 7d3f cbef 03be
00000230: 233e 2d3e 494f 7c3f dd41 8b3c 88f6 7f3f
00000240: b340 40bf 840a 293f 144e 793f a7a7 68be
00000250: 8753 373e 2edd 7b3f b272 933c 62f5 7f3f
00000260: 6979 193e bf1b 7d3f ba40 723f 3186 a5be
00000270: 3a64 413e a164 7b3f 7da3 9b3c 2cf4 7f3f
00000280: c8b6 693f 22f0 d03e b8c7 683f 2f11 d5be
00000290: f86f 4b3e a5e5 7a3f 3ed4 a33c e5f2 7f3f
000002a0: 102f 563f fc37 0cbf 4bfb 5c3f 973d 01bf
000002b0: 8376 553e 3c60 7a3f f304 ac3c 8df1 7f3f
000002c0: 1505 11bc 6ffd 7fbf a1f9 4e3f 00a8 16bf
000002d0: 9677 5f3e 6ad4 793f 9e35 b43c 24f0 7f3f
000002e0: e6a1 58bf bf67 08bf 8ae6 3e3f 1091 2abf
000002f0: f072 693e 3442 793f 3d66 bc3c abee 7f3f
00000300: fcd3 67bf fe2d d93e 29eb 2c3f d4c5 3cbf
00000310: 5168 733e 9ba9 783f d096 c43c 20ed 7f3f
00000320: 3887 07be 78bf 7d3f 7c35 193f bd17 4dbf
00000330: 7757 7d3e a50a 783f 56c7 cc3c 85eb 7f3f
00000340: 0837 433f 819c 253f e7f7 033f 0f5d 5bbf
00000350: 10a0 833e 5665 773f cef7 d43c dae9 7f3f
00000360: 0ed5 743f 3893 95be 8fd1 da3e 4471 67bf
00000370: 0591 883e b1b9 763f 3928 dd3c 1de8 7f3f
00000380: 2ab4 8a3e 576d 76bf 9a83 ab3e 7a35 71bf
00000390: 7d7e 8d3e bb07 763f 9458 e53c 50e6 7f3f
000003a0: e9e3 29bf b380 3fbf d0fd 743e b690 78bf
000003b0: 5468 923e 794f 753f e188 ed3c 72e4 7f3f
000003c0: a4ef 7cbf 18f4 1d3e d381 103e 2570 7dbf
000003d0: 6c4e 973e ef90 743f 1eb9 f53c 83e2 7f3f
000003e0: 06de cebe 8e2c 6a3f 9650 2a3d 52c7 7fbf
000003f0: a530 9c3e 22cc 733f 4be9 fd3c 83e0 7f3f

transformer_encoder.layers.0.self_attn.in_proj_weight f4 [24, 8]
0.020202396 0.3761792 0.29602703 -0.05266476 -0.19925888 -0.38173813 -0.37885618 0.33073413
0.25983784 0.34058213 -0.27363408 -0.07842459 0.31312987 0.40595204 0.350315 -0.08185725
0.32339135 0.082291745 -0.2125185 0.25830227 0.15517107 0.203361 0.021033183 -0.050475616
-0.39330465 -0.22121929 0.14431167 -0.34660316 -0.21670893 -0.31045258 -0.14302233 -0.41120046
0.35185802 0.40943497 0.051499717 0.023378877 0.045731094 -0.2696688 -0.11518679 -0.2014787
-0.015204499 0.403008 0.13350482 0.15412939 0.2204087 0.014251296 0.3112859 0.38805908
0.124826215 -0.19695483 0.20783028 -0.24680066 0.31630385 -0.14631355 -0.41589606 -0.22945198
-0.034030434 -0.15254949 0.36991102 -0.37525722 0.05085856 -0.38545477 0.40336403 -0.32606816
-0.33815414 0.34815186 -0.19027887 0.079632595 0.37337485 -0.00486371 0.001076303 -0.4070792
0.07109715 0.4287147 0.33889854 -0.33449668 0.109824955 -0.1348564 0.22331332 0.3833995
0.42980394 -0.17846656 0.2596946 0.38875663 -0.33762404 0.11412589 0.39074323 -0.022936076
-0.08551909 -0.38099384 -0.18746835 0.06120597 0.07259639 0.0018527387 -0.16402268 -0.38425553
0.06395632 0.35838583 -0.27777365 0.14279717 -0.30417076 0.31572747 0.28555587 -0.15794614
-0.09816218 0.3924055 0.13366474 0.18031073 -0.17010295 0.20975079 -0.08964311 0.064266846
-0.1684888 0.23135746 -0.0250067 -0.3132548 -0.17538454 -0.067328416 0.35975713 0.39794007
0.39943358 -0.40892303 0.10061368 0.39339495 0.046952747 0.32155114 0.26952553 0.049965903
-0.036973644 -0.24344045 0.053804696 -0.08746808 -0.1968766 -0.264404 0.1746851 0.36010054
0.12285767 0.104090855 0.18578245 -0.15958172 -0.3875807 0.17606655 0.20393626 0.06998838
-0.3310539 -0.2771318 -0.08866199 0.13087103 -0.24861689 0.07541358 -0.035633814 -0.3357273
0.21504453 0.10135848 -0.022939665 -0.06730173 -0.2582017 -0.122023165 0.066610426 0.412999
0.31998217 -0.20297313 0.37258443 -0.13593525 -0.11629779 -0.38499218 -0.15084061 0.25746995
-0.29490224 -0.3043107 0.09253283 0.24757715 0.28978795 -0.39811802 -0.04537824 0.42209187
-0.38250235 0.26625928 0.10645985 0.10601469 -0.13447382 -0.06228176 -0.26196417 -0.22864945
0.28879735 -0.0458595 -0.080447376 0.25276786 0.3589804 -0.023825008 -0.062615976 -0.06658338
00000000: 7f7f a53c 8f9a c03e db90 973e 01b7 57bd
00000010: 850a 4cbe 2e73 c3be 70f9 c1be fc55 a93e
00000020: 7709 853e c860 ae3e c419 8cbe 129d a0bd
00000030: 8f52 a03e f2d8 cf3e 7d5c b33e c6a4 a7bd
00000040: 8d93 a53e 9388 a83d 739e 59be 3240 843e
00000050: 2ae5 1e3e de3d 503e c84d ac3c 85bf 4ebd
00000060: 3a5f c9be 4f87 62be 70c6 133e f875 b1be
00000070: f2e8 5dbe a4f3 9ebe 7274 12be de88 d2be
00000080: bc26 b43e 76a1 d13e 5ef1 523d 0f85 bf3c
00000090: 8750 3b3d 0712 8abe 0de7 ebbd 6f50 4ebe
000000a0: 4a1c 79bc 1157 ce3e 7db5 083e 18d4 1d3e
000000b0: d1b2 613e 457e 693c de60 9f3e aeaf c63e
000000c0: e3a4 ff3d 87ae 49be 76d1 543e 50b9 7cbe
000000d0: 94f2 a13e 38d3 15be 54f0 d4be 76f5 6abe
000000e0: 7f63 0bbd ef35 1cbe fa64 bd3e b721 c0be
000000f0: 1151 503d 545a c5be bb85 ce3e 68f2 a6be
00000100: 8a22 adbe f640 b23e 77d8 42be 6a16 a33d
00000110: fd2a bf3e c25f 9fbb bc12 8d3a af6c d0be
00000120: 629b 913d 7e80 db3e 1c84 ad3e 2643 abbe
00000130: e8eb e03d cc17 0abe 3fac 643e f04c c43e
00000140: 430f dc3e f0bf 36be b1f6 843e 1c0b c73e
00000150: 0fdd acbe d6ba e93d 7f0f c83e 70e4 bbbc
00000160: a224 afbd a011 c3be b4f7 3fbe 1cb3 7a3d
00000170: 6bad 943d 98d7 f23a 90f5 27be 24bd c4be
00000180: 88fb 823d 597e b73e 5938 8ebe 6c39 123e
00000190: 45bc 9bbe 08a7 a13e 6134 923e a2bc 21be
000001a0: 4109 c9bd 60e9 c83e 69df 083e 60a3 383e
000001b0: 782f 2ebe e9c8 563e cf96 b7bd 569e 833d
000001c0: 5488 2cbe f8e8 6c3e dada ccbc ef62 a0be
000001d0: 0198 33be 7be3 89bd 1632 b83e cdbe cb3e
000001e0: 8f82 cc3e 5c5e d1be 8c0e ce3d 106b c93e
000001f0: 8651 403d 5aa2 a43e 40ff 893e 0ca9 4c3d
00000200: ad71 17bd 7448 79be 5062 5c3d 7722 b3bd
00000210: 059a 49be f65f 87be a7e0 323e 195f b83e
00000220: cd9c fb3d 962d d53d c13d 3e3e 6469 23be
00000230: fa70 c6be ca4a 343e abd4 503e 1156 8f3d
00000240: e67f a9be 38e4 8dbe 6b94 b5bd 0e03 063e
00000250: 6d95 7ebe 6f72 9a3d c3f4 11bd 73e4 abbe
00000260: a234 5c3e 0995 cf3d f7eb bbbc 7dd5 89bd
00000270: 0333 84be 48e7 f9bd 0c6b 883d 9b74 d33e
00000280: b4d4 a33e 30d8 4fbe 63c3 be3e 9c32 0bbe
00000290: 892d eebd b21d c5be f675 1abe 1ad3 833e
000002a0: 6dfd 96be 9dce 9bbe da81 bd3d dd84 7d3e
000002b0: 165f 943e 20d6 cbbe 89de 39bd 6d1c d83e
000002c0: 59d7 c3be 2353 883e 9f07 da3d 3b1e d93d
000002d0: 81b3 09be 291b 7fbd 2b20 86be 1523 6abe
000002e0: 3fdd 933e 2cd7 3bbd 98c1 a4bd ca6a 813e
000002f0: 47cc b73e aa2c c3bc ce3c 80bd de5c 88bd

transformer_encoder.layers.0.self_attn.in_proj_bias f4 [24]
-0.0005170874 -0.013084426 0.0031176698 0.017696189 -0.0039777504 -0.0008495138 0.005824928 0.005903116
0.00011570821 -0.0008859264 0.00077087554 -0.0010963096 0.0006181035 0.00078895903 0.00043550468 -0.00028421945
0.02030095 -0.02260041 0.016824968 -0.020525929 0.0024859256 0.015909232 -0.012134845 0.0044135414
00000000: 268d 07ba 0f60 56bc d251 4c3b 99f7 903c
00000010: ca57 82bb e8b1 5eba 0adf be3b ed6e c13b
00000020: 5fa8 f238 843d 68ba 9514 4a3a 0cb2 8fba
00000030: 3908 223a 25d2 4e3a 7354 e439 4a03 95b9
00000040: 2e4e a63c 7f24 b9bc 84d4 893c fe25 a8bc
00000050: e9ea 223b 1454 823c 3bd1 46bc 789f 903b

transformer_encoder.layers.0.self_attn.out_proj.weight f4 [8, 8]
0.21814166 -0.03464366 -0.1551588 0.16405392 0.2756474 -0.26140463 0.23669913 0.2964617
-0.1734118 -0.15403414 0.3087742 0.3297849 0.17695712 -0.08775761 -0.05990044 0.0024261696
0.35139528 0.28569463 0.014839264 -0.3298544 0.24803828 -0.007688435 0.103367105 0.30285102
-0.297926 0.114557266 0.31591848 0.0087036025 -0.029393047 -0.102968134 0.05742659 0.20193045
0.2608541 0.07194612 -0.24971767 -0.27798522 -0.01828076 -0.32156715 0.24987838 -0.14518985
0.16716371 -0.32460085 -0.042659625 -0.123764075 0.0553445 0.11675665 -0.042990714 0.13236134
0.3316942 0.13546513 0.28393143 -0.10126247 -0.17452803 0.14283863 -0.32309744 -0.048575442
-0.15462965 -0.21468382 0.2838852 0.021951947 -0.29687336 0.12569293 0.07894022 -0.28200132
00000000: 8760 5f3e 83e6 0dbd f3e1 1ebe c0fd 273e
00000010: a821 8d3e d4d6 85be 4261 723e d4c9 973e
00000020: dd92 31be 20bb 1dbe a717 9e3e 91d9 a83e
00000030: 3f34 353e 43ba b3bd 2a5a 75bd 5f00 1f3b
00000040: 15ea b33e 9146 923e 6220 733c ade2 a8be
00000050: bffd 7d3e 44ef fbbb 22b2 d33d 4a0f 9b3e
00000060: c289 98be 009d ea3d 11c0 a13e 8e99 0e3c
00000070: b0c9 f0bc f5e0 d2bd 2538 6b3d dbc6 4e3e
00000080: ab8e 853e 7d58 933d fdb5 7fbe 1454 8ebe
00000090: 88c1 95bc 73a4 a4be 1ee0 7f3e a6ac 14be
000000a0: f72c 2b3e 1532 a6be dcbb 2ebd 0578 fdbd
000000b0: eab0 623d 1c1e ef3d 0817 30bd bb89 073e
000000c0: d2d3 a93e 5fb7 0a3e 765f 913e b362 cfbd
000000d0: 7ab7 32be 4a44 123e 076d a5be 0bf7 46bd
000000e0: 3c57 1ebe 13d6 5bbe 6759 913e 92d4 b33c
000000f0: c9ff 97be a6b5 003e 69ab a13d 7a62 90be

transformer_encoder.layers.0.self_attn.out_proj.bias f4 [8]
-0.0051834714 0.009665467 -0.0004761021 -0.0033119032 -0.0060273497 0.027204387 0.008173986 -0.0037828987
00000000: 1cda a9bb e85b 1e3c 589d f9b9 840c 59bb
00000010: 1381 c5bb bcdb de3c 2fec 053c 82ea 77bb

transformer_encoder.layers.0.linear1.weight f4 [128, 8]
-0.18887872 -0.10488157 -0.18968272 -0.26696968 -0.30790082 -0.19900434 -0.28272322 -0.18071716
0.08607871 0.2858874 -0.18181734 -0.36304787 -0.046644356 -0.14196204 0.3025344 0.2541486
0.04443443 0.18349962 -0.08600907 -0.052881595 -0.21505173 0.09326412 -0.16081373 0.13647002
-0.05435178 0.022798235 0.14369401 0.31323737 0.21283811 -0.26758698 0.20452818 0.31153002
0.14580631 -0.1661495 -0.27936 0.13350447 -0.008788134 -0.13717017 -0.25645262 0.33331662
-0.30329454 0.06019538 0.3457525 -0.055565324 -0.21755116 0.14192389 0.29906523 0.25690904
0.12706439 0.2692851 0.114202246 0.034265224 0.08741066 -0.06849565 0.0652136 0.27453554
0.0789924 -0.12450858 0.06568831 -0.23549353 -0.3379392 -0.21546337 -0.005890065 -0.31216532
0.34993115 0.19945943 -0.2415839 -0.0071268436 0.33688402 -0.32655618 0.14674963 0.2875694
-0.06858795 0.10499715 0.23587678 -0.087304726 0.34876442 0.11070846 -0.20605887 0.30285835
0.18515733 0.22591373 -0.0021733479 -0.35780975 -0.11394497 -0.2727624 0.1095069 0.3015111
0.28420863 0.21108924 0.08240699 0.2902592 -0.119933106 -0.1822593 0.11798577 0.1362443
0.2976526 -0.22740614 -0.21973743 -0.32565042 0.107932314 -0.20197347 0.29266548 0.16823281
0.32792732 0.31885424 -0.010202207 -0.07171622 0.27078587 0.3289785 0.21164103 -0.33765733
0.18999211 -0.2629079 -0.06311421 0.21063745 0.1611939 -0.17791171 0.021896126 -0.18303974
-0.12584762 0.19073352 0.18188697 -0.2894771 -0.028981049 0.042421807 -0.009634301 -0.005339003
0.31403488 0.15634143 -0.14402619 0.10574215 0.21359003 -0.30550253 0.1834924 -0.03840818
-0.22130352 -0.0021069667 0.22522752 0.2054059 0.27424502 0.35352457 -0.2837678 -0.2588787
0.27054593 0.20576122 -0.009441568 0.17617705 -0.23169978 -0.30010608 0.20829144 -0.041886624
-0.0063618743 -0.23982424 0.15071101 -0.22867663 -0.0051139817 -0.005310691 -0.12427479 -0.18218878
0.17293404 0.042360153 0.2703524 0.33697784 -0.13681754 0.1313811 -0.13624567 -0.32107607
0.09020075 0.23313604 0.29949442 -0.23650458 -0.06327528 0.036949538 -0.045636084 -0.23036979
-0.050110538 0.24284756 -0.050411336 0.12897877 -0.22408895 -0.17558175 -0.07999368 0.13440476
-0.1508775 -0.11738414 -0.09663196 -0.3311955 0.06480812 -0.33098182 0.078874566 -0.3007222
-0.22374421 -0.19154769 0.050005093 0.08047169 0.23543996 0.2899474 -0.025714437 0.14901026
0.08443342 0.25063863 -0.06645904 -0.37615967 -0.057536677 0.08663291 0.16720285 0.14483558
-0.16549744 0.25294417 -0.020353397 -0.25012958 0.33950016 0.1905941 -0.24152112 -0.014139787
0.281356 -0.19493017 0.32704216 -0.14077412 0.21585771 -0.08143552 -0.08627833 0.12263127
0.28632137 0.21913372 0.054670565 0.24432346 0.23183022 -0.33154464 -0.03768482 -0.27985117
0.2563522 -0.3364472 -0.07537223 -0.009274681 0.089934975 -0.0642856 0.30188882 -0.08293781
0.097471945 0.29273185 -0.17638437 -0.30320144 -0.31101656 0.065181024 0.07852855 -0.32710317
-0.22028673 -0.29011947 0.21205285 0.013576105 0.31067923 0.07007906 -0.14434406 -0.008092071
00000000: 6c69 41be 26cc d6bd 303c 42be 40b0 88be
00000010: 2da5 9dbe cbc7 4bbe 19c1 90be eb0d 39be
00000020: 094a b03d d55f 923e 532e 3abe 69e1 b9be
00000030: 270e 3fbd 7f5e 11be cae5 9a3e c41f 823e
00000040: e000 363d 53e7 3b3e 8625 b0bd 5f9a 58bd
00000050: 8536 5cbe 4201 bf3d 5bac 24be ccbe 0b3e
00000060: f99f 5ebd 5dc3 ba3c 8624 133e a660 a03e
00000070: 3cf2 593e 2901 89be d66f 513e dd80 9f3e
00000080: 404e 153e 1823 2abe 4608 8fbe 65b5 083e
00000090: 1bfc 0fbc 5676 0cbe c24d 83be 7aa8 aa3e
000000a0: 6c49 9bbe 6e8f 763d 7906 b13e 7798 63bd
000000b0: bbc5 5ebe 7f54 113e 141f 993e 9589 833e
000000c0: 2b1d 023e bddf 893e dee2 e93d b159 0c3d
000000d0: 5c04 b33d 7347 8cbd b58e 853d ec8f 8c3e
000000e0: c4c6 a13d 5bfe febd 9887 863d 3725 71be
000000f0: 5e06 adbe 6ea2 5cbe 7201 c1bb 22d4 9fbe
00000100: 2d2a b33e 183f 4c3e c561 77be 4c88 e9bb
00000110: 107c ac3e 5f32 a7be 8945 163e 4c3c 933e
00000120: d777 8cbd bf08 d73d af89 713e d2cc b2bd
00000130: 4091 b23e 1ebb e23d 1901 53be 4010 9b3e
00000140: e299 3d3e ee55 673e ba6e 0ebb d732 b7be
00000150: fb5b e9bd 83a7 8bbe 2745 e03d aa5f 9a3e
00000160: cb83 913e c727 583e ffc4 a83d db9c 943e
00000170: 7d9f f5bd 2fa2 3abe 86a2 f13d a083 0b3e
00000180: ec65 983e 28dd 68be d902 61be a7bb a6be
00000190: 9e0b dd3d 22d2 4ebe 40d8 953e 3945 2c3e
000001a0: 17e6 a73e dd40 a33e 2827 27bc f4df 92bd
000001b0: 72a4 8a3e df6f a83e 6db8 583e 6ce1 acbe
000001c0: 4b8d 423e dd9b 86be 0642 81bd 58b1 573e
000001d0: 0410 253e 7d2e 36be 815f b33c c56e 3bbe
000001e0: 33de 00be a64f 433e 9440 3a3e 5836 94be
000001f0: aa69 edbc 7dc2 2d3d 30d9 1dbc cef2 aebb
00000200: 2ec9 a03e f817 203e 9a7b 13be 578f d83d
00000210: 58b7 5a3e d46a 9cbe 6fe5 3b3e e551 1dbd
00000220: 649d 62be 0915 0abb 0ba2 663e ed55 523e
00000230: d869 8c3e 2c01 b53e 034a 91be c08b 84be
00000240: ff84 8a3e 12b3 523e ceb0 1abc c267 343e
00000250: b542 6dbe 81a7 99be 5a4a 553e 4f91 2bbd
00000260: 4577 d0bb 7c94 75be fd53 1a3e 352a 6abe
00000270: 3093 a7bb 4e05 aebb c883 febd b28f 3abe
00000280: 9f15 313e d781 2d3d a16b 8a3e 5c88 ac3e
00000290: e619 0cbe c488 063e fc83 0bbe 1564 a4be
000002a0: 2cbb b83d 37bb 6e3e 5557 993e 422e 72be
000002b0: 7896 81bd 6658 173d e7ec 3abd 0fe6 6bbe
000002c0: b540 4dbd 08ad 783e 1e7c 4ebd 0313 043e
000002d0: 9377 65be b4cb 33be bad3 a3bd 67a1 093e
000002e0: a27f 1abe 1967 f0bd fae6 c5bd 7592 a9be
000002f0: 1fba 843d 7376 a9be fd88 a13d 43f8 99be
00000300: 341d 65be 1425 44be 24d2 4c3d 57ce a43d
00000310: 2c17 713e fc73 943e 15a7 d2bc 2596 183e
00000320: 6eeb ac3d b553 803e ad1b 88bd 0098 c0be
00000330: 94ab 6bbd 986c b13d 3937 2b3e c74f 143e
00000340: 2978 29be e681 813e 2bbc a6bc fc10 80be
00000350: f7d2 ad3e 1a2b 433e 5051 77be 91aa 67bc
00000360: e50d 903e c69b 47be 1272 a73e 1727 10be
00000370: ce09 5d3e aac7 a6bd b1b2 b0bd 1a26 fb3d
00000380: b798 923e 9764 603e 3eee 5f3d ee2f 7a3e
00000390: e764 6d3e 38c0 a9be 665b 1abd a748 8fbe
000003a0: 9840 833e cf42 acbe c15c 9abd d5f4 17bc
000003b0: d42f b83d 2ba8 83bd 2c91 9a3e 4cdb a9bd
000003c0: 5f9f c73d f3e0 953e 1b9e 34be 383d 9bbe
000003d0: 903d 9fbe a17d 853d 94d3 a03d 117a a7be
000003e0: d892 61be 8a8a 94be 6224 593e 506e 5e3c
000003f0: 5911 9f3e 9c85 8f3d eece 13be 9b94 04bc

transformer_encoder.layers.0.linear1.bias f4 [128]
0.28619707 0.0848622 0.050838966 -0.14115462 -0.050945643 -0.25055283 -0.015517737 -0.07769114
0.046494547 -0.26219374 0.035956893 0.032925077 -0.12927437 0.31713143 -0.2003349 -0.18135002
0.21200742 0.21365044 0.13677205 0.024279907 0.16477045 0.2647796 0.0054137073 -0.2886859
0.29466826 -0.027014108 -0.1379881 0.07878862 -0.28431976 0.1405475 -0.34609944 -0.16003394
0.15856792 0.07367931 -0.048636887 -0.2550748 -0.22318828 0.24175668 -0.04262865 -0.31498975
0.19659089 -0.34620416 -0.27197972 0.10233412 -0.04450395 -0.06374522 -0.16498637 0.006772318
-0.015573209 -0.3171007 -0.09683899 -0.125132 -0.25438917 -0.32095256 -0.011106632 0.32002202
0.21665573 0.0820861 0.062423803 0.33583638 0.13798255 -0.041702833 -0.09656086 0.14993928
0.06113037 -0.19917595 0.1529778 -0.10100339 -0.29632685 -0.3221428 -0.23013389 -0.2697603
-0.15721168 0.038881414 -0.34295434 -0.1741001 0.28630534 -0.18027908 0.23693989 -0.3542352
0.34390676 0.046959996 -0.0921651 -0.2530053 0.23903288 0.06287479 0.34828216 -0.24473922
-0.1888564 0.1715568 -0.24335642 0.12256227 0.017837627 0.07103094 -0.3357224 -0.11187442
-0.062127136 -0.053369995 -0.18949199 0.23192655 0.055199847 -0.33015442 -0.30196694 -0.28192455
0.27309704 0.19325711 -0.113709904 -0.05601357 -0.07227668 0.14420702 0.14290272 -0.17415608
-0.014410279 -0.29352036 0.13738482 -0.2958555 0.056052875 0.28585583 -0.22095622 0.14851837
0.092088476 0.33829132 0.20597002 0.26996896 0.19943343 -0.16630137 0.08720924 -0.06495073
00000000: 6c88 923e 3ccc ad3d 853c 503d d68a 10be
00000010: 61ac 50bd 7648 80be 1b3e 7ebc 881c 9fbd
00000020: 1171 3e3d 423e 86be 8947 133d 72dc 063d
00000030: 8060 04be 0d5f a23e 9824 4dbe d2b3 39be
00000040: 7918 593e 2ec7 5a3e f90d 0c3e a8e6 c63c
00000050: 96b9 283e 3191 873e 7865 b13b a3ce 93be
00000060: c2de 963e b14c ddbc c14c 0dbe ee5b a13d
00000070: 5c92 91be afeb 0f3e f233 b1be f0df 23be
00000080: a15f 223e 2ee5 963d 7937 47bd 2a99 82be
00000090: 788b 64be 108f 773e 619b 2ebd 5646 a1be
000000a0: 1f4f 493e ac41 b1be ed40 8bbe 8d94 d13d
000000b0: c649 36bd db8c 82bd 30f2 28be 52ea dd3b
000000c0: c626 7fbc 065b a2be 8553 c6bd 9a22 00be
000000d0: 4c3f 82be e553 a4be 97f8 35bc edd9 a33e
000000e0: 00db 5d3e c21c a83d 1ab0 7f3d bff2 ab3e
000000f0: 4c4b 0d3e 97d0 2abd b3c1 c5bd af89 193e
00000100: d763 7a3d c8f4 4bbe 36a6 1c3e deda cebd
00000110: 27b8 97be e7ef a4be 38a8 6bbe 061e 8abe
00000120: 19fc 20be 1e42 1f3d b697 afbe 4c47 32be
00000130: 9d96 923e 149b 38be 5fa0 723e 515e b5be
00000140: 8c14 b03e 2059 403d 0ec1 bcbd e989 81be
00000150: 09c5 743e 7fc4 803d 0a52 b23e eb9c 7abe
00000160: 9263 41be 96ac 2f3e 6d32 79be ed01 fb3d
00000170: 3720 923c ab78 913d cee3 abbe 6a1e e5bd
00000180: 0679 7ebd 7f9a 5abd 300a 42be 277e 6d3e
00000190: 3c19 623d 000a a9be 699b 9abe 6a58 90be
000001a0: 60d3 8b3e 31e5 453e bde0 e8bd 7c6e 65bd
000001b0: cc05 94bd 01ab 133e 1755 123e f955 32be
000001c0: 1719 6cbc 4d48 96be 9bae 0c3e 5f7a 97be
000001d0: b397 653d b25b 923e 5942 62be 3315 183e
000001e0: e298 bc3d 8534 ad3e cee9 523e 5f39 8a3e
000001f0: 4738 4c3e e84a 2abe c29a b23d e304 85bd

transformer_encoder.layers.0.linear2.weight f4 [8, 128]
-0.08467046 0.085649066 0.08185978 -0.039174072 -0.02513317 0.004214083 0.07309748 -0.06881787
-0.015471596 0.035630625 0.053880606 -0.0046970346 0.052524246 0.0100817885 0.023944097 -0.045620285
-0.06114799 0.0021478222 0.08667761 0.019262562 0.05561843 0.0021103187 0.053236406 -0.04586196
-0.000320158 0.035015415 0.014670644 -0.02277407 -0.0886227 -0.09505266 0.03588 0.059882388
0.025764579 0.01741811 0.047477294 -0.050504934 0.022434091 -0.055152725 -0.0015632847 -0.036514632
-0.06662447 -0.04067567 0.05387321 0.06736697 -0.04043673 0.050988343 0.0164548 0.07587779
-0.031547002 0.052483317 0.070723355 0.045625042 -0.00069325 -0.027906496 -0.031116597 0.048758343
-0.02937951 -0.05320628 -0.07487306 0.051653754 -0.054364003 0.017647354 -0.016077485 0.04245564
0.026569378 0.04085188 0.036623925 0.04155219 -0.04025239 -0.02967427 -0.09796062 0.060915582
-0.020192908 0.0351485 0.009216104 0.07494661 -0.007884121 -0.0019611686 0.036613442 0.0030332068
-0.0695864 -0.0032664277 0.010544309 0.038462564 0.055290755 -0.031903133 0.07156005 -0.03761616
-0.09584682 0.017368251 -0.068971545 0.03473518 0.0048984685 0.004706554 0.048725147 0.020718468
0.036557995 -0.02760242 0.032970976 0.042459816 -0.08647452 0.06623089 0.027324552 -0.024600908
0.021866351 0.061297704 0.06826588 0.03735764 -0.06070124 -0.0246573 -0.024542714 -0.049222335
0.029841328 0.029948391 0.077855125 0.0026469354 0.047692914 0.011077823 -0.030302163 -0.051681284
0.054903746 0.024460034 0.02836379 -0.05749203 -0.050719615 -0.043810498 -0.021325842 0.05658626
0.0576798 0.06106155 0.0686166 -0.055575892 0.07697791 -0.06407199 0.005380785 -0.009850706
-0.07633807 -0.05639108 0.07923679 -0.07174782 0.025524702 -0.0015814549 -0.048644733 -0.072241664
0.011778077 0.03127192 0.050458245 0.008642008 0.07455086 -0.056613438 -0.047970194 0.04325832
-0.011794759 0.06701832 -0.0014224944 0.077710025 -0.0700951 -0.007925091 0.07927794 0.042220596
0.054529723 -0.025482021 0.06710754 0.014642682 0.10087413 0.011459548 -0.06698826 0.042093564
-0.01955875 0.019896675 0.07113027 0.008917566 0.01435454 0.03542277 0.00551574 -0.02657079
0.028145587 -0.04358318 -0.020402106 -0.056548856 0.044124093 -0.007894596 -0.05983669 -0.016299265
0.032498524 -0.08959599 -0.048618067 0.03764116 0.10099769 -0.027958559 -0.0031999624 -0.07040642
-0.07774424 0.05787513 0.0209604 0.030975202 -0.08859083 0.065732434 0.031187154 -0.030996881
-0.07336455 -0.014949863 -0.04942053 0.028715188 -0.012101557 -0.07342411 0.03043619 -0.026958406
0.032799207 -0.033566847 -0.056890294 -0.080957204 0.008715379 -0.019172948 0.062543504 0.0046535153
-0.085372664 0.07215813 0.004640729 -0.074695036 -0.0027515471 0.076098286 0.08915785 0.013763302
0.07210335 0.026322013 -0.058328852 -0.049388077 0.0029971548 0.012426761 0.0035058176 -0.04456303
0.081607014 0.0066469805 -0.010597893 -0.0307092 -0.11550189 0.091113746 0.045401976 0.03794612
0.06287068 -0.036536764 -0.0777882 0.08958702 -0.047194354 0.049381673 -0.052463107 0.074359685
-0.040117268 -0.02577763 -0.014710663 -0.06381875 -0.020338282 -0.012171976 0.059345517 -0.017443817
00000000: b567 adbd c768 af3d 1aa6 a73d fe74 20bd
00000010: 14e4 cdbc 4a16 8a3b 22b4 953d 62f0 8cbd
00000020: 947c 7dbc 6bf1 113d e9b1 5c3d 95e9 99bb
00000030: aa23 573d 162e 253c 6926 c43c 56dc 3abd
00000040: 5176 7abd 7ac2 0c3b 0884 b13d 85cc 9d3c
00000050: 27d0 633d 464d 0a3b 6b0e 5a3d c0d9 3bbd
00000060: e1da a7b9 536c 0f3d 245d 703c b090 babc
00000070: d17f b5bd f8aa c2bd e8f6 123d 3c47 753d
00000080: 3d10 d33c 6db0 8e3c 8d77 423d 43de 4ebd
00000090: b3c7 b73c d3e7 61bd 21e7 ccba 5e90 15bd
000000a0: 6972 88bd 889b 26bd 28aa 5c3d b2f7 893d
000000b0: fca0 25bd 27d9 503d 37cc 863c d165 9b3d
000000c0: 6e37 01bd bff8 563d 68d7 903d 53e1 3a3d
000000d0: 38bb 35ba 2a9c e4bc 3ce8 febc d4b6 473d
000000e0: 4cad f0bc d4ee 59bd 0c57 99bd e392 533d
000000f0: caac 5ebd 2f91 903c eeb4 83bc f7e5 2d3d
00000100: 06a8 d93c 4d54 273d f802 163d a132 2a3d
00000110: b1df 24bd 7417 f3bc 949f c8bd 9e82 793d
00000120: 996b a5bc e0f7 0f3d 24ff 163c 9c7d 993d
00000130: 662c 01bc f386 00bb faf7 153d c4c8 463b
00000140: 5183 8ebd 9011 56bb 0ac2 2c3c ec8a 1d3d
00000150: 8f78 623d dcac 02bd 138e 923d 6713 1abd
00000160: 564b c4bd dd47 8e3c f440 8dbd 7a46 0e3d
00000170: 5583 a03b 7039 9a3b 0594 473d c7b9 a93c
00000180: d6bd 153d 781e e2bc 930c 073d 58ea 2d3d
00000190: 8e19 b1bd 10a4 873d bdd7 df3c d887 c9bc
000001a0: 1021 b33c 4d13 7b3d fbce 8b3d 5304 193d
000001b0: dda1 78bd 1bfe c9bc cd0d c9bc 5c9d 49bd
000001c0: cd75 f43c 5456 f53c 8272 9f3d 3578 2d3b
000001d0: a559 433d c27f 353c 3e3c f8bc c1af 53bd
000001e0: c0e2 603d 6960 c83c 2e5b e83c c37c 6bbd
000001f0: 5fbf 4fbd a372 33bd 88b3 aebc ffc6 673d
00000200: a741 6c3d ad1b 7a3d dc86 8c3d 8ca3 63bd
00000210: 98a6 9d3d 2d38 83bd 4c51 b03b db64 21bc
00000220: 2257 9cbd 55fa 66bd e646 a23d 85f0 92bd
00000230: 2e19 d13c d248 cfba b33f 47bd 70f3 93bd
00000240: d6f8 403c fc16 003d 4ead 4e3d 3597 0d3c
00000250: 1fae 983d 7ee3 67bd 657c 44bd a32f 313d
00000260: ce3e 41bc e740 893d fe72 baba 6f26 9f3d
00000270: 058e 8fbd 3ed8 01bc 795c a23d 81ef 2c3d
00000280: 8f5a 5f3d acbf d0bc ae6f 893d dce7 6f3c
00000290: 1997 ce3d d4c0 3b3c 2431 89bd 4d6a 2c3d
000002a0: ac39 a0bc 5afe a23c bfac 913d fc1a 123c
000002b0: 4e2f 6b3c 7717 113d 61bd b43b fcaa d9bc
000002c0: 9391 e63c 4784 32bd 5122 a7bc c69f 67bd
000002d0: 77bb 343d 5658 01bc 5117 75bd 0986 85bc
000002e0: 2c1d 053d 1a7e b7bd bd23 47bd 9e2d 1a3d
000002f0: e0d7 ce3d 5909 e5bc 76b6 51bb 3e31 90bd
00000300: 5f38 9fbd 790e 6d3d 25b5 ab3c b5bf fd3c
00000310: 1c6f b5bd ba9e 863d 347c ff3c 2ced fdbc
00000320: 2740 96bd 45f0 74bc 2f6d 4abd 1d3c eb3c
00000330: 9c45 46bc 615f 96bd 5155 f93c e0d7 dcbc
00000340: 7658 063d 647d 09bd cc05 69bd e4cc a5bd
00000350: f3ca 0e3c 9610 9dbc cf16 803d 847c 983b
00000360: ddd7 aebd a4c7 933d 4211 983b b6f9 98bd
00000370: 4d53 34bb 6bd9 9b3d 6498 b63d 797f 613c
00000380: ecaa 933d 43a1 d73c 3cea 6ebd 274b 4abd
00000390: ea6b 443b 9d99 4b3c dcc1 653b b987 36bd
000003a0: 9421 a73d eace d93b c9a2 2dbc dc91 fbbc
000003b0: 418c ecbd d899 ba3d 6cf7 393d 646d 1b3d
000003c0: 58c2 803d 93a7 15bd 6b4f 9fbd 6679 b73d
000003d0: de4e 41bd 7044 4a3d 8ee3 56bd e449 983d
000003e0: 0152 24bd 9c2b d3bc fe04 71bc 68b3 82bd
000003f0: 789c a6bc f86c 47bc 4914 733d 56e6 8ebc

transformer_encoder.layers.0.linear2.bias f4 [8]
0.040312175 0.02081553 0.014929846 -0.0052811285 0.0040248716 0.008735914 0.0026507361 -0.07427431
00000000: 611e 253d 5585 aa3c 509c 743c 510d adbb
00000010: 12e3 833b 1421 0f3c f9b7 2d3b 211d 98bd

transformer_encoder.layers.0.norm1.weight f4 [8]
0.99391437 0.97219074 0.98475105 0.9875304 1.0514154 1.026999 0.973585 1.011499
00000000: 2c71 7e3f 7ee1 783f a518 7c3f cbce 7c3f
00000010: c894 863f b474 833f de3c 793f cd78 813f

transformer_encoder.layers.0.norm1.bias f4 [8]
0.003530089 0.00036627738 -0.016930228 -0.010597218 0.0012372369 -0.0008756057 0.011674422 -0.0063143554
00000000: 1159 673b eb08 c039 43b1 8abc f49f 2dbc
00000010: c82a a23a e788 65ba 1346 3f3c a7e8 cebb

transformer_encoder.layers.0.norm2.weight f4 [8]
0.9958182 0.9714738 1.0012391 0.9925854 1.0539337 1.0226184 0.96971107 1.0219338
00000000: f1ed 7e3f 82b2 783f 9a28 803f 141a 7e3f
00000010: 4de7 863f 29e5 823f fc3e 783f bace 823f

transformer_encoder.layers.0.norm2.bias f4 [8]
0.006856984 0.0040351353 -0.01962356 0.0013341197 -0.004039114 -0.0034706232 0.008846928 -0.007198939
00000000: 8db0 e03b 2b39 843b 97c1 a0bc a1dd ae3a
00000010: 8b5a 84bb 6573 63bb b5f2 103c 14e5 ebbb

transformer_encoder.layers.1.self_attn.in_proj_weight f4 [24, 8]
0.03361016 0.38159022 0.30554053 -0.05917027 -0.2124366 -0.4030898 -0.36129868 0.33788842
0.25818837 0.35184765 -0.2830661 -0.06968091 0.33340535 0.43011326 0.333456 -0.07448569
0.35588595 0.10067189 -0.2232783 0.2686861 0.14072807 0.187605 -0.0060474244 -0.048388604
-0.40718156 -0.2650634 0.09880396 -0.3975015 -0.1524571 -0.28844765 -0.15804303 -0.4310873
0.3616901 0.43024823 0.040560424 0.028296739 0.03720633 -0.2885424 -0.12468872 -0.22448395
-0.037042443 0.4012555 0.13325375 0.15047601 0.23167148 0.03844659 0.32413507 0.40795434
0.1323024 -0.20099784 0.21469824 -0.2615012 0.32476285 -0.14580071 -0.41410172 -0.23960328
-0.035875056 -0.15104733 0.38124645 -0.3783711 0.05104658 -0.38646492 0.40123555 -0.31191826
-0.35476366 0.3620497 -0.17081362 0.06740488 0.38385892 0.008654647 -0.012422298 -0.40550712
0.0937699 0.4258038 0.3654981 -0.35975116 0.08418142 -0.11009539 0.23811819 0.39900935
0.4180169 -0.18757945 0.27840057 0.41854668 -0.35726234 0.11085684 0.3761389 -0.024553647
-0.13027391 -0.39823216 -0.14530803 0.06413516 0.10528391 0.028025007 -0.1748687 -0.41546315
0.04420605 0.37409046 -0.3003113 0.16433878 -0.28914917 0.333289 0.29228312 -0.17675
-0.10060823 0.40210596 0.12416612 0.1998219 -0.17847288 0.19351839 -0.0831441 0.06773294
-0.17329276 0.23344962 -0.025584573 -0.30512753 -0.17431995 -0.08111339 0.3652698 0.41313335
0.42488804 -0.39313546 0.09999172 0.3928341 0.06445598 0.30946425 0.26200533 0.03952346
-0.06019756 -0.26053438 0.03608129 -0.09892963 -0.16139384 -0.27722886 0.16426857 0.34182104
0.13371828 0.12894744 0.22224583 -0.16286036 -0.3995967 0.19439398 0.22536021 0.11518282
-0.3359075 -0.28430972 -0.11663179 0.12585342 -0.25272292 0.07248735 -0.05391327 -0.3559461
0.23606856 0.12976934 -0.02021453 -0.056735035 -0.2846721 -0.13042518 0.06676717 0.43021733
0.322679 -0.20393011 0.39433894 -0.13520548 -0.11708204 -0.391223 -0.15605402 0.2770783
-0.29918158 -0.31598026 0.07013109 0.22727522 0.30022916 -0.41873115 -0.07938143 0.40196154
-0.40065822 0.25310218 0.12770705 0.10625203 -0.1266617 -0.03619601 -0.26637045 -0.21822321
0.30048937 -0.05106627 -0.08415891 0.27444872 0.36856863 -0.023218727 -0.055904306 -0.06050877
00000000: cfaa 093d cb5f c33e cf6f 9c3e 865c 72bd
00000010: fb88 59be c961 cebe 24fc b8be b6ff ac3e
00000020: 4431 843e 6025 b43e 0aee 90be ddb4 8ebd
00000030: 1bb4 aa3e ce37 dc3e bfba aa3e f48b 98bd
00000040: af36 b63e 102d ce3d 11a3 64be 3991 893e
00000050: 051b 103e 861b 403e 7929 c6bb 2133 46bd
00000060: 1a7a d0be 64b6 87be bb59 ca3d 5185 cbbe
00000070: b71d 1cbe 69af 93be 08d6 21be 79b7 dcbe
00000080: 722f b93e 7f49 dc3e b022 263d 90ce e73c
00000090: aa65 183d d4bb 93be cd5c ffbd 1fdf 65be
000000a0: d1b9 17bd 5c71 cd3e ac73 083e 6216 1a3e
000000b0: 4a3b 6d3e 2c7a 1d3d 08f5 a53e 64df d03e
000000c0: 487a 073e 61d2 4dbe dbd9 5b3e 7ce3 85be
000000d0: 5147 a63e c84c 15be 2405 d4be 905a 75be
000000e0: b9f1 12bd 27ac 1abe bc32 c33e dbb9 c1be
000000f0: 3816 513d bbde c5be bf6e cd3e c0b3 9fbe
00000100: 95a3 b5be 945e b93e c4e9 2ebe 920b 8a3d
00000110: 2889 c43e 38cc 0d3c e586 4bbc a19e cfbe
00000120: 6f0a c03d f502 da3e 9122 bb3e 4e31 b8be
00000130: 4f67 ac3d b179 e1bd 41d5 733e f44a cc3e
00000140: 5006 d63e d414 40be 858a 8e3e c04b d63e
00000150: 17eb b6be e908 e33d 4795 c03e bb24 c9bc
00000160: 8666 05be 16e5 cbbe a1cb 14be 4b59 833d
00000170: 179f d73d b394 e53c c810 33be 96b7 d4be
00000180: 6711 353d c988 bf3e 67c2 99be 6d48 283e
00000190: 5c0b 94be dba4 aa3e 22a6 953e f4fd 34be
000001a0: b00b cebd d5e0 cd3e cf4a fe3d 1d9e 4c3e
000001b0: 98c1 36be af29 463e 7447 aabd 91b7 8a3d
000001c0: a873 31be 6b0d 6f3e bd96 d1bc ad39 9cbe
000001d0: ee80 32be c71e a6bd a504 bb3e 3786 d33e
000001e0: ed8a d93e 0d49 c9be 75c8 cc3d 8d21 c93e
000001f0: 7f01 843d 1972 9e3e 9025 863e 5ae3 213d
00000200: b791 76bd c364 85be fac9 133d 9e9b cabd
00000210: 6d44 25be f1f0 8dbe 0536 283e 2b03 af3e
00000220: 72ed 083e cc0a 043e 6994 633e dec4 26be
00000230: f097 ccbe 370f 473e d4c4 663e f8e4 eb3d
00000240: 11fc abbe 0b91 91be a6dc eebd b8df 003e
00000250: e664 81be 3f74 943d 29d4 5cbd 913e b6be
00000260: f5bb 713e 41e2 043e f198 a5bc ff62 68bd
00000270: 8bc0 91be 2e8e 05be 3abd 883d 7245 dc3e
00000280: 2f36 a53e 0ed3 50be cbe6 c93e 4e73 0abe
00000290: b5c8 efbd 624e c8be a0cc 1fbe 35dd 8d3e
000002a0: 542e 99be 2ac8 a1be e4a0 8f3d d6ba 683e
000002b0: a3b7 993e ee63 d6be bb92 a2bd e7cd cd3e
000002c0: 1323 cdbe 9c96 813e a3c5 023e aa9a d93d
000002d0: 9bb3 01be 4442 14bd b561 88be e875 5fbe
000002e0: bed9 993e dd2a 51bd 825b acbd 8b84 8c3e
000002f0: 07b5 bc3e 3335 bebc eafb 64bd 0bd8 77bd

transformer_encoder.layers.1.self_attn.in_proj_bias f4 [24]
-0.011111316 -0.009814828 0.011015653 0.016480895 -0.0074357907 -0.0009837707 0.0035884671 0.0027964197
7.504892e-05 -5.2784944e-05 -2.2262268e-05 1.49697025e-05 3.8608705e-05 1.9424502e-05 -2.5275825e-05 5.9688216e-05
0.005177295 -0.006535973 0.011558715 0.0021333427 -0.0015961274 0.009722571 -0.016825275 -0.00074604945
00000000: 3d0c 36bc 5fce 20bc ff7a 343c f102 873c
00000010: efa7 f3bb def1 80ba 7d2c 6b3b 2344 373b
00000020: 9563 9d38 6765 5db8 dbbf bab7 6226 7b37
00000030: c8ef 2138 cdf1 a237 6c07 d4b7 bc59 7a38
00000040: 4ca6 a93b b72b d6bb c460 3d3c 8dcf 0b3b
00000050: 2635 d1ba 6b4b 1f3c 29d5 89bc 8892 43ba

transformer_encoder.layers.1.self_attn.out_proj.weight f4 [8, 8]
0.23530084 -0.035076085 -0.15732981 0.18364196 0.2822035 -0.26136875 0.25913328 0.31206146
-0.1496281 -0.16028729 0.30246833 0.35237458 0.19292997 -0.085080124 -0.06095822 -0.0013873902
0.3553088 0.30480656 0.019418998 -0.33823025 0.25321403 -0.006223225 0.09730742 0.285198
-0.30078003 0.11354803 0.317034 0.015253456 -0.022759406 -0.09545563 0.07458839 0.22019272
0.25586367 0.07786713 -0.2611929 -0.30349723 -0.027034953 -0.33199516 0.23580913 -0.16449627
0.1671799 -0.3412237 -0.040550105 -0.14070798 0.04971974 0.11480817 -0.04726092 0.15116054
0.32752746 0.13523361 0.28156233 -0.10160806 -0.18826543 0.14035894 -0.32714248 -0.043354385
-0.1462544 -0.24078858 0.30093256 0.02036063 -0.3209293 0.13787776 0.07932577 -0.27927166
00000000: b4f2 703e f1ab 0fbd 111b 21be a30c 3c3e
00000010: fa7c 903e 20d2 85be 1ead 843e 85c6 9f3e
00000020: 1c38 19be 5a22 24be 21dd 9a3e 716a b43e
00000030: 6f8f 453e 7d3e aebd 54af 79bd 17d9 b5ba
00000040: 09eb b53e 9b0f 9c3e 9714 9f3c 842c adbe
00000050: 45a5 813e 32ec cbbb 1d49 c73d 7905 923e
00000060: d7ff 99be df8b e83d 4852 a23e a2e9 793c
00000070: ef71 babc 3e7e c3bd ccc1 983d 337a 613e
00000080: 9000 833e cd78 9f3d 13bb 85be fd63 9bbe
00000090: 6878 ddbc 45fb a9be f377 713e b671 28be
000000a0: 3531 2b3e dfb4 aebe de17 26bd c115 10be
000000b0: eda6 4b3d 8c20 eb3d ab94 41bd d4c9 1a3e
000000c0: aeb1 a73e ae7a 0a3e f028 903e e317 d0bd
000000d0: a7c8 40be 41ba 0f3e 387f a7be 5e94 31bd
000000e0: b7c3 15be 4891 76be d513 9a3e 56cb a63c
000000f0: d850 a4be d42f 0d3e 8d75 a23d b2fc 8ebe

transformer_encoder.layers.1.self_attn.out_proj.bias f4 [8]
-0.00013406432 0.0062218155 -0.005535716 0.0010712164 -0.006196294 0.011073285 0.018209148 -0.0043204627
00000000: 9e93 0cb9 5fe0 cb3b f464 b5bb 0f68 8c3a
00000010: 480a cbbb b96c 353c 5a2b 953c ab92 8dbb

transformer_encoder.layers.1.linear1.weight f4 [128, 8]
-0.19712956 -0.11306933 -0.19356981 -0.2694441 -0.30302045 -0.19029334 -0.27752602 -0.1730554
0.09145144 0.2851425 -0.19054972 -0.35118663 -0.045527298 -0.13485329 0.28667685 0.2482359
0.036395185 0.18275061 -0.0812152 -0.054626983 -0.20405194 0.10067417 -0.16344047 0.12827241
-0.05100169 0.015682597 0.14222872 0.30880836 0.2038777 -0.26726463 0.20952973 0.3283074
0.13704647 -0.16886654 -0.27006546 0.13743956 -0.006241542 -0.1346972 -0.2611278 0.33938733
-0.28992406 0.06896162 0.3415288 -0.067707665 -0.23467535 0.1377874 0.30681685 0.2684395
0.11976745 0.26880577 0.12192273 0.031871017 0.092735216 -0.06770607 0.07201601 0.27076977
0.07770384 -0.12431405 0.05022652 -0.2315975 -0.33491495 -0.21261458 -0.0121494075 -0.30247182
0.35412735 0.19126073 -0.23341179 0.0012998851 0.33180746 -0.32891265 0.14129637 0.28556535
-0.05374051 0.10782819 0.25095323 -0.10447641 0.3446708 0.100271955 -0.20020615 0.29416078
0.21171421 0.23734598 -0.023977622 -0.33560273 -0.13046733 -0.27710688 0.09797899 0.27913183
0.29195467 0.20551753 0.07580573 0.28555584 -0.12519675 -0.18010058 0.11617512 0.15653902
0.30297974 -0.23678781 -0.21902397 -0.3185364 0.10869602 -0.20424965 0.2844023 0.17235191
0.32480702 0.32233885 -0.011270957 -0.074024774 0.2683624 0.3255564 0.21178034 -0.33354267
0.19202517 -0.25889492 -0.0726831 0.20796695 0.15899268 -0.17776653 0.031923823 -0.17864777
-0.13526396 0.18343283 0.16990179 -0.27556345 -0.021892263 0.041654084 0.00052039954 0.004623722
0.31494915 0.15993811 -0.14043559 0.1094609 0.20236918 -0.3056175 0.17480414 -0.03244663
-0.20907697 0.001628034 0.2361554 0.20383923 0.27001837 0.3370703 -0.2928455 -0.2618726
0.2657295 0.1926325 -0.0075333137 0.17476547 -0.2295275 -0.2954875 0.21246518 -0.03818672
-0.008198136 -0.24818283 0.14863251 -0.23750843 -0.0001784159 0.0048662 -0.13083898 -0.16566285
0.16766061 0.037300363 0.28484622 0.34982482 -0.14476529 0.13258272 -0.14012879 -0.32267606
0.086351894 0.23259506 0.3110195 -0.2523848 -0.06073015 0.038910907 -0.05155486 -0.21264425
-0.05454496 0.23638566 -0.04062491 0.12927096 -0.2224001 -0.1614543 -0.081842124 0.1280101
-0.1603757 -0.098963656 -0.08984254 -0.3470657 0.04922166 -0.33953646 0.08572077 -0.29452655
-0.22881383 -0.19793408 0.050440833 0.08618377 0.23487991 0.26936436 -0.0053352453 0.14898376
0.08925013 0.2686514 -0.08604676 -0.3665341 -0.06637592 0.08415987 0.1611475 0.13917482
-0.16766421 0.25073215 -0.032069698 -0.24847446 0.3276658 0.19396573 -0.22952546 -0.0069937794
0.29036912 -0.19590989 0.32895085 -0.15415983 0.22137912 -0.073236994 -0.08758804 0.1165558
0.29632226 0.2092859 0.049216278 0.23632184 0.23930807 -0.3298957 -0.03107536 -0.28077775
0.25642246 -0.34042248 -0.07443386 -0.0049607377 0.08754739 -0.061534826 0.28841802 -0.07469135
0.097345665 0.29781324 -0.18849915 -0.29560736 -0.3171957 0.07122134 0.08386863 -0.33230978
-0.22986443 -0.28301826 0.2112424 0.018509664 0.3114412 0.07201614 -0.14541537 -0.008076913
00000000: 55dc 49be e590 e7bd 2a37 46be 94f4 89be
00000010: 7f25 9bbe 42dc 42be e417 8ebe 6f35 31be
00000020: e44a bb3d 33fe 913e 771f 43be bcce b3be
00000030: d57a 3abd fb16 0abe 4fc7 923e 8d31 7e3e
00000040: 1e13 153d fa22 3b3e 2854 a6bd 8bc0 5fbd
00000050: fef2 50be 422e ce3d f05c 27be d859 033e
00000060: 26e7 50bd ca78 803c 68a4 113e 211c 9e3e
00000070: 51c5 503e e9d6 88be f68e 563e e817 a83e
00000080: e955 0c3e 5aeb 2cbe 0546 8abe f5bc 0c3e
00000090: d985 ccbb 10ee 09be 8bb2 85be 2dc4 ad3e
000000a0: ed70 94be c03b 8d3d dddc ae3e 51aa 8abd
000000b0: bc4e 70be 2418 0d3e 1917 9d3e e770 893e
000000c0: a348 f53d e9a0 893e a0b2 f93d 2f8b 023d
000000d0: f6eb bd3d 7ba9 8abd 217d 933d 56a2 8a3e
000000e0: 3123 9f3d 5d98 febd 53ba 4d3d e527 6dbe
000000f0: f979 abbe a3b7 59be 4f0e 47bc 96dd 9abe
00000100: 2e50 b53e dad9 433e 8003 6fbe e860 aa3a
00000110: abe2 a93e 3d67 a8be ffaf 103e 9f35 923e
00000120: 021f 5cbd 07d5 dc3d f17c 803e baf7 d5bd
00000130: b178 b03e 625b cd3d d702 4dbe 3e9c 963e
00000140: 9ccb 583e d30a 733e b86c c4bc 1fd4 abbe
00000150: 3a99 05be f4e0 8dbe 35a9 c83d 5eea 8e3e
00000160: 157b 953e 3073 523e 0940 9b3d 6034 923e
00000170: 9433 00be 496c 38be 39ed ed3d c44b 203e
00000180: 2920 9b3e 8178 72be d247 60be 3417 a3be
00000190: 059c de3d d226 51be 2e9d 913e 057d 303e
000001a0: 1b4d a63e 9909 a53e d2a9 38bc 4d9a 97bd
000001b0: cc66 893e 54af a63e f2dc 583e 1bc6 aabe
000001c0: 3fa2 443e e08d 84be e1da 94bd 4af5 543e
000001d0: face 223e 6e08 36be 8ec2 023d 71ef 36be
000001e0: a382 0abe d1d5 3b3e bcfa 2d3e a716 8dbe
000001f0: 6757 b3bc 799d 2a3d 6c6b 083a 9782 973b
00000200: 0441 a13e d1c6 233e 59ce 0fbe 092d e03d
00000210: de39 4f3e e679 9cbe dbff 323e c2e6 04bd
00000220: 4618 56be c263 d53a b9d2 713e 3bbb 503e
00000230: d93f 8a3e 7a94 ac3e d8ef 95be 2a14 86be
00000240: b20d 883e 7441 453e 04da f6bb b8f5 323e
00000250: 4209 6bbe 234a 97be 7990 593e ae69 1cbd
00000260: 7a51 06bc a423 7ebe 1f33 183e 6935 73be
00000270: 2715 3bb9 a574 9f3b a7fa 05be 86a3 29be
00000280: 39af 2b3e 44c8 183d 5dd7 913e 3d1c b33e
00000290: 5a3d 14be c4c3 073e ec7d 0fbe cc35 a5be
000002a0: 43d9 b03d 662d 6e3e f33d 9f3e 9538 81be
000002b0: 2ec0 78bd 0b61 1f3d 302b 53bd 6abf 59be
000002c0: 896a 5fbd 150f 723e 4e66 26bd 9b5f 043e
000002d0: dabc 63be 4754 25be d89c a7bd 1415 033e
000002e0: 8739 24be 75ad cabd 5eff b7bd 98b2 b1be
000002f0: a79c 493d b9d7 adbe 5f8e af3d 2fcc 96be
00000300: 2c4e 6abe 3baf 4abe 0c9b 4e3d 1e81 b03d
00000310: 5c84 703e 20ea 893e 48d3 aebb 338f 183e
00000320: c6c8 b63d ad8c 893e 4939 b0bd 5caa bbbe
00000330: 19f0 87bd 035c ac3d da03 253e d883 0e3e
00000340: 2bb0 2bbe f75f 803e 845b 03bd 1770 7ebe
00000350: d0c3 a73e f49e 463e b908 6bbe 132c e5bb
00000360: 43ab 943e 9a9c 48be 3f6c a83e 13dc 1dbe
00000370: 35b1 623e 47fd 95bd 5c61 b3bd cfb4 ee3d
00000380: 8db7 973e 0b4f 563e 0297 493d 5afe 713e
00000390: 2d0d 753e 17e8 a8be c191 febc 1ac2 8fbe
000003a0: ce49 833e db4b aebe c870 98bd af8d a2bb
000003b0: 0c4c b33d f10b 7cbd 87ab 933e c7f7 98bd
000003c0: 2a5d c73d fa7a 983e ec05 41be d959 97be
000003d0: 7a67 a2be 7edc 913d 51c3 ab3d 8224 aabe
000003e0: 9561 6bbe c5e7 90be ed4f 583e 94a1 973c
000003f0: 3975 9f3e 337d 933d c4e7 14be 0755 04bc
