final/best_model_fold_4.pth (torch, 575082 bytes, 50 tensors)

embedding.weight f4 [50, 8]
0	0xbfa51c6f	-1.2899302
1	0x3ef810b1	0.48450235
2	0xbf0d0677	-0.5508799
3	0x3f6fb70f	0.936387
4	0xbefbfc0d	-0.49215737
5	0xbe0d3475	-0.13789542
6	0xc005e301	-2.0919802
7	0x3f7e3e1b	0.99313515
8	0xbeee0ec0	-0.46495628
9	0x3eca302a	0.3948987
10	0x3e56fd06	0.20994958
11	0x3f87f9a7	1.0623063
12	0x3f344280	0.7041397
13	0x3fc68077	1.5507954
14	0xbe7650f5	-0.2405432
15	0xbfee417d	-1.8613735
16	0x3ea5296f	0.32258174
17	0x3fd5eb93	1.6712517
18	0x3f0fa152	0.5610553
19	0xbfeb49a9	-1.8381854
20	0x3f6e45be	0.9307517
21	0xc01b94b1	-2.4309504
22	0x3e8c320c	0.27381933
23	0x3e2f0da6	0.1709505
24	0x3f2fe881	0.6871415
25	0x3ec771d2	0.38954026
26	0x3f3c2c2b	0.73504895
27	0xbec76e97	-0.3895156
28	0xbd8fac29	-0.07015259
29	0x3f171baf	0.59026617
30	0xbf707fa1	-0.93944746
31	0xc0147e98	-2.3202267
32	0x402363dc	2.55297
33	0x3fad7536	1.3551395
34	0xbea68a7a	-0.32527524
35	0x3f107e70	0.5644293
36	0x3fc5c98b	1.5452131
37	0xbf98d067	-1.1938599
38	0xbf8107d6	-1.0080516
39	0xbf6fb08b	-0.9362876
40	0x3fd3d6a6	1.654988
41	0xbf69ef46	-0.9138073
42	0x3fdee2cb	1.7412962
43	0x3fa69fad	1.3017479
44	0x3f53cbea	0.82733023
45	0x3f511598	0.81673574
46	0x3f869865	1.0515257
47	0xbf898609	-1.0744029
48	0xbf7b27ec	-0.9810779
49	0xbf576a2f	-0.841464
50	0xbe646e15	-0.22307618
51	0xbef533a4	-0.4789096
52	0x3f7f19a9	0.9964853
53	0x3f334aaa	0.70035803
54	0x3e82491e	0.2544641
55	0xbd332b2c	-0.043742344
56	0xbea5f16c	-0.32410753
57	0x3e3f9253	0.18708162
58	0x3ec8f1f9	0.3924711
59	0xbf6f5241	-0.93484885
60	0xbd38078f	-0.044929083
61	0x3f2aeee1	0.6677075
62	0xbf9937aa	-1.1970112
63	0xbed3bd97	-0.41355583
64	0xbda07eef	-0.07836711
65	0xbe3917cd	-0.18075486
66	0xbd399f6f	-0.045318063
67	0x3f60d7eb	0.87829465
68	0xbeb9e8bd	-0.36310378
69	0xbe8da23c	-0.27662838
70	0xbf45be16	-0.77243173
71	0x3fa0247e	1.2511137
72	0x3ee3d1a2	0.44495875
73	0xbf8b7fcd	-1.0898377
74	0xbd7af570	-0.061269224
75	0xbd82ddd1	-0.06389964
76	0xbf7a7d0a	-0.97847044
77	0x40152e7c	2.3309622
78	0x3f8991ca	1.0747616
79	0xbf2865eb	-0.65780514
80	0xbec421db	-0.3830708
81	0x3f06304c	0.52417445
82	0xbf9fe298	-1.2491026
83	0xbf419fab	-0.7563426
84	0xbe75d701	-0.24007799
85	0x3ee8c80b	0.4546512
86	0xbeb537eb	-0.35394225
87	0x3f954a57	1.1663312
88	0x3f822409	1.0167247
89	0x3f9d28fb	1.2278131
90	0xbf0c52e2	-0.5481397
91	0xbfab3d4b	-1.337808
92	0xbeea2a87	-0.4573557
93	0xbf2221e5	-0.6333297
94	0x3f404331	0.75102526
95	0x3fe4c99b	1.7874025
96	0xc00d7478	-2.2102337
97	0x3f8725c2	1.0558398
98	0xbf278edd	-0.6545237
99	0xbfb77d6c	-1.4335151
100	0x3f5a65a3	0.85311335
101	0x3ee6b04e	0.45056385
102	0xbf034497	-0.51276535
103	0xbe5eff86	-0.21777162
104	0x3f8d9a61	1.1062738
105	0xbfa09988	-1.2546854
106	0x3f2a8cd8	0.6662116
107	0xbf829d10	-1.0204182
108	0x3eb1089a	0.34576875
109	0xbf000a3a	-0.50015604
110	0xbef4957f	-0.47770306
111	0x4023c130	2.5586662
112	0x3fb86750	1.4406528
113	0x3f613365	0.87969047
114	0x3fd40c9e	1.656635
115	0x3f33b6f9	0.7020107
116	0x3fadbc81	1.3573152
117	0xbe6a2aa0	-0.22867823
118	0xbfcf3d09	-1.6190501
119	0x3d915559	0.07096357
120	0xbe3872a1	-0.18012477
121	0xbf2a31a9	-0.66482025
122	0x3ee3fb81	0.4452782
123	0xbfa9139b	-1.3209108
124	0xbf45292c	-0.7701595
125	0x4005b848	2.0893726
126	0x3f0322a2	0.5122472
127	0xbd3a55c9	-0.045491967
128	0x3f701c27	0.9379296
129	0x3f6ceca6	0.92548597
130	0xbf5d8c3b	-0.865421
131	0x3f8c431c	1.095798
132	0xbf2798aa	-0.6546732
133	0x3f8d8e80	1.1059113
134	0x3e599db3	0.21251564
135	0x3f839a6e	1.0281503
136	0xbf802c4b	-1.0013517
137	0x3ff4b7a8	1.9118547
138	0x3f919abe	1.1375349
139	0x3f4ea618	0.8072219
140	0x3f852ecd	1.0404907
141	0xbe82a747	-0.25518247
142	0x3d9702c1	0.07373572
143	0xbf5af1d8	-0.85525274
144	0x3e82ad2b	0.25522742
145	0x3e9d2ee9	0.30699852
146	0x3ea6357c	0.3246268
147	0x403ce9c4	2.951768
148	0x3e2ce565	0.16884382
149	0x3fa03c76	1.2518451
150	0xbf08934b	-0.5334975
151	0xbfb574cd	-1.417627
152	0x3f0de9a6	0.55434644
153	0xbeb3c329	-0.35109833
154	0x3e66af42	0.22527793
155	0x3e8e7562	0.2782393
156	0xbec4d2a3	-0.38441953
157	0xbf58d925	-0.84706336
158	0x3fa730a2	1.3061717
159	0xbef8c30f	-0.48586318
160	0xbd08b21e	-0.03337299
161	0xbec1c71f	-0.3784723
162	0x3c32793f	0.010893165
163	0x3cd9a12c	0.02656611
164	0x3e9347fd	0.2876586
165	0x3d5d4f7f	0.05403089
166	0xbe835ca3	-0.25656614
167	0x3fb822c3	1.4385608
168	0x3fec304c	1.8452239
169	0x3c996b69	0.018727975
170	0xbf8dadbb	-1.1068643
171	0x3ecedb5c	0.40401733
172	0x3e1db80e	0.15402243
173	0x3f56a4b8	0.8384509
174	0xbf1c22aa	-0.60990393
175	0x3eab08aa	0.33405048
176	0x3ed30ae7	0.41219255
177	0x3fbb90a4	1.4653516
178	0x3db55a43	0.08855107
179	0xbfa0621a	-1.2529938
180	0xbe55ae96	-0.2086738
181	0xbf79439c	-0.9736879
182	0x3f5655a2	0.83724415
183	0x3ff4a124	1.9111676
184	0x3f5ef750	0.8709612
185	0xbf58d200	-0.84695435
186	0xbf98fa5e	-1.1951406
187	0x400a207e	2.1582332
188	0x3f1cd955	0.6126912
189	0xbfa5d530	-1.2955685
190	0xc0007b57	-2.007528
191	0x4004fd7d	2.0779717
192	0xbe92ae22	-0.28648478
193	0x3e173a0e	0.1476824
194	0x3fb05769	1.3776675
195	0x3e581b7a	0.21104231
196	0xbf905806	-1.1276863
197	0xbe8527d1	-0.2600694
198	0xbf5e3cc0	-0.8681145
199	0x3edb9c40	0.42892647
200	0x4006e6a7	2.107828
201	0xbf49017d	-0.78517896
202	0x3f2382a1	0.638712
203	0xbf1418cc	-0.5785034
204	0xbf19b89b	-0.6004731
205	0xbedca00a	-0.4309085
206	0x3fc1a7b4	1.5129304
207	0xbf5c25f2	-0.859954
208	0x3f3d38f9	0.7391506
209	0x3f8af877	1.0857075
210	0xc007bf43	-2.1210487
211	0x3f407d31	0.75191027
212	0xbf83d9ff	-1.0300902
213	0xbe9ec70d	-0.3101124
214	0xbd1e21a7	-0.038606312
215	0x3d4657bd	0.048423517
216	0x3e73e895	0.23819192
217	0x3ea1eb26	0.31624717
218	0xbe153f9c	-0.14575046
219	0x3fb2e41e	1.3975866
220	0x3efbca2b	0.4917768
221	0x3e451cc6	0.19249257
222	0xbf487e03	-0.7831728
223	0x3fcd55e9	1.6041843
224	0x3e170e92	0.14751652
225	0xc0143c67	-2.3161867
226	0xbe74390e	-0.2384989
227	0x3f07a5ce	0.5298737
228	0x3ed755e8	0.4205773
229	0xbff1d55e	-1.889324
230	0x3ee28801	0.44244388
231	0xbf2dd89f	-0.6790866
232	0x3fd8c0b6	1.6933811
233	0x3f74d5eb	0.9563891
234	0xbe68eefa	-0.22747412
235	0x3f9e9e6d	1.2392098
236	0xbe133be6	-0.14378318
237	0x3f006829	0.50158936
238	0x3fadd67b	1.3581079
239	0xbfba891e	-1.4573095
240	0x3e9abcf3	0.30222282
241	0x3e42afd6	0.19012389
242	0x3e23f6e3	0.16012149
243	0xbe7c846f	-0.24659894
244	0xbf0c88ff	-0.5489654
245	0x3f8d68dc	1.1047626
246	0xbfb9a520	-1.4503517
247	0x3fabe347	1.3428735
248	0xbf9fad80	-1.2474823
249	0x3ea9ecf3	0.3318859
250	0xbf3f6490	-0.7476282
251	0xbf20d306	-0.62821996
252	0x3d242913	0.040078234
253	0x3ff201fe	1.8906858
254	0xbf7c996b	-0.986716
255	0xbfad1d41	-1.3524553

pos_encoder.pe f4 [1000, 1, 8]
0	0x00000000	0.0
1	0x3f800000	1.0
2	0x00000000	0.0
3	0x3f800000	1.0
4	0x00000000	0.0
5	0x3f800000	1.0
6	0x00000000	0.0
7	0x3f800000	1.0
8	0x3f576aa4	0.84147096
9	0x3f0a5141	0.54030234
10	0x3dcc7576	0.099833414
11	0x3f7eb898	0.9950042
12	0x3c23d657	0.009999833
13	0x3f7ffcb9	0.99995
14	0x3a83126d	0.0009999998
15	0x3f7ffff8	0.9999995
16	0x3f68c7b7	0.9092974
17	0xbed51133	-0.41614684
18	0x3e4b6ff8	0.19866931
19	0x3f7ae5a5	0.9800666
20	0x3ca3d43e	0.019998666
21	0x3f7ff2e5	0.9998
22	0x3b031268	0.0019999985
23	0x3f7fffdf	0.99999803
24	0x3e1081c3	0.14112
25	0xbf7d7026	-0.9899925
26	0x3e974e6c	0.2955202
27	0x3f7490ef	0.9553365
28	0x3cf5b91f	0.0299955
29	0x3f7fe283	0.99955004
30	0x3b449b92	0.0029999954
31	0x3f7fffb5	0.9999955
32	0xbf41bdcf	-0.7568025
33	0xbf275530	-0.6536436
34	0x3ec761d7	0.38941833
35	0x3f6bcaa7	0.921061
36	0x3d23cbdb	0.039989334
37	0x3f7fcb94	0.9992001
38	0x3b831257	0.003999989
39	0x3f7fff7a	0.999992
40	0xbf757c10	-0.9589243
41	0x3e913c2c	0.2836622
42	0x3ef57743	0.47942552
43	0x3f60a940	0.87758255
44	0x3d4cb6f4	0.049979165
45	0x3f7fae19	0.99875027
46	0x3ba3d6dd	0.004999979
47	0x3f7fff2e	0.9999875
48	0xbe8f0f8c	-0.2794155
49	0x3f75cdb8	0.96017027
50	0x3f108c68	0.5646424
51	0x3f534932	0.8253356
52	0x3d759cd1	0.059964005
53	0x3f7f8a12	0.99820054
54	0x3bc49b58	0.0059999637
55	0x3f7ffed2	0.999982
56	0x3f283046	0.6569866
57	0x3f40ffbd	0.75390226
58	0x3f24eb72	0.6442176
59	0x3f43ccb3	0.7648422
60	0x3d8f3e32	0.06994285
61	0x3f7f5f81	0.997551
62	0x3be55fc5	0.006999942
63	0x3f7ffe65	0.9999755
64	0x3f7d4695	0.98935825
65	0xbe14fdf6	-0.14550003
66	0x3f37a4a5	0.717356
67	0x3f325b5f	0.6967067
68	0x3da3aa50	0.07991469
69	0x3f7f2e65	0.9968017
70	0x3c031212	0.007999914
71	0x3f7ffde7	0.999968
72	0x3ed30132	0.4121185
73	0xbf693fd5	-0.91113025
74	0x3f48881c	0.78332686
75	0x3f1f21d5	0.62161
76	0x3db8123e	0.089878544
77	0x3f7ef6c2	0.9959527
78	0x3c13743a	0.008999879
79	0x3f7ffd59	0.9999595
80	0xbf0b44f8	-0.5440211
81	0xbf56cd64	-0.8390715
82	0x3f576aa4	0.84147096
83	0x3f0a5141	0.54030234
84	0x3dcc7576	0.099833414
85	0x3f7eb898	0.9950042
86	0x3c23d657	0.009999833
87	0x3f7ffcb9	0.99995
88	0xbf7fff5c	-0.9999902
89	0x3b910572	0.004425698
90	0x3f64262a	0.89120734
91	0x3ee83dc3	0.4535962
92	0x3de0d372	0.1097783
93	0x3f7e73e8	0.9939561
94	0x3c343869	0.010999777
95	0x3f7ffc09	0.9999395
96	0xbf095cd8	-0.53657293
97	0x3f5806d0	0.84385395
98	0x3f6e9a1d	0.9320391
99	0x3eb986f7	0.36235783
100	0x3df52bac	0.119712204
101	0x3f7e28b5	0.99280864
102	0x3c449a70	0.011999711
103	0x3f7ffb48	0.999928
104	0x3ed72022	0.42016703
105	0x3f684e6f	0.9074468
106	0x3f76abc0	0.9635582
107	0x3e88f59d	0.26749888
108	0x3e04bed0	0.12963414
109	0x3f7dd700	0.9915619
110	0x3c54fc6a	0.012999633
111	0x3f7ffa76	0.9999155
112	0x3f7d9872	0.9906074
113	0x3e0c04d7	0.13673721
114	0x3f7c466f	0.98544973
115	0x3e2e0be7	0.16996728
116	0x3e0ee464	0.13954312
117	0x3f7d7ecc	0.990216
118	0x3c655e55	0.013999541
119	0x3f7ff994	0.999902
120	0x3f267944	0.65028787
121	0xbf427ae8	-0.7596879
122	0x3f7f5bd5	0.997495
123	0x3d90deba	0.07073732
124	0x3e19064f	0.14943813
125	0x3f7d201a	0.9887711
126	0x3c75c032	0.014999436
127	0x3f7ff8a1	0.9998875
128	0xbe936810	-0.2879033
129	0xbf75292c	-0.9576595
130	0x3f7fe40e	0.9995736
131	0xbcef33a3	-0.029199427
132	0x3e232450	0.15931821
133	0x3f7cbaed	0.98722726
134	0x3c831100	0.015999317
135	0x3f7ff79d	0.999872
136	0xbf761e25	-0.96139747
137	0xbe8ce236	-0.27516335
138	0x3f7dddbf	0.9916648
139	0xbe03efcb	-0.12884443
140	0x3e2d3e23	0.16918235
141	0x3f7c4f49	0.9855848
142	0x3c8b41dd	0.01699918
143	0x3f7ff688	0.9998555
144	0xbf4040b3	-0.75098723
145	0x3f290a84	0.6603167
146	0x3f794e14	0.9738476
147	0xbe68a7a7	-0.22720204
148	0x3e375387	0.17902957
149	0x3f7bdd2e	0.9838437
150	0x3c9372b2	0.017999027
151	0x3f7ff562	0.999838
152	0x3e197969	0.1498772
153	0x3f7d1bbf	0.9887046
154	0x3f7240ba	0.94630015
155	0xbea58631	-0.32328942
156	0x3e41643a	0.1888589
157	0x3f7b64a1	0.9820042
158	0x3c9ba37d	0.018998856
159	0x3f7ff42c	0.9998195
160	0x3f69b6c8	0.9129453
161	0x3ed0f022	0.40808207
162	0x3f68c7b8	0.90929747
163	0xbed5112f	-0.41614673
164	0x3e4b6ff8	0.19866931
165	0x3f7ae5a5	0.9800666
166	0x3ca3d43e	0.019998666
167	0x3f7ff2e5	0.9998
168	0x3f562f10	0.8366556
169	0xbf0c37fc	-0.54772925
170	0x3f5cfb4b	0.8632094
171	0xbf013d97	-0.50484604
172	0x3e557683	0.2084599
173	0x3f7a603c	0.9780309
174	0x3cac04f3	0.020998454
175	0x3f7ff18d	0.9997795
176	0xbc110515	-0.008851309
177	0xbf7ffd6f	-0.99996084
178	0x3f4ef9a1	0.80849653
179	0xbf16a800	-0.588501
180	0x3e5f7796	0.21822962
181	0x3f79d46a	0.97589743
182	0x3cb4359e	0.021998223
183	0x3f7ff024	0.999758
184	0xbf58a1e6	-0.8462204
185	0xbf0867bf	-0.53283304
186	0x3f3ee68a	0.74570525
187	0xbf2a9110	-0.666276
188	0x3e6972f0	0.22797751
189	0x3f794234	0.9736664
190	0x3cbc663d	0.02299797
191	0x3f7feeab	0.99973553
192	0xbf67d3fc	-0.9055784
193	0x3ed92dfe	0.42417902
194	0x3f2ceb29	0.67546326
195	0xbf3cc5d4	-0.7373936
196	0x3e736851	0.23770262
197	0x3f78a99b	0.971338
198	0x3cc496d0	0.023997694
199	0x3f7fed20	0.999712
200	0xbe078738	-0.13235176
201	0x3f7dbf78	0.99120283
202	0x3f19357c	0.59847236
203	0xbf4d17bd	-0.80114347
204	0x3e7d5777	0.24740396
205	0x3f780aa5	0.9689124
206	0x3cccc756	0.024997395
207	0x3f7feb85	0.9996875
208	0x3f433708	0.76255846
209	0x3f259c81	0.6469193
210	0x3f03f7e7	0.51550144
211	0xbf5b5d0f	-0.8568887
212	0x3e83a010	0.25708055
213	0x3f776556	0.96639
214	0x3cd4f7ce	0.025997069
215	0x3f7fe9da	0.99966204
216	0x3f74d50e	0.95637596
217	0xbe959338	-0.29213881
218	0x3edad18f	0.42738006
219	0xbf677144	-0.90407205
220	0x3e889105	0.2667314
221	0x3f76b9b1	0.9637709
222	0x3cdd2839	0.026996719
223	0x3f7fe81d	0.9996355
224	0x3e8ab42a	0.2709058
225	0xbf766d57	-0.9626059
226	0x3eab839a	0.33498842
227	0xbf71357a	-0.94222224
228	0x3e8d7e7d	0.27635565
229	0x3f7607bb	0.96105546
230	0x3ce55894	0.027996339
231	0x3f7fe650	0.99960804
232	0xbf29e3e9	-0.6636339
233	0xbf3f80b3	-0.74805754
234	0x3e74fdd0	0.23924947
235	0xbf7890b6	-0.9709581
236	0x3e926854	0.2859522
237	0x3f754f79	0.9582439
238	0x3ced88e1	0.028995933
239	0x3f7fe472	0.99957955
240	0xbf7cefa4	-0.9880316
241	0x3e1df418	0.15425146
242	0x3e1081d3	0.14112024
243	0xbf7d7025	-0.98999244
244	0x3e974e6c	0.2955202
245	0x3f7490ef	0.9553365
246	0x3cf5b91e	0.029995497
247	0x3f7fe283	0.99955004
248	0xbecede06	-0.40403765
249	0x3f6a2c8e	0.91474235
250	0x3d2a5096	0.04158076
251	0xbf7fc752	-0.99913514
252	0x3e9c30a5	0.30505863
253	0x3f73cc22	0.95233357
254	0x3cfde94b	0.030995032
255	0x3f7fe083	0.9995195

transformer_encoder.layers.0.self_attn.in_proj_weight f4 [24, 8]
0	0x3ec8f515	0.39249483
1	0xbd2f6e03	-0.042829525
2	0xbeaaa49e	-0.33328718
3	0xbe58ad47	-0.2115985
4	0x3eb46275	0.35231367
5	0x3e420913	0.18948774
6	0x3ecc5e98	0.3991592
7	0xbe8e266a	-0.27763683
8	0xbe4df030	-0.20111156
9	0x3e5e07d1	0.21682669
10	0x3e63d4e5	0.22249182
11	0xbdae5eb0	-0.08514154
12	0xbddf3157	-0.10898083
13	0xbe990375	-0.2988545
14	0xbdea09a7	-0.11427622
15	0xbe82f50b	-0.25577578
16	0xbe9e8edd	-0.3096837
17	0xbe431703	-0.19051747
18	0x3d14096a	0.03614179
19	0x3e04e603	0.12978368
20	0x3b9877b5	0.004652942
21	0x3ec7f290	0.39052248
22	0xbe4ab2b3	-0.19794731
23	0xbea027dc	-0.3128041
24	0x3e3ee466	0.18641815
25	0xbe8f9314	-0.280419
26	0xbed9eed8	-0.42565036
27	0xbe4e16d1	-0.20125891
28	0x3d4a6ffc	0.049423203
29	0x3eaf00d1	0.3418031
30	0x3ddb9b11	0.10722936
31	0x3e8d3df7	0.27586338
32	0xbd7e115c	-0.062028274
33	0x3ea27b77	0.3173482
34	0xbe00720a	-0.12543502
35	0x3e23e906	0.1600686
36	0x3e030201	0.12793733
37	0xbe36bf9d	-0.17846532
38	0xbd42773e	-0.047477
39	0x3e20fad1	0.15720679
40	0x3de8f6e0	0.11375213
41	0xbead914b	-0.33899912
42	0x3d1e7584	0.03868629
43	0x3d459219	0.048235033
44	0x3eb63659	0.3558834
45	0xbe76ade6	-0.24089774
46	0x3ec61d14	0.3869406
47	0x3e9a8e45	0.30186668
48	0xbd085893	-0.033287596
49	0xbd9741cc	-0.07385597
50	0x3db6815f	0.08911394
51	0xbda058c8	-0.07829434
52	0xbe9b072c	-0.3027891
53	0xbecafe92	-0.39647347
54	0x3e6fb158	0.23407495
55	0x3ec60677	0.38676807
56	0xbed073e0	-0.40713406
57	0xbe38b004	-0.18035895
58	0xbe86ee8f	-0.2635388
59	0x3cee9977	0.029125912
60	0xbd9cc04a	-0.07653864
61	0xbdba6a20	-0.09102273
62	0xbdcfc673	-0.10145273
63	0x3ec306d5	0.3809115
64	0xbe021318	-0.12702596
65	0x3e85bd06	0.26120776
66	0xbeb28bc0	-0.34872246
67	0xbe9c3bf1	-0.30514482
68	0x3e5b031a	0.21387902
69	0x3eb114a7	0.3458607
70	0x3e7a5a31	0.24448468
71	0x3dda8ea9	0.106717415
72	0x3df4e6dc	0.119580954
73	0xbdafdb4a	-0.08586748
74	0x3ed274f2	0.41104847
75	0xbe864319	-0.26223066
76	0xbe549158	-0.20758569
77	0xbdad8280	-0.084721565
78	0xbe997ab7	-0.29976436
79	0x3ebbcd61	0.3668013
80	0x3c86272c	0.0163761
81	0x3b169ea9	0.0022982752
82	0xbe865cdf	-0.2624273
83	0xbe62141f	-0.22077988
84	0xbe2e91e4	-0.1704784
85	0x3ecc39d9	0.39887884
86	0xbea2c04a	-0.3178733
87	0x3e44b32b	0.19208972
88	0x3e537f2b	0.2065398
89	0xbe7bd83a	-0.24594203
90	0x3bf8f5d8	0.0075976662
91	0xbedbce33	-0.42930755
92	0xbe974b64	-0.29549706
93	0x3eb5f65f	0.3553953
94	0x3e0f9470	0.14021468
95	0xbe02ec26	-0.12785396
96	0xbe1ca51b	-0.15297358
97	0xbe95d2ca	-0.29262382
98	0xbe5fcad8	-0.21854722
99	0x3ec8fe71	0.39256623
100	0xbeb46b9a	-0.35238343
101	0xbe30dfd8	-0.1727289
102	0x3e91e7a4	0.2849704
103	0x3e833cad	0.2563223
104	0xbe74b6bb	-0.23897831
105	0x3ba0428e	0.0048907464
106	0x3d4bb296	0.04973086
107	0xbe531ca3	-0.20616393
108	0x3e59a1ad	0.2125308
109	0x3d7801fa	0.06054876
110	0xbe434739	-0.19070138
111	0xbdacde00	-0.08440781
112	0x3d0d252d	0.03445928
113	0x3e05f456	0.13081488
114	0xbe6952d6	-0.22785506
115	0xbed5e636	-0.417772
116	0x3c930bfd	0.017950052
117	0x3eb96d62	0.36216265
118	0xbe1f8064	-0.15576321
119	0xbe12c1cb	-0.14331739
120	0xbd1bff05	-0.038085002
121	0x3b9d5436	0.0048012985
122	0xbe54ce9a	-0.20781937
123	0x3ebc147d	0.3673438
124	0x3e88a3bc	0.2668742
125	0xbdd8cac0	-0.105855465
126	0x3e97cbd5	0.296477
127	0x3d60a114	0.054841116
128	0x3e217b0e	0.15769598
129	0xbe14b36f	-0.14521573
130	0xbe0a6ee0	-0.13518858
131	0x3ec62f74	0.3870808
132	0x3da0a060	0.07843089
133	0xbc4fbbf8	-0.012679093
134	0xbe2091bd	-0.15680595
135	0xbe8a2bfa	-0.26986676
136	0xbe7c10b5	-0.24615748
137	0xbe2a1ab7	-0.16611753
138	0x3e6bab7b	0.23014633
139	0xbec006c6	-0.37505168
140	0x3e11e559	0.14247645
141	0x3e3388b2	0.17532614
142	0x3ee0f5f6	0.43937653
143	0xbe11f74d	-0.14254494
144	0xbe02e969	-0.12784351
145	0x3ddf9d0f	0.109186284
146	0xbe7d6cf2	-0.2474859
147	0xbd8a7112	-0.06759848
148	0xbda177c9	-0.07884175
149	0x3eb7e588	0.35917306
150	0xbdca1d96	-0.09868924
151	0x3eabd1eb	0.33558592
152	0xbe22184d	-0.15829583
153	0xbebeb246	-0.37245387
154	0xbebc81b7	-0.36817715
155	0xbe5072a5	-0.20356233
156	0xbe9907ce	-0.29888767
157	0x3de455e7	0.11149197
158	0x3e6d5c94	0.23179847
159	0xbda5395b	-0.0806758
160	0xbe1fdd51	-0.1561177
161	0x3ecfa386	0.40554446
162	0x3ec3abc8	0.38216996
163	0x3eccc560	0.39994335
164	0x3da8a332	0.08234252
165	0xbede2dc6	-0.43394297
166	0x3d23c867	0.03998604
167	0xbe587515	-0.21138413
168	0xbdb91206	-0.09036641
169	0x3ec70710	0.38872576
170	0x3e7368ab	0.23770396
171	0xbed4b45c	-0.41543853
172	0xbe441e66	-0.19152221
173	0xbe877254	-0.26454413
174	0x3c2b21db	0.0104450835
175	0xbec79b7b	-0.3898581
176	0xbc936320	-0.017991602
177	0x3c8282fc	0.015931599
178	0xbed396e4	-0.41326058
179	0x3ddf4eda	0.109037116
180	0xbd81999e	-0.06328128
181	0x3dcc5473	0.09977045
182	0xbeb9fd1b	-0.36325917
183	0xbe0c5536	-0.1370438
184	0xbe26b4af	-0.16279863
185	0xbe807906	-0.25092334
186	0xbdced2fc	-0.10098836
187	0x3ed1f0ce	0.41004032
188	0xbe6b3307	-0.22968684
189	0xbe8a97b7	-0.27068874
190	0xbeada0e4	-0.33911812
191	0x3e331ba3	0.17491011

transformer_encoder.layers.0.self_attn.in_proj_bias f4 [24]
0	0xbc6f9e36	-0.014625123
1	0x3c043807	0.008069999
2	0x3c1862c0	0.009300888
3	0xbc322da6	-0.010875141
4	0x3c15aa87	0.009134895
5	0x3b88446b	0.0041585467
6	0x3c6bb484	0.0143863
7	0xbafd041b	-0.0019303592
8	0x38e82864	0.000110701454
9	0x38e4d203	0.00010911005
10	0x3a429421	0.00074225856
11	0x39d2ea36	0.00040228822
12	0x37c201fb	2.3127524e-05
13	0x398b3d59	0.00026557854
14	0xb9fa94ae	-0.0004779449
15	0x3918c14f	0.00014567863
16	0x3c4ffae2	0.0126940925
17	0xbcc8a941	-0.024494769
18	0x3c906077	0.017624123
19	0xbbb54112	-0.0055314386
20	0xbc675d6c	-0.014121395
21	0x3bda8518	0.006668698
22	0x3c3c2202	0.0114827175
23	0xbb051290	-0.0020305254

transformer_encoder.layers.0.self_attn.out_proj.weight f4 [8, 8]
0	0x3e2a2645	0.16616161
1	0xbe298f6e	-0.1655862
2	0x3e603701	0.21895982
3	0xbd80d931	-0.06291426
4	0x3e352322	0.17689183
5	0x3e7e2c91	0.24821688
6	0x3dd75f73	0.10516252
7	0x3ea1e3ec	0.31619203
8	0xbd2ad939	-0.041711066
9	0x3e8548e0	0.26032162
10	0x3d993b52	0.074820176
11	0xbea8107e	-0.32825083
12	0xbd7db594	-0.061940745
13	0xbdff671d	-0.12470839
14	0xbea6ec42	-0.32602125
15	0xbd679e65	-0.05654754
16	0x3e8c2cff	0.2737808
17	0xbe76882f	-0.24075387
18	0xbdedf694	-0.11619297
19	0xbe96b903	-0.29438028
20	0xbce5f1c6	-0.028069388
21	0x3ea421ce	0.3205704
22	0xbe22d838	-0.15902793
23	0x3e5503d5	0.20802243
24	0x3dd96b2f	0.10616147
25	0xbd85691e	-0.0651419
26	0x3db0046e	0.08594595
27	0xbdce48b1	-0.100724585
28	0x3eae1d70	0.34006834
29	0x3e2d066e	0.16896984
30	0x3e6c2cef	0.23064016
31	0xbcd8cc00	-0.026464462
32	0x3e8d9732	0.27654415
33	0x3d603e08	0.054746658
34	0xbe783850	-0.24240232
35	0xbca80a4c	-0.020512722
36	0x3b433141	0.0029783996
37	0x3e06f8ba	0.13180819
38	0xbe8828cc	-0.26593626
39	0xbe23f980	-0.16013145
40	0xbe9ebaf8	-0.3100202
41	0xbd7f73a3	-0.06236614
42	0xbe971f1c	-0.29515922
43	0x3e2ec647	0.17067824
44	0xbe42e295	-0.19031747
45	0x3e9c1617	0.30485603
46	0xbe18abb4	-0.1490925
47	0xbdd8fce4	-0.1059511
48	0xbdbd0ba3	-0.09230735
49	0x3dffa7ba	0.12483163
50	0xbe81fe7b	-0.25389466
51	0xbe48a3c9	-0.19593729
52	0x3e78295b	0.24234526
53	0xb9ff57c3	-0.00048702778
54	0xbe5c60f2	-0.21521357
55	0x3de8d6e6	0.113691136
56	0x3e9a5b78	0.3014791
57	0xbda7c754	-0.08192316
58	0x3e1e4df1	0.1545942
59	0xbe813e31	-0.2524276
60	0xbea1ed8e	-0.31626552
61	0xbde8089b	-0.11329766
62	0xbe128de8	-0.14311945
63	0xbe172612	-0.14760616

transformer_encoder.layers.0.self_attn.out_proj.bias f4 [8]
0	0x3c5b66ce	0.01339121
1	0xba8e5ca3	-0.0010861348
2	0x3b737e3b	0.0037154097
3	0x3c0a52a3	0.008442554
4	0xbc8fe3d1	-0.017564686
5	0x3bf9cfe4	0.0076236594
6	0xbc9f8d2a	-0.019476492
7	0x3cba2ec9	0.022727387

transformer_encoder.layers.0.linear1.weight f4 [128, 8]
0	0xbe3a5507	-0.18196498
1	0x3e66d4b7	0.22542082
2	0xbeb37c6a	-0.35055858
3	0x3ea7978a	0.32732803
4	0x3e4b586c	0.19857949
5	0xbe9f07dc	-0.31060684
6	0x3e134ce5	0.14384802
7	0x3e581bea	0.21104398
8	0xbbbc5fed	-0.00574874
9	0xbc978f92	-0.018501077
10	0xbd39297c	-0.04520558
11	0xbe2d0fd0	-0.16900563
12	0x3eb68da1	0.3565493
13	0xbe67239a	-0.22572175
14	0x3e0cdd5e	0.1375632
15	0x3e77a7ea	0.24185148
16	0x3e108711	0.14114024
17	0x3c4110e6	0.011783814
18	0x3e8b41f0	0.27198744
19	0xbe860acf	-0.2618012
20	0x3c812250	0.015763432
21	0x3ea66ba5	0.32504
22	0x3cb1bebc	0.021697395
23	0xbb2afbc3	-0.0026090003
24	0xbdc5b96c	-0.09654507
25	0x3ca63a6a	0.020291526
26	0x3d92bfa4	0.07165459
27	0x3e9805f6	0.29692048
28	0x3e54158f	0.20711349
29	0xbd80b5d7	-0.06284683
30	0x3e092da3	0.13396315
31	0x3ea3a2ee	0.31960243
32	0x3eaabba4	0.33346283
33	0xbd8e7bba	-0.06957193
34	0xbcfb0912	-0.030643973
35	0xbd94782f	-0.07249486
36	0x3e961900	0.29315948
37	0x3da5342e	0.08066593
38	0x3e81f11f	0.25379273
39	0x3ea026be	0.31279558
40	0xbbb73d41	-0.005592019
41	0x3d4eef73	0.050521325
42	0x3db10a5e	0.086445555
43	0xbce1294c	-0.027485512
44	0xbe9f8542	-0.31156355
45	0xbe74350a	-0.23848358
46	0xbe524c42	-0.20536903
47	0x3d416565	0.047215838
48	0xbdc7ec04	-0.09761813
49	0x3e991076	0.2989537
50	0xbdd78864	-0.10524061
51	0xbe441960	-0.19150305
52	0x3ce5f8e2	0.028072778
53	0xbe365a34	-0.17807847
54	0xbdbe974e	-0.09306203
55	0xbd57a97e	-0.052651875
56	0xbe9acbc4	-0.30233586
57	0xbd0897ba	-0.033347823
58	0x3da039c5	0.07823519
59	0xbe8562f5	-0.2605206
60	0x3e85bd81	0.26121143
61	0xbe9ee041	-0.31030467
62	0xbdf21abf	-0.11821508
63	0xbe6509d1	-0.22367026
64	0xbdc876b2	-0.09788264
65	0xbea8234a	-0.32839423
66	0xbd95e0d1	-0.07318271
67	0xbe9ef636	-0.3104722
68	0x3dd1cfae	0.1024469
69	0x3d9589fe	0.073017105
70	0xbdac3985	-0.084094085
71	0xbe5972dd	-0.21235223
72	0xbe0119ba	-0.1260747
73	0xbe6e8d77	-0.23296152
74	0xbe70caa1	-0.23514797
75	0x3d589335	0.052874763
76	0xbe1de3b1	-0.15418889
77	0xbe10aaff	-0.1412773
78	0x3befa0b4	0.0073128585
79	0xbdccc2d8	-0.09998101
80	0xbe152025	-0.14563043
81	0x3ea3633e	0.31911653
82	0xbe20decd	-0.15709992
83	0x3e956071	0.2917514
84	0x3d840365	0.0644596
85	0xbe000d74	-0.12505132
86	0x3de7483c	0.112930745
87	0xbeb5649f	-0.3542833
88	0xbe7e5c6a	-0.2483994
89	0x3e37a555	0.17934163
90	0xbeb3672e	-0.35039657
91	0xbe677519	-0.22603263
92	0xbe85ffc5	-0.261717
93	0x3daa1b70	0.083060145
94	0x3e3cbba3	0.18430953
95	0x3e919437	0.2843339
96	0xbd495cae	-0.04916065
97	0xbe6b5721	-0.22982456
98	0xbe9cdffd	-0.3063964
99	0x3e84acf1	0.25913194
100	0x3e84d249	0.25941685
101	0xbe163e0f	-0.14672111
102	0x3e437a30	0.1908958
103	0xbdf0aa09	-0.11751182
104	0x3e9d1287	0.30678198
105	0x3ea0cdfa	0.31407148
106	0xbeb4bf79	-0.35302332
107	0xbb2466c7	-0.0025085674
108	0x3d0690ee	0.03285306
109	0x3dfb77ec	0.12278733
110	0xbdcc3fae	-0.099730834
111	0xbe89fc0d	-0.26950112
112	0x3e96378a	0.29339248
113	0x3e081d7a	0.13292494
114	0x3e7f6862	0.24942163
115	0x3e02e823	0.12783866
116	0x3dd3e16d	0.10345731
117	0xbdf83831	-0.12120093
118	0x3e3e9065	0.1860977
119	0xbdefebe3	-0.11714914
120	0x3d336ad6	0.04380306
121	0xbe817632	-0.25285488
122	0x3e57f525	0.21089609
123	0x3e480f49	0.19537081
124	0xbeacd768	-0.33758092
125	0xbe1b2f5b	-0.15154783
126	0x3e72b189	0.23700537
127	0xbe8873bc	-0.26650798
128	0x3e4b1051	0.19830443
129	0xbe23ee08	-0.1600877
130	0xbea51d66	-0.32248992
131	0xbeb1787f	-0.34662244
132	0xbd8978c3	-0.067124866
133	0xbda41500	-0.08011818
134	0x3e79a81d	0.24380536
135	0x3e5bb3d5	0.21455319
136	0xbea17739	-0.31536272
137	0x3e3d0e76	0.18462548
138	0x3eaeae6f	0.34117457
139	0xbe758836	-0.23977742
140	0x3eb57438	0.3544023
141	0xbdbdcde8	-0.09267789
142	0xbe2b10d2	-0.16705635
143	0xbdc58aca	-0.096456125
144	0xbe099d75	-0.13438971
145	0xbd2a2c7a	-0.041546322
146	0xbe27f3ff	-0.16401671
147	0x3e96df7b	0.29467377
148	0xbea4d9d3	-0.32197437
149	0x3df34d1f	0.11879944
150	0xbd611ff1	-0.054962102
151	0xbe4fcbe1	-0.20292617
152	0xbe502755	-0.20327504
153	0x3c34e938	0.011041932
154	0xbe8906c8	-0.26762986
155	0x3e2762c2	0.16346267
156	0x3e2104f2	0.15724543
157	0xbd37b907	-0.04485419
158	0x3eb72b06	0.35775012
159	0xbe7ecb17	-0.2488216
160	0x3e844114	0.258309
161	0x3e945673	0.28972206
162	0x3d84184d	0.064499475
163	0xbe79f863	-0.24411158
164	0x3da77f92	0.08178629
165	0xbe9639dd	-0.2934102
166	0x3e95ee91	0.29283574
167	0x3e08c3ff	0.13356017
168	0x3d3f7c5d	0.04674946
169	0xbe9a568b	-0.30144152
170	0xbe2c8e0d	-0.16851063
171	0x3eade2aa	0.33961993
172	0xbe2e489d	-0.17019887
173	0xbc5a9739	-0.013341718
174	0xbdba8ab0	-0.09108484
175	0x3e23293c	0.15933698
176	0xbe88aaeb	-0.266929
177	0xbe8a8e92	-0.27061898
178	0x3d43c25d	0.04779278
179	0xbde53066	-0.11190872
180	0xbcb3f238	-0.021966085
181	0xbe8f5a03	-0.2799836
182	0xbcfc56c2	-0.030803088
183	0x3e9f3dd2	0.31101853
184	0xbdaebfcc	-0.08532676
185	0x3e710578	0.23537242
186	0x3d9e8457	0.077400856
187	0xbdbef9d8	-0.09324998
188	0xbdd06a1f	-0.10176491
189	0xbd244b9d	-0.040111173
190	0xbe7a5436	-0.24446186
191	0x3e7524f8	0.23939884
192	0x3e09e67d	0.1346683
193	0x3e91710d	0.28406563
194	0xbe2bc7ee	-0.16775486
195	0x3e05f7e7	0.13082848
196	0x3e31f531	0.1737869
197	0x3d941a86	0.072316214
198	0x3e3b3258	0.18280923
199	0xbe40896e	-0.18802425
200	0xbe9e53ee	-0.30923408
201	0x3e3d4fdb	0.18487494
202	0x3e65cbec	0.22441071
203	0xbe866230	-0.26246786
204	0x3e0e3610	0.1388781
205	0xbe8b556f	-0.27213618
206	0x3b807d2b	0.003921171
207	0xbc81e3ee	-0.015855756
208	0x3e2ebbcc	0.17063826
209	0xbe924b6e	-0.28573173
210	0xbe80d1a6	-0.2515995
211	0x3dd81d59	0.105524726
212	0x3c7c1b6e	0.015387399
213	0x3e91f459	0.28506735
214	0x3e86fea5	0.26366153
215	0xbe264d40	-0.16240406
216	0xbb64cab9	-0.0034910871
217	0xbdd9b32b	-0.10629877
218	0xbd4b09a2	-0.049569733
219	0xbe0496ce	-0.12948152
220	0xbe6873a9	-0.22700371
221	0xbe83a7c6	-0.25713938
222	0x3c89fb24	0.016843386
223	0xbd9f0972	-0.077654734
224	0x3e98de1c	0.29856956
225	0x3e009208	0.12555707
226	0x3e1cfbf6	0.1533049
227	0x3dd7c980	0.1053648
228	0x3df626cd	0.120191194
229	0x3c869c35	0.016431907
230	0x3e930dd0	0.28721476
231	0x3e7718c4	0.24130541
232	0xbe818e38	-0.25303817
233	0xbe2b42f9	-0.16724767
234	0x3e117e68	0.14208376
235	0x3e665030	0.22491527
236	0x3e94b6b8	0.29045653
237	0x3e97c0a3	0.29639158
238	0xbe9a30a1	-0.30115226
239	0xbe3f7a3c	-0.18698972
240	0xbeae5254	-0.34047186
241	0xbe73003c	-0.23730558
242	0xbd8935f0	-0.06699741
243	0x3ea05873	0.3131748
244	0xbe6a335a	-0.22871152
245	0xbc7fc61d	-0.015611199
246	0xbe892ccb	-0.26791987
247	0x3de07ee3	0.10961702
248	0xbd4fc6a8	-0.050726563
249	0x3d7a4143	0.061097395
250	0x3d6cc0a5	0.057800908
251	0xbe5a5a87	-0.21323596
252	0x3dc86f1d	0.09786818
253	0xbd1c9e0b	-0.03823666
254	0x3ea1118b	0.31458697
255	0x3e0b38d6	0.135959

transformer_encoder.layers.0.linear1.bias f4 [128]
0	0xbe37c530	-0.17946315
1	0xbe793157	-0.24335228
2	0xbe661aa3	-0.22471099
3	0x3dcd7c77	0.100335054
4	0x3de0eed9	0.109830566
5	0xbe891497	-0.2677352
6	0x3e98386e	0.29730552
7	0xbd6b01a8	-0.057374626
8	0xbe8b0ccb	-0.27158198
9	0xbdaad1f3	-0.08340826
10	0xbe700bc2	-0.23441985
11	0xbd700f0d	-0.058608104
12	0x3e3cc377	0.18433939
13	0xbea5fa6f	-0.32417628
14	0xbe82a538	-0.25516677
15	0xbe4b2194	-0.19837028
16	0xbe7e77d4	-0.24850398
17	0xbeaed7d1	-0.3414903
18	0xbe3a0659	-0.18166484
19	0x3e8bdd4c	0.27317274
20	0xbdad6380	-0.08466244
21	0x3deef400	0.11667633
22	0x3e717e0b	0.23583238
23	0xbea140c9	-0.3149474
24	0x3e045a0d	0.12924977
25	0xbdcf6ea3	-0.10128524
26	0xbe004438	-0.12526023
27	0xbe975273	-0.2955509
28	0xbe009d7b	-0.12560074
29	0xbdbe27a4	-0.092849046
30	0x3dd75e0e	0.105159864
31	0x3ea16b5f	0.3152723
32	0xbd8e284b	-0.06941279
33	0x3ce4af48	0.027915612
34	0xbdf4189a	-0.11918755
35	0x3d29b670	0.04143375
36	0x3cfbe219	0.03074746
37	0x3e3079fb	0.17234032
38	0x3e562aaa	0.20914713
39	0xbcaadb42	-0.020856503
40	0xbeaf8e7f	-0.34288403
41	0x3eaf2a13	0.34211788
42	0x3da45c1b	0.0802538
43	0xbd2d2cd0	-0.042279065
44	0xbd30c390	-0.043155253
45	0xbde5d79f	-0.11222767
46	0xbea7d7ab	-0.3278173
47	0x3eab53cc	0.3346237
48	0x3dcce80d	0.10005198
49	0xbe680efa	-0.22661963
50	0xbc9cf0a7	-0.01915772
51	0xbe14f1d3	-0.14545374
52	0x3e1e4870	0.1545732
53	0x3ea4e154	0.32203162
54	0x3e50f453	0.20405702
55	0xbeaf763c	-0.34269893
56	0x3d26338b	0.0405765
57	0x3c794010	0.015213028
58	0x3e445228	0.19171965
59	0xbe8f48e1	-0.2798529
60	0x3d8950fc	0.067049
61	0xbe81634e	-0.25271076
62	0xbe544f46	-0.20733365
63	0xbe5e9db7	-0.21739851
64	0xbdc4b7a1	-0.09605337
65	0xbea6d3f8	-0.32583594
66	0xbe4bc6f4	-0.19900113
67	0x3d3a0998	0.045419306
68	0xbea1456a	-0.3149827
69	0x3e9ceb96	0.30648488
70	0xbd2e4679	-0.042547677
71	0xbe63e012	-0.22253445
72	0x3e21d8fc	0.15805429
73	0x3e6c3f24	0.23070961
74	0xbe860171	-0.26172975
75	0x3c7a5fd2	0.015281634
76	0x3d937984	0.07200912
77	0xbe7cba3a	-0.24680415
78	0xbe706c48	-0.23478806
79	0x3e051a7e	0.12998387
80	0x3e9231e8	0.285537
81	0xbe196def	-0.14983343
82	0x3eb19d1b	0.34690174
83	0xbc6ef079	-0.0145837
84	0xbe65319a	-0.22382203
85	0x3e8f58ef	0.27997538
86	0x3e7b82ac	0.24561566
87	0xbe6a89ee	-0.22904179
88	0x3e1a170b	0.15047853
89	0x3e949fb9	0.2902811
90	0x3e814aec	0.25252473
91	0xbe6fa9d4	-0.23404628
92	0x3da3bdd2	0.0799519
93	0xbe71b605	-0.23604591
94	0xbe7e0fcd	-0.24810715
95	0xb9ed5253	-0.000452655
96	0x3e5cc4e1	0.21559478
97	0xbe9832c7	-0.2972624
98	0x3e56c538	0.2097367
99	0x3da7e3e6	0.08197765
100	0x3d271100	0.040787697
101	0xbe56b4d1	-0.20967413
102	0x3e7b4c19	0.24540748
103	0xbe87c257	-0.26515457
104	0xbe555bdd	-0.20835824
105	0x3eb0b2a1	0.34511283
106	0x3ea29714	0.31755888
107	0xbe86bdf4	-0.26316798
108	0xbe84bbf8	-0.2592466
109	0xbe797bfe	-0.24363706
110	0xbd2edc79	-0.042690728
111	0xbea93d85	-0.33054748
112	0x3e826c97	0.25473472
113	0x3d2c55a9	0.04207388
114	0xbe8be9e0	-0.2732687
115	0x3ded261f	0.11579537
116	0x3e8cfb1d	0.27535334
117	0x3d98bee0	0.074582815
118	0xbe830c3b	-0.2559527
119	0x3d88af1f	0.06674027
120	0xbcfa43b4	-0.030549861
121	0xbe703a10	-0.23459649
122	0xbe82c5a2	-0.25541407
123	0x3dc25d48	0.09490448
124	0x3e5a3a8c	0.21311396
125	0xbe94a2e6	-0.29030532
126	0x3eabbc3a	0.33542043
127	0xbd8733aa	-0.06601651

transformer_encoder.layers.0.linear2.weight f4 [8, 128]
0	0xbd5d6772	-0.05405373
1	0xbd55d47b	-0.05220459
2	0x3d4212a5	0.047381062
3	0x3d25fb7d	0.04052304
4	0xbd07ed1b	-0.033185106
5	0xbbdc38b3	-0.0067206263
6	0xbd470c27	-0.048595574
7	0xbd2e951a	-0.042622663
8	0xbc9b511d	-0.018959576
9	0x3bb811ef	0.005617372
10	0xbccf8917	-0.025333924
11	0x3cef228b	0.029191276
12	0xbd8e46ae	-0.06947075
13	0x3d7cfe53	0.06176598
14	0x3b47524d	0.0030414045
15	0xbd428abe	-0.047495596
16	0xbcf47c80	-0.029844522
17	0xbcaa2c2d	-0.020773018
18	0x3d80853e	0.06275414
19	0xbd0fcb33	-0.035105895
20	0x3c5b8023	0.013397249
21	0x3d738990	0.05945736
22	0x3cda317f	0.02663493
23	0xbd6a4c99	-0.057201955
24	0xbd9963f0	-0.07489765
25	0xbbeffb93	-0.007323691
26	0xbc98c627	-0.018649174
27	0x3d0351a4	0.03206028
28	0xbcb0739c	-0.021539502
29	0x3d937e5f	0.07201838
30	0x3d41cad0	0.047312558
31	0xbd3e42f7	-0.04645058
32	0xbd9ede39	-0.07757229
33	0xbd30297c	-0.043008313
34	0xbd80c48b	-0.062874876
35	0x3cdfebce	0.02733412
36	0x3d5cd98e	0.053918414
37	0x3d6e8208	0.058229476
38	0x3db70c6f	0.089379184
39	0xbb9deaa1	-0.0048192297
40	0xbd8b9626	-0.06815748
41	0x3d3afa10	0.045648634
42	0x3ca7fc03	0.02050591
43	0x3d0e2178	0.034699887
44	0x3d085fd9	0.033294532
45	0xba930987	-0.0011218049
46	0x3beff28a	0.007322614
47	0xbd5319ad	-0.05153816
48	0xbb61040c	-0.0034334688
49	0x3c709a26	0.014685189
50	0xb881c1a7	-6.18727e-05
51	0xbd04c305	-0.032412548
52	0xbd748e56	-0.059706055
53	0x3b3784f7	0.0028002837
54	0xbd33d889	-0.043907676
55	0x3d05f8dc	0.032708034
56	0xbd726e15	-0.059187014
57	0x3bcb1a0c	0.0061981734
58	0x3da2651a	0.0792944
59	0xbb89ca5c	-0.0042050313
60	0xbced5d25	-0.028975079
61	0x3b4ce1dd	0.0031262555
62	0xbc54fc78	-0.012999646
63	0xbd9d8504	-0.07691386
64	0x3d10623d	0.035249937
65	0xbd9da978	-0.07698339
66	0x3b84397c	0.004035173
67	0x3d9ae89c	0.07563898
68	0x3da4d101	0.08047677
69	0x3d3d1b71	0.04616875
70	0x3cf9be11	0.030486139
71	0xbd10c7f4	-0.03534694
72	0x3dc58c75	0.09645931
73	0x3cdcbcb9	0.026945459
74	0x3dc2fa33	0.09520378
75	0x3dbc2736	0.091871664
76	0x3d7a9730	0.06117934
77	0x3d8f3715	0.06992928
78	0x3d03c07e	0.032165997
79	0x3d572c4c	0.05253248
80	0x3d932ad3	0.071859024
81	0x3c31ec53	0.010859567
82	0xbd94de52	-0.07268967
83	0xbcb2cff8	-0.021827683
84	0xbdb3a382	-0.08771421
85	0x3d86ddf4	0.06585303
86	0x3c1d10c4	0.009586517
87	0x3d4290b5	0.047501285
88	0x3cebe77e	0.028796908
89	0x3b4ab096	0.0030928007
90	0x3c1beaf3	0.0095164655
91	0x3d61b61f	0.055105325
92	0xbcecb6d1	-0.028895767
93	0x3d598d07	0.05311301
94	0x3d5e80ed	0.054322172
95	0xbd97a1f0	-0.07403934
96	0x3bd01fd2	0.0063514495
97	0xbd8ec350	-0.06970847
98	0xbd1341f1	-0.03595156
99	0xbd5125b2	-0.05106134
100	0x3dabaa4d	0.08382092
101	0xbd5e166c	-0.054220602
102	0xbd0e16f3	-0.034689855
103	0x3dc8cf9d	0.09805224
104	0x3cd451eb	0.025917968
105	0xbd31dcbb	-0.043423396
106	0x3d02e21e	0.031953923
107	0x3a5020e3	0.0007939471
108	0xbd1cd95f	-0.03829324
109	0xbda882a9	-0.082280464
110	0x3d1a6f4b	0.037703793
111	0xbc394774	-0.01130854
112	0x3d945274	0.07242289
113	0x3dc43df8	0.09582132
114	0x3dbc1c1c	0.09185049
115	0xbda14a20	-0.07875466
116	0x3bad45ac	0.0052878466
117	0xbd8e0805	-0.06935123
118	0x3c4bc161	0.012436242
119	0xb920bd70	-0.0001532936
120	0x3d82815e	0.06372331
121	0x3d8911b0	0.06692827
122	0xbd8e2a02	-0.06941606
123	0x3d3e95c0	0.04652953
124	0xbd6a33e0	-0.057178378
125	0x3c82d9c2	0.015972976
126	0xbc3d14c6	-0.011540597
127	0x3dbcb1bc	0.09213588
128	0x3c7196e7	0.014745451
129	0xbd7cae56	-0.061689697
130	0x3c73980c	0.014867794
131	0xbd0b171b	-0.033957582
132	0x3da17927	0.07884436
133	0xbc2ec1dc	-0.010666337
134	0xbd330d31	-0.043713752
135	0x3d9a3a9a	0.075307086
136	0xbd5f183c	-0.05446647
137	0x3d205110	0.039139807
138	0x3dc90185	0.09814743
139	0xbd72ad87	-0.05924752
140	0xbd99ee6c	-0.075161785
141	0x3d9bfd58	0.07616681
142	0x3dd1b543	0.10239651
143	0xbd7be50a	-0.061497726
144	0xbcc14dfe	-0.02359676
145	0x3d877538	0.066141546
146	0x3ca12a35	0.019673446
147	0xbc90e2eb	-0.017686328
148	0xbaf83ef1	-0.0018939656
149	0x3db1f657	0.08689564
150	0xbdb787f0	-0.08961475
151	0x3ba64467	0.005074072
152	0xbcc07457	-0.023492975
153	0xbcd85468	-0.026407436
154	0xbd3763cd	-0.04477291
155	0x3cc4256b	0.023943624
156	0x3ca182ce	0.019715693
157	0xbc43eb48	-0.011957951
158	0xbd9f0fd0	-0.07766688
159	0x3d8e7098	0.06955069
160	0xbd3ef84a	-0.046623506
161	0xbd29ef05	-0.041487712
162	0x3d337607	0.04381373
163	0xb9131962	-0.00014028468
164	0x3d664214	0.05621536
165	0xbd135902	-0.035973556
166	0xbd4dbb31	-0.050227348
167	0xbd7ca973	-0.061685037
168	0x3da0f296	0.078587696
169	0xbd3bfe60	-0.045896888
170	0xbcdd7aab	-0.027036032
171	0xbac27aec	-0.0014837659
172	0x3d9f85e1	0.07789207
173	0xbcec7b17	-0.028867288
174	0xbce9107b	-0.028450241
175	0x39a15260	0.00030769687
176	0xbd118504	-0.035527244
177	0xbd634c14	-0.055492476
178	0xb9fafd45	-0.00047872416
179	0xbc278e14	-0.010226745
180	0x3d917590	0.071025014
181	0xbd9f752c	-0.07786021
182	0x3d54e7e1	0.05197895
183	0x3d180290	0.03711182
184	0x3ca13092	0.01967648
185	0xbbc5de05	-0.0060384297
186	0x3da69f71	0.0813588
187	0xbd401585	-0.046895523
188	0x3bf7ede8	0.0075662024
189	0xbcabcc80	-0.020971537
190	0x3d0f3302	0.034960754
191	0x3d29f8fd	0.04149722
192	0xbc8f901c	-0.017524771
193	0xbd46def4	-0.04855247
194	0x3df3a83a	0.11897321
195	0xbc4c7239	-0.012478405
196	0x3d94ea47	0.07271247
197	0xbbee0f8d	-0.0072650374
198	0xbd751ff3	-0.059844922
199	0x3d812bb5	0.063071646
200	0xbd7894d4	-0.06068881
201	0x3dc83da9	0.09777386
202	0x3d809d9e	0.06280063
203	0x3d0252ba	0.031817175
204	0x3dae3b43	0.08507397
205	0x3c3ac3a1	0.011399181
206	0x3d58238e	0.052768283
207	0x3cca7b22	0.024716917
208	0xbdac0952	-0.08400215
209	0x3ca01b48	0.019544259
210	0x3d9a3e5b	0.075314246
211	0x3d70e051	0.058807675
212	0xbd36eb5a	-0.044658042
213	0xbda69d64	-0.08135489
214	0xbc8b0885	-0.016971836
215	0x3cca9e4d	0.024733687
216	0x3c2dd051	0.0106087485
217	0xbd7fd89a	-0.062462427
218	0xbcbe0a4d	-0.023198271
219	0x3c876099	0.016525554
220	0xbd3322f0	-0.04373449
221	0x3d5c346e	0.05376094
222	0xbd6ed5fe	-0.058309548
223	0xbc45668d	-0.012048376
224	0x3c154b3b	0.009112175
225	0x3d7753e8	0.060382754
226	0x3c8dd0fa	0.017311562
227	0xbd9045c1	-0.070445545
228	0xbc7de04b	-0.01549537
229	0x3b82a1ec	0.0039865877
230	0x3d64dd14	0.0558749
231	0xbdb1c31c	-0.08679792
232	0x3c095c07	0.008383757
233	0xbd8ada99	-0.067799754
234	0xbd78f726	-0.060782574
235	0xbb175e0c	-0.0023096828
236	0xbda0f097	-0.07858389
237	0x3ce7d8ee	0.028301682
238	0x3c9d087e	0.019169088
239	0x3c83b024	0.016075201
240	0xbc14b090	-0.009075299
241	0xbd581525	-0.05275454
242	0xbce8b375	-0.028405884
243	0x3cfe6a37	0.031056507
244	0xbdb3f614	-0.0878717
245	0x3cb16275	0.021653393
246	0x3c624508	0.013810404
247	0xbcdeaecb	-0.027182957
248	0x3dba004f	0.0908209
249	0x3d2a6b4d	0.041606236
250	0x3d78d074	0.06074567
251	0x3dbd502d	0.09243808
252	0x3d9ff2f7	0.07810014
253	0x3b43f263	0.0029899112
254	0xbc1deee2	-0.009639474
255	0x3d5bed7a	0.053693272

transformer_encoder.layers.0.linear2.bias f4 [8]
0	0x3dc233ec	0.094825596
1	0x3d9447cd	0.072402574
2	0x3d54fc8b	0.051998656
3	0xbd3a2efc	-0.045454964
4	0x3c4fb580	0.01267755
5	0xbd176795	-0.036964018
6	0xbd86de28	-0.06585342
7	0xbd33098c	-0.043710276

transformer_encoder.layers.0.norm1.weight f4 [8]
0	0x3f7de689	0.99179894
1	0x3f7f44b8	0.9971423
2	0x3f7b14dd	0.9807871
3	0x3f80beff	1.0058287
4	0x3f78da69	0.9720827
5	0x3f8010c4	1.0005116
6	0x3f83bffb	1.0292963
7	0x3f81b0fd	1.0132138

transformer_encoder.layers.0.norm1.bias f4 [8]
0	0x3cd382f8	0.025819287
1	0x3c807ea2	0.015685383
2	0x3c81be13	0.015837705
3	0xbae17317	-0.0017200437
4	0xbcbc1257	-0.022957964
5	0xbb8c4f1b	-0.004281891
6	0xbce53679	-0.027980076
7	0x3cbf2c65	0.023336599

transformer_encoder.layers.0.norm2.weight f4 [8]
0	0x3f7c737c	0.98613715
1	0x3f800caa	1.0003865
2	0x3f7a3abf	0.9774589
3	0x3f80d2d3	1.0064338
4	0x3f7aa01e	0.9790057
5	0x3f7fd7f8	0.9993892
6	0x3f82a893	1.0207695
7	0x3f8186c1	1.0119249

transformer_encoder.layers.0.norm2.bias f4 [8]
0	0x3d037c02	0.032100685
1	0x3c439945	0.011938398
2	0x3c5ecc1c	0.013598468
3	0xb986c082	-0.000257019
4	0xbcd4fda4	-0.025999852
5	0xbadf55e5	-0.0017039148
6	0xbce0e540	-0.027453065
7	0x3cd56768	0.026050285

transformer_encoder.layers.1.self_attn.in_proj_weight f4 [24, 8]
0	0x3eccd051	0.40002683
1	0xbd5fdef0	-0.05465597
2	0xbea1992c	-0.31562173
3	0xbe528ba4	-0.20561081
4	0x3eb2ca42	0.34919935
5	0x3e50501c	0.2034306
6	0x3ed06027	0.40698358
7	0xbe961f44	-0.2932073
8	0xbe46f965	-0.19431074
9	0x3e6a2e65	0.2286926
10	0x3e47f00e	0.19525167
11	0xbda63afa	-0.08116718
12	0xbe014205	-0.1262284
13	0xbe92a9e4	-0.2864524
14	0xbdf87682	-0.121319786
15	0xbe7b24c7	-0.24525748
16	0xbea2aa19	-0.317704
17	0xbe50eab3	-0.2040203
18	0x3cd50602	0.026003841
19	0x3e103072	0.1408098
20	0x3bea5776	0.0071515394
21	0x3ec16096	0.37769002
22	0xbe64123c	-0.22272581
23	0xbe9ddf13	-0.30834255
24	0x3e482bcd	0.19547959
25	0xbe8e811a	-0.27832872
26	0xbed71aa5	-0.42012516
27	0xbe494bde	-0.19657847
28	0x3d4cc6a7	0.049994137
29	0x3eb4ac07	0.35287496
30	0x3e0d448b	0.13795678
31	0x3e8b3b51	0.27193692
32	0xbd8bcb61	-0.06825901
33	0x3ea1793b	0.31537804
34	0xbe080b27	-0.13285504
35	0x3e1f5c2d	0.15562506
36	0x3de43df2	0.11144628
37	0xbe358dd8	-0.1772989
38	0xbd25a19c	-0.040437326
39	0x3e339aad	0.17539473
40	0x3deb8f12	0.11501898
41	0xbea9bc30	-0.33151388
42	0x3d037b46	0.032099985
43	0x3d30139a	0.042987444
44	0x3eb7e9b6	0.35920495
45	0xbe7687a0	-0.24075174
46	0x3ec3f2d7	0.3827121
47	0x3ea1202c	0.31469858
48	0xbd22691d	-0.039651025
49	0xbd8df56e	-0.069315776
50	0x3d9c145d	0.076210715
51	0xbdad75df	-0.08469748
52	0xbe9b68e5	-0.30353466
53	0xbeced360	-0.4039564
54	0x3e650da2	0.22368482
55	0x3ed01f35	0.4064881
56	0xbece59b1	-0.40302804
57	0xbe37b0e7	-0.17938577
58	0xbe842e63	-0.2581664
59	0x3cc98b8c	0.024602674
60	0xbd8ab45d	-0.06772683
61	0xbdc2d69f	-0.09513592
62	0xbdd8b6ca	-0.10581739
63	0x3ec27026	0.37976187
64	0xbe099772	-0.13436678
65	0x3e88fbee	0.26754707
66	0xbeb661fd	-0.35621634
67	0xbe9b1e90	-0.30296755
68	0x3e66a64f	0.22524379
69	0x3eb47839	0.35247973
70	0x3e78c791	0.24294879
71	0x3de368f8	0.111040056
72	0x3dde1658	0.108441055
73	0xbdce2479	-0.1006555
74	0x3ed09625	0.4073955
75	0xbe95ebe3	-0.2928153
76	0xbe3f2fc2	-0.18670562
77	0xbd8d4c72	-0.068993464
78	0xbe8f6739	-0.2800844
79	0x3eb17b1e	0.34664243
80	0x3c74a5af	0.01493208
81	0x3c784d55	0.015155156
82	0xbe88f225	-0.26747242
83	0xbe6275b7	-0.22115217
84	0xbe302ceb	-0.17204635
85	0x3ecc5389	0.39907482
86	0xbeabe62d	-0.33574048
87	0x3e4159f2	0.18881968
88	0x3e5bcbc8	0.21464455
89	0xbe7c8aa8	-0.24662268
90	0x3c78ad35	0.0151780145
91	0xbee08ee8	-0.4385903
92	0xbe9cf340	-0.30654335
93	0x3eb83bac	0.35983026
94	0x3e104f8a	0.14092842
95	0xbdf649c4	-0.120257884
96	0xbe1c2a0d	-0.15250416
97	0xbe91a14c	-0.28443372
98	0xbe6246c4	-0.22097307
99	0x3ece139e	0.40249342
100	0xbeb296c4	-0.3488065
101	0xbe380179	-0.17969312
102	0x3e8fc0af	0.28076693
103	0x3e80eaec	0.2517923
104	0xbe726b91	-0.23673846
105	0x3c715f8f	0.014732256
106	0x3d69f669	0.05711976
107	0xbe5abf4b	-0.21362035
108	0x3e50f040	0.20404148
109	0x3d78d0a6	0.060745858
110	0xbe4a6555	-0.19765218
111	0xbda4ca5e	-0.08046411
112	0x3d12a2d3	0.035799813
113	0x3e07b8e0	0.13254118
114	0xbe753d69	-0.23949207
115	0xbed29b1f	-0.41133973
116	0x3ccbcbd0	0.024877459
117	0x3ebd86d2	0.37016922
118	0xbe20c857	-0.15701424
119	0xbe1d7fcd	-0.15380783
120	0xbd48278d	-0.048865844
121	0x3c69cf71	0.014270649
122	0xbe522fae	-0.20526001
123	0x3ebbcc66	0.3667938
124	0x3e886e2f	0.26646563
125	0xbde31dc2	-0.1108966
126	0x3e942d6f	0.28940913
127	0x3d78b432	0.060718723
128	0x3e2f4289	0.17115225
129	0xbe13685f	-0.14395283
130	0xbe0ea61c	-0.13930553
131	0x3ec22282	0.37916952
132	0x3d5ea9a4	0.054361
133	0xbc89738c	-0.01677873
134	0xbe29990d	-0.1656229
135	0xbe88eaeb	-0.26741728
136	0xbe83b587	-0.25724432
137	0xbe34ffc9	-0.176757
138	0x3e7b8102	0.24560931
139	0xbeb38af7	-0.3506696
140	0x3e2f865d	0.171411
141	0x3e363e74	0.17797261
142	0x3ee62178	0.4494741
143	0xbe28b36f	-0.16474698
144	0xbe04f6bf	-0.12984751
145	0x3dee9680	0.11649799
146	0xbe87359e	-0.26408094
147	0xbdbd838c	-0.09253606
148	0xbdd9602c	-0.106140465
149	0x3ebdc59c	0.37064826
150	0xbddd5c19	-0.10808582
151	0x3eaecb7e	0.34139627
152	0xbe2b7105	-0.16742332
153	0xbebe9dae	-0.37229675
154	0xbebfff86	-0.37499636
155	0xbe50d30a	-0.20393005
156	0xbe95e8cb	-0.2927917
157	0x3e00d41d	0.12580915
158	0x3e89009a	0.2675827
159	0xbdc00413	-0.09375777
160	0xbe3000d9	-0.17187823
161	0x3ecdaa60	0.40169048
162	0x3ec9af9b	0.3939179
163	0x3ed525df	0.41630456
164	0x3dcae9ba	0.09907861
165	0xbedf618c	-0.4362911
166	0x3d3fcd10	0.046826422
167	0xbe5a4b48	-0.2131778
168	0xbdbce28f	-0.092229
169	0x3ed1c7c5	0.40972725
170	0x3e6cf767	0.23141252
171	0xbee33a07	-0.4438021
172	0xbe51d833	-0.2049263
173	0xbe81ff74	-0.25390208
174	0xbc21df61	-0.009879918
175	0xbec2b5be	-0.38029283
176	0xbcda30d1	-0.026634606
177	0x3cb58a23	0.022160595
178	0xbed9d51a	-0.42545396
179	0x3dcbe194	0.09955135
180	0xbd91b7d7	-0.07115143
181	0x3dd4c5d5	0.10389296
182	0xbeba1d7e	-0.36350626
183	0xbe1261ba	-0.14295092
184	0xbe206f6c	-0.15667504
185	0xbe82ff54	-0.25585425
186	0xbdc1e486	-0.094674155
187	0x3ed081ea	0.40724117
188	0xbe6fdad1	-0.23423316
189	0xbe8ac8a7	-0.2710621
190	0xbeb33e19	-0.35008314
191	0x3e3b183b	0.18270962

transformer_encoder.layers.1.self_attn.in_proj_bias f4 [24]
0	0xbbed1294	-0.0072348807
1	0x3c3234b2	0.010876821
2	0x3c26d834	0.010183383
3	0xbc996173	-0.018723225
4	0x3c1607d0	0.009157136
5	0x3bcd4c38	0.0062651895
6	0x3a5ef4c0	0.00085050985
7	0x3bf14927	0.0073634568
8	0x38e65f15	0.00010984965
9	0x36d37d2d	6.3028624e-06
10	0x38392f8c	4.415172e-05
11	0xb8dcab0d	-0.00010522278
12	0xb6e677c6	-6.8684776e-06
13	0xb8937907	-7.032049e-05
14	0x382dff26	4.148404e-05
15	0x388de118	6.765331e-05
16	0x3c8897b1	0.016673895
17	0xbc9d0c40	-0.01917088
18	0x3c81f840	0.015865445
19	0xbc9ceff5	-0.01915739
20	0xbc40c8e0	-0.011766642
21	0x3c45bb60	0.012068599
22	0xb9b0d4ac	-0.0003372779
23	0x3bc48c19	0.0059981463

transformer_encoder.layers.1.self_attn.out_proj.weight f4 [8, 8]
0	0x3e27c890	0.16385102
1	0xbe442df9	-0.19158162
2	0x3e6355ee	0.22200748
3	0xbd8478e9	-0.06468374
4	0x3e395853	0.181001
5	0x3e80fa63	0.2519103
6	0x3ded7f16	0.11596505
7	0x3e9fe4b5	0.31229177
8	0xbd06c252	-0.032900162
9	0x3e816ea6	0.2527973
10	0x3d9f5ce5	0.0778139
11	0xbead19e9	-0.3380883
12	0xbd873351	-0.06601585
13	0xbdfbbb41	-0.12291575
14	0xbeaa8af3	-0.33309135
15	0xbd32dd69	-0.043668184
16	0x3e869dcd	0.26292267
17	0xbe80ed66	-0.2518112
18	0xbde1832b	-0.110113464
19	0xbe9e12db	-0.3087376
20	0xbd234823	-0.039863717
21	0x3ea2cf87	0.31798956
22	0xbe1ed8c7	-0.15512381
23	0x3e645a6e	0.22300121
24	0x3dc03271	0.09384621
25	0xbd982108	-0.07428175
26	0x3dab5eb2	0.08367671
27	0xbdca158b	-0.0986739
28	0x3eadb1b5	0.33924642
29	0x3e311053	0.17291383
30	0x3e779ea2	0.24181607
31	0xbd1489c1	-0.036264185
32	0x3e920651	0.28520444
33	0x3d945c53	0.07244172
34	0xbe821050	-0.2540307
35	0xbcbbb577	-0.022913678
36	0x3bd5eeba	0.0065287026
37	0x3e01fdc8	0.12694466
38	0xbe8d3e72	-0.27586704
39	0xbe27c8dc	-0.16385216
40	0xbea19e49	-0.31566074
41	0xbd7bc22b	-0.06146447
42	0xbe9ab63d	-0.30217162
43	0x3e3e5023	0.18585257
44	0xbe444873	-0.19168262
45	0x3e9f0364	0.31057274
46	0xbe106b9f	-0.14103554
47	0xbde95796	-0.11393659
48	0xbdc0b0c9	-0.09408719
49	0x3e0fe3ff	0.14051817
50	0xbe81f617	-0.25383064
51	0xbe53b7f1	-0.20675637
52	0x3e757f4f	0.23974346
53	0xbc2ba274	-0.010475744
54	0xbe6b837a	-0.22999373
55	0x3e07baf8	0.13254917
56	0x3e9955bd	0.29948226
57	0xbdefd0be	-0.11709736
58	0x3e2a8128	0.16650832
59	0xbe802111	-0.25025228
60	0xbea8e630	-0.3298812
61	0xbdea6e45	-0.114468135
62	0xbdebfc7c	-0.11522767
63	0xbe0bfc4b	-0.13670461

transformer_encoder.layers.1.self_attn.out_proj.bias f4 [8]
0	0x3c5764b7	0.013146571
1	0x3b771c33	0.0037706017
2	0x3c611fe6	0.013740515
3	0x3b5e4c6a	0.0033920058
4	0xbc5bf630	-0.013425395
5	0x3b85896b	0.0040752194
6	0xbb363d60	-0.0027807578
7	0x3ccc4bcc	0.024938487
