final/best_model_fold_2.pth (torch, 575082 bytes, 50 tensors)

embedding.weight f4 [50, 8]
-1.9287379 0.23220682 0.31728593 -0.57505614 0.5822409 0.8777269 0.12744959 0.9303228
-0.046030402 -0.12969533 -0.07056051 0.74877703 1.2153445 1.6918328 -0.84243464 -0.20054735
0.31897873 -0.63324034 1.1980332 -0.9480917 0.74115056 -0.36218157 -0.32642645 -0.22690766
-0.5774412 -0.12982316 -0.27638265 0.3364501 -0.73061025 0.9366291 1.3006763 0.80301
-0.5329398 0.31219968 -1.3780466 -1.7151339 -0.025850015 1.6554514 -0.32417047 -2.5731785
0.9196502 0.7290764 0.26098442 0.83186644 1.0532888 -0.8826377 -1.3787806 0.021141203
0.45979112 0.9228231 0.86255413 0.48033616 -0.21585707 0.33140498 1.1479871 -0.87736005
-0.37794393 -0.39155033 -0.44174105 -0.9274107 1.2046591 0.306038 1.2477012 -1.9162519
-1.8683798 -0.37198293 -0.6996811 -0.46436912 -0.36889476 0.76047736 0.67611915 -1.4430817
0.17327805 0.28861275 1.5317824 -0.35536015 0.7176447 -0.032445274 -1.183719 -0.78579366
0.004228977 1.4004049 1.198136 -0.31457633 0.18854848 -0.9278396 -1.243603 -1.0023271
0.2645069 0.5121677 1.2385595 -1.1054633 0.61725324 -0.651699 -0.3437109 0.24285507
0.3032653 -0.30744532 -1.2502337 0.2396771 -1.4160465 -1.0184292 -0.0048931073 0.13195284
1.4101253 0.4022041 2.215781 -0.28764358 -0.53819627 -0.12762791 0.83447796 1.3953521
1.1309524 -0.4867722 0.39186037 1.5821562 2.1667635 -1.6588247 -0.117045276 1.4859455
-0.06308541 -0.39863992 -1.2527937 -1.2096676 0.47474268 0.009260564 0.25877875 2.081176
0.03241985 -0.629966 0.21807137 2.1089613 0.2093625 -0.7418266 -0.5249499 0.9425173
0.06444028 0.7162082 0.16260974 -0.07788687 0.64684534 -2.0201666 -1.0880432 -1.5923207
0.124452755 -0.2798706 -0.03834376 -1.5760477 -1.6606846 -3.0598328 -0.60078114 0.019741528
-0.024456901 -2.1562796 -0.03867093 1.4279273 0.22305636 -1.6896561 -0.054450132 -0.7664325
-0.40746164 2.7388198 1.8216947 0.98443115 -1.4420416 -0.87454635 0.71457547 -0.6369619
0.28060043 -0.05369939 0.8470691 0.8392206 0.28892297 -0.550496 -0.7181602 -0.6491593
-0.32404813 -0.4108306 0.30447945 -1.0886525 -0.013028907 -0.88442826 -0.6543762 -0.16174026
-1.6954074 0.33461905 0.941908 0.2751845 -0.22741584 -0.3073465 1.8924953 0.3868436
-0.89524156 1.0119898 0.3518807 -1.9176868 0.89271575 1.1927513 -1.6228966 1.369609
0.60695314 0.28033075 1.4584507 -0.46034932 2.0245225 0.29091084 0.06246666 2.019125
0.6803702 -0.14393477 -1.9897807 -1.8820266 -1.8642669 -0.29437262 0.20138723 -0.79186887
-1.1805515 0.6390156 -0.2888251 -1.7126465 -0.72147524 0.9288821 3.5083766 -1.0004314
-1.0414381 -0.6043147 -1.315467 -0.63945717 0.07976773 0.96798927 1.2041761 -0.15810537
-0.48923528 -0.79348224 -0.3119286 -1.9046142 -1.2376567 -0.2537515 -0.37129337 -0.93388474
-0.72372335 -0.90751636 -0.04434314 -1.0523419 -0.10562317 0.729848 1.2821507 -0.8231447
-0.068005435 -0.013329353 -1.8632251 -2.104798 0.69836164 0.33171716 0.9439919 1.4151962
00000000: e2e0 f6bf a0c7 6d3e 4d73 a23e e136 13bf
00000010: bd0d 153f b6b2 603f 2582 023e a329 6e3f
00000020: 608a 3cbd dace 04be 0782 90bd daaf 3f3f
00000030: 6990 9b3f fa8d d83f cca9 57bf 495c 4dbe
00000040: 2e51 a33e 0a1c 22bf 2759 993f 23b6 72bf
00000050: 0bbc 3d3f dd6f b9be 5e21 a7be 7b5a 68be
00000060: 30d3 13bf 5df0 04be 0782 8dbe 3043 ac3e
00000070: 4609 3bbf edc6 6f3f 907c a63f 1092 4d3f
00000080: be6e 08bf a3d8 9f3e d563 b0bf 8289 dbbf
00000090: 69c3 d3bc d5e5 d33f acf9 a5be f5ae 24c0
000000a0: 326e 6b3f c0a4 3a3f c09f 853e 33f5 543f
000000b0: 2bd2 863f 8bf4 61bf e27b b0bf 5130 ad3c
000000c0: be69 eb3e 223e 6c3f 59d0 5c3f 9fee f53e
000000d0: a309 5dbe eaad a93e 3ef1 923f ab9a 60bf
000000e0: de81 c1be 4979 c8be e22b e2be ca6a 6dbf
000000f0: 4532 9a3f 03b1 9c3e acb4 9f3f be47 f5bf
00000100: 1227 efbf 8c74 bebe 4d1e 33bf cac1 edbe
00000110: c6df bcbe a5ae 423f 2516 2d3f e7b6 b8bf
00000120: cd6f 313e 0dc5 933e 7211 c43f c4f1 b5be
00000130: 90b7 373f 56e5 04bd 1b84 97bf c629 49bf
00000140: 3b93 8a3b 7840 b33f 855c 993f 2610 a1be
00000150: da12 413e e586 6dbf 622e 9fbf 414c 80bf
00000160: 736d 873e 6c1d 033f 1e89 9e3f d27f 8dbf
00000170: 4f04 1e3f bfd5 26bf e0fa afbe 00af 783e
00000180: 9745 9b3e 7969 9dbe a807 a0bf ea6d 753e
00000190: 0341 b5bf e35b 82bf 5c56 a0bb a51e 073e
000001a0: fc7e b43f b2ed cd3e 5bcf 0d40 0546 93be
000001b0: 3bc7 09bf e4b0 02be 59a0 553f e69a b23f
000001c0: 0cc3 903f 353a f9be eca1 c83e 1884 ca3f
000001d0: 41ac 0a40 5e54 d4bf 6fb5 efbd 7633 be3f
000001e0: ec32 81bd 881a ccbe 8b5b a0bf 63d6 9abf
000001f0: 7911 f33e 9fb9 173c a67e 843e fd31 0540
00000200: adca 043d 7445 21bf 1a4e 5f3e 39f9 0640
00000210: 2063 563e 59e8 3dbf 1e63 06bf d048 713f
00000220: 44f9 833d 6c59 373f 2b83 263e 2783 9fbd
00000230: a897 253f 694a 01c0 0045 8bbf 2ad1 cbbf
00000240: 16e1 fe3d 334b 8fbe 590e 1dbd eebb c9bf
00000250: 5091 d4bf 4dd4 43c0 cbcc 19bf fcb8 a13c
00000260: d759 c8bc 7c00 0ac0 6965 1ebd 52c6 b63f
00000270: e368 643e a746 d8bf 1a07 5fbd ec34 44bf
00000280: d09e d0be d348 2f40 4b2d e93f ae03 7c3f
00000290: d294 b8bf 45e2 5fbf 6bee 363f ef0f 23bf
000002a0: dcaa 8f3e e4f3 5bbd 85d9 583f 29d7 563f
000002b0: b6ed 933e 4eed 0cbf 59d9 37bf 4e2f 26bf
000002c0: a3e9 a5be 6358 d2be bbe4 9b3e f758 8bbf
000002d0: 3277 55bc e469 62bf 3385 27bf 3d9f 25be
000002e0: 1c03 d9bf 3053 ab3e e220 713f fce4 8c3e
000002f0: b3df 68be 855c 9dbe 493d f23f 5d10 c63e
00000300: 8d2e 65bf e288 813f b529 b43e c376 f5bf
00000310: 0589 643f 13ac 983f 13bb cfbf 594f af3f
00000320: 4861 1b3f 8387 8f3e 83ae ba3f e8b2 ebbe
00000330: c791 0140 44f2 943e 0add 7f3d 5839 0140
00000340: be2c 2e3f a363 13be 22b1 febf 3fe6 f0bf
00000350: 4ca0 eebf 02b8 96be 7438 4e3e ebb7 4abf
00000360: 501c 97bf 8796 233f e2e0 93be 0038 dbbf
00000370: 9ab2 38bf 38cb 6d3f 3e89 6040 230e 80bf
00000380: d84d 85bf 5eb4 1abf 3961 a8bf 77b3 23bf
00000390: 435d a33d 25ce 773f 7122 9a3f 60e6 21be
000003a0: 0c7d fabe a721 4bbf 1bb5 9fbe 66ca f3bf
000003b0: 896b 9ebf b7eb 81be 2a1a bebe 1213 6fbf
000003c0: ef45 39bf fe52 68bf 27a1 35bd 24b3 86bf
000003d0: f650 d8bd 52d7 3a3f 841d a43f 9cb9 52bf
000003e0: 6f46 8bbd 5c63 5abc 297e eebf 03b5 06c0
000003f0: d4c7 323f d5d6 a93e 74a9 713f 2625 b53f

pos_encoder.pe f4 [1000, 1, 8]
0.0 1.0 0.0 1.0 0.0 1.0 0.0 1.0
0.84147096 0.54030234 0.099833414 0.9950042 0.009999833 0.99995 0.0009999998 0.9999995
0.9092974 -0.41614684 0.19866931 0.9800666 0.019998666 0.9998 0.0019999985 0.99999803
0.14112 -0.9899925 0.2955202 0.9553365 0.0299955 0.99955004 0.0029999954 0.9999955
-0.7568025 -0.6536436 0.38941833 0.921061 0.039989334 0.9992001 0.003999989 0.999992
-0.9589243 0.2836622 0.47942552 0.87758255 0.049979165 0.99875027 0.004999979 0.9999875
-0.2794155 0.96017027 0.5646424 0.8253356 0.059964005 0.99820054 0.0059999637 0.999982
0.6569866 0.75390226 0.6442176 0.7648422 0.06994285 0.997551 0.006999942 0.9999755
0.98935825 -0.14550003 0.717356 0.6967067 0.07991469 0.9968017 0.007999914 0.999968
0.4121185 -0.91113025 0.78332686 0.62161 0.089878544 0.9959527 0.008999879 0.9999595
-0.5440211 -0.8390715 0.84147096 0.54030234 0.099833414 0.9950042 0.009999833 0.99995
-0.9999902 0.004425698 0.89120734 0.4535962 0.1097783 0.9939561 0.010999777 0.9999395
-0.53657293 0.84385395 0.9320391 0.36235783 0.119712204 0.99280864 0.011999711 0.999928
0.42016703 0.9074468 0.9635582 0.26749888 0.12963414 0.9915619 0.012999633 0.9999155
0.9906074 0.13673721 0.98544973 0.16996728 0.13954312 0.990216 0.013999541 0.999902
0.65028787 -0.7596879 0.997495 0.07073732 0.14943813 0.9887711 0.014999436 0.9998875
-0.2879033 -0.9576595 0.9995736 -0.029199427 0.15931821 0.98722726 0.015999317 0.999872
-0.96139747 -0.27516335 0.9916648 -0.12884443 0.16918235 0.9855848 0.01699918 0.9998555
-0.75098723 0.6603167 0.9738476 -0.22720204 0.17902957 0.9838437 0.017999027 0.999838
0.1498772 0.9887046 0.94630015 -0.32328942 0.1888589 0.9820042 0.018998856 0.9998195
0.9129453 0.40808207 0.90929747 -0.41614673 0.19866931 0.9800666 0.019998666 0.9998
0.8366556 -0.54772925 0.8632094 -0.50484604 0.2084599 0.9780309 0.020998454 0.9997795
-0.008851309 -0.99996084 0.80849653 -0.588501 0.21822962 0.97589743 0.021998223 0.999758
-0.8462204 -0.53283304 0.74570525 -0.666276 0.22797751 0.9736664 0.02299797 0.99973553
-0.9055784 0.42417902 0.67546326 -0.7373936 0.23770262 0.971338 0.023997694 0.999712
-0.13235176 0.99120283 0.59847236 -0.80114347 0.24740396 0.9689124 0.024997395 0.9996875
0.76255846 0.6469193 0.51550144 -0.8568887 0.25708055 0.96639 0.025997069 0.99966204
0.95637596 -0.29213881 0.42738006 -0.90407205 0.2667314 0.9637709 0.026996719 0.9996355
0.2709058 -0.9626059 0.33498842 -0.94222224 0.27635565 0.96105546 0.027996339 0.99960804
-0.6636339 -0.74805754 0.23924947 -0.9709581 0.2859522 0.9582439 0.028995933 0.99957955
-0.9880316 0.15425146 0.14112024 -0.98999244 0.2955202 0.9553365 0.029995497 0.99955004
-0.40403765 0.91474235 0.04158076 -0.99913514 0.30505863 0.95233357 0.030995032 0.9995195
00000000: 0000 0000 0000 803f 0000 0000 0000 803f
00000010: 0000 0000 0000 803f 0000 0000 0000 803f
00000020: a46a 573f 4151 0a3f 7675 cc3d 98b8 7e3f
00000030: 57d6 233c b9fc 7f3f 6d12 833a f8ff 7f3f
00000040: b7c7 683f 3311 d5be f86f 4b3e a5e5 7a3f
00000050: 3ed4 a33c e5f2 7f3f 6812 033b dfff 7f3f
00000060: c381 103e 2670 7dbf 6c4e 973e ef90 743f
00000070: 1fb9 f53c 83e2 7f3f 929b 443b b5ff 7f3f
00000080: cfbd 41bf 3055 27bf d761 c73e a7ca 6b3f
00000090: dbcb 233d 94cb 7f3f 5712 833b 7aff 7f3f
000000a0: 107c 75bf 2c3c 913e 4377 f53e 40a9 603f
000000b0: f4b6 4c3d 19ae 7f3f ddd6 a33b 2eff 7f3f
000000c0: 8c0f 8fbe b8cd 753f 688c 103f 3249 533f
000000d0: d19c 753d 128a 7f3f 589b c43b d2fe 7f3f
000000e0: 4630 283f bdff 403f 72eb 243f b3cc 433f
000000f0: 323e 8f3d 815f 7f3f c55f e53b 65fe 7f3f
00000100: 9546 7d3f f6fd 14be a5a4 373f 5f5b 323f
00000110: 50aa a33d 652e 7f3f 1212 033c e7fd 7f3f
00000120: 3201 d33e d53f 69bf 1c88 483f d521 1f3f
00000130: 3e12 b83d c2f6 7e3f 3a74 133c 59fd 7f3f
00000140: f844 0bbf 64cd 56bf a46a 573f 4151 0a3f
00000150: 7675 cc3d 98b8 7e3f 57d6 233c b9fc 7f3f
00000160: 5cff 7fbf 7205 913b 2a26 643f c33d e83e
00000170: 72d3 e03d e873 7e3f 6938 343c 09fc 7f3f
00000180: d85c 09bf d006 583f 1d9a 6e3f f786 b93e
00000190: ac2b f53d b528 7e3f 709a 443c 48fb 7f3f
000001a0: 2220 d73e 6f4e 683f c0ab 763f 9df5 883e
000001b0: d0be 043e 00d7 7d3f 6afc 543c 76fa 7f3f
000001c0: 7298 7d3f d704 0c3e 6f46 7c3f e70b 2e3e
000001d0: 64e4 0e3e cc7e 7d3f 555e 653c 94f9 7f3f
000001e0: 4479 263f e87a 42bf d55b 7f3f bade 903d
000001f0: 4f06 193e 1a20 7d3f 32c0 753c a1f8 7f3f
00000200: 1068 93be 2c29 75bf 0ee4 7f3f a333 efbc
00000210: 5024 233e edba 7c3f 0011 833c 9df7 7f3f
00000220: 251e 76bf 36e2 8cbe bfdd 7d3f cbef 03be
00000230: 233e 2d3e 494f 7c3f dd41 8b3c 88f6 7f3f
00000240: b340 40bf 840a 293f 144e 793f a7a7 68be
00000250: 8753 373e 2edd 7b3f b272 933c 62f5 7f3f
00000260: 6979 193e bf1b 7d3f ba40 723f 3186 a5be
00000270: 3a64 413e a164 7b3f 7da3 9b3c 2cf4 7f3f
00000280: c8b6 693f 22f0 d03e b8c7 683f 2f11 d5be
00000290: f86f 4b3e a5e5 7a3f 3ed4 a33c e5f2 7f3f
000002a0: 102f 563f fc37 0cbf 4bfb 5c3f 973d 01bf
000002b0: 8376 553e 3c60 7a3f f304 ac3c 8df1 7f3f
000002c0: 1505 11bc 6ffd 7fbf a1f9 4e3f 00a8 16bf
000002d0: 9677 5f3e 6ad4 793f 9e35 b43c 24f0 7f3f
000002e0: e6a1 58bf bf67 08bf 8ae6 3e3f 1091 2abf
000002f0: f072 693e 3442 793f 3d66 bc3c abee 7f3f
00000300: fcd3 67bf fe2d d93e 29eb 2c3f d4c5 3cbf
00000310: 5168 733e 9ba9 783f d096 c43c 20ed 7f3f
00000320: 3887 07be 78bf 7d3f 7c35 193f bd17 4dbf
00000330: 7757 7d3e a50a 783f 56c7 cc3c 85eb 7f3f
00000340: 0837 433f 819c 253f e7f7 033f 0f5d 5bbf
00000350: 10a0 833e 5665 773f cef7 d43c dae9 7f3f
00000360: 0ed5 743f 3893 95be 8fd1 da3e 4471 67bf
00000370: 0591 883e b1b9 763f 3928 dd3c 1de8 7f3f
00000380: 2ab4 8a3e 576d 76bf 9a83 ab3e 7a35 71bf
00000390: 7d7e 8d3e bb07 763f 9458 e53c 50e6 7f3f
000003a0: e9e3 29bf b380 3fbf d0fd 743e b690 78bf
000003b0: 5468 923e 794f 753f e188 ed3c 72e4 7f3f
000003c0: a4ef 7cbf 18f4 1d3e d381 103e 2570 7dbf
000003d0: 6c4e 973e ef90 743f 1eb9 f53c 83e2 7f3f
000003e0: 06de cebe 8e2c 6a3f 9650 2a3d 52c7 7fbf
000003f0: a530 9c3e 22cc 733f 4be9 fd3c 83e0 7f3f

transformer_encoder.layers.0.self_attn.in_proj_weight f4 [24, 8]
-0.101158515 0.059274446 -0.39082554 -0.2908898 -0.30979103 -0.39488277 -0.12255482 -0.25779307
-0.4011615 -0.25387764 -0.22859609 -0.29990467 -0.28908297 -0.37625712 0.27795053 -0.1415178
-0.19794056 -0.30933464 -0.3025553 -0.059092972 -0.33877105 0.10928288 0.17715497 -0.09595768
-0.25856364 -0.15365188 0.25444648 0.17163716 -0.0927162 0.061202258 -0.3349273 -0.07082424
-0.27523476 0.28933904 -0.32205737 -0.018261733 -0.04311617 0.19292146 0.33518192 0.4224273
-0.19151078 -0.380273 -0.15456656 0.20769945 -0.32382122 -0.07909249 -0.2581177 -0.10268178
-0.37862512 0.098441765 0.2382598 -0.2267995 -0.37101862 0.34070015 0.15634696 0.054133587
-0.11420122 -0.39799044 -0.3922983 0.15013501 0.36591333 -0.05441647 -0.27786022 0.35430524
-0.36588663 0.31799334 -0.21070732 0.1832275 -0.3402827 0.31039858 0.035359725 -0.06623378
-0.4313346 -0.33383274 0.3899914 -0.1672568 -0.26650286 -0.18228056 0.28054884 -0.15091486
0.2360764 0.18104272 -0.43711424 -0.08063432 0.38994297 -0.004106183 -0.22431013 -0.16472629
-0.38332382 -0.38959235 0.033481505 0.22826198 -0.092368215 0.15752643 -0.12380491 0.19032183
-0.38360986 -0.21834226 0.30011705 0.27540243 0.05545965 0.26434392 0.2703041 -0.31952438
-0.13584788 -0.34798416 -0.029157631 0.036373656 0.21349004 -0.204128 0.3808456 0.09644458
-0.34245354 -0.29333892 0.10753481 0.19075075 0.023541482 0.17333215 0.36723047 -0.10707635
-0.15796372 0.07955548 0.3388908 0.11064593 0.29713377 0.24898508 0.39950562 0.11744574
0.25630724 -0.29342493 0.115027025 -0.19890565 0.17186841 0.24980396 0.14639993 0.027669335
0.18398777 0.19232553 0.32292852 -0.18268396 -0.28037363 -0.28511533 -0.42371395 0.080201216
-0.1178201 0.23753548 -0.04350545 0.2736714 0.32347414 -0.07299959 -0.17290749 0.16446473
-0.05946724 0.093573965 -0.19821998 0.34338683 0.35022768 0.40556246 0.2554382 -0.0569684
0.27895442 -0.32447734 -0.27123117 -0.23126869 0.18948437 0.24328284 0.16121843 -0.17752491
-0.16937102 0.32794094 0.13477337 0.0033108657 -0.02588217 -0.4062876 0.17316936 -0.16873188
-0.24418524 0.18144031 0.10658649 -0.31350404 -0.3411373 -0.0062886076 0.34668115 -0.12256759
-0.14153293 0.3806587 -0.33776984 -0.33811 0.29490238 -0.24818847 0.22859135 0.41316694
00000000: 322c cfbd c3c9 723d 491a c8be 82ef 94be
00000010: ee9c 9ebe 132e cabe 05fe fabd 74fd 83be
00000020: 0a65 cdbe 40fc 81be 1815 6abe 1b8d 99be
00000030: af02 94be c6a4 c0be 884f 8e3e 0bea 10be
00000040: eeb0 4abe 1c61 9ebe 87e8 9abe 790b 72bd
00000050: 6673 adbe b4cf df3d 1d68 353e 7685 c4bd
00000060: 7462 84be eb56 1dbe cf46 823e a7c1 2f3e
00000070: fee1 bdbd 38af 7a3d 977b abbe 4d0c 91bd
00000080: 92eb 8cbe 3f24 943e b4e4 a4be a199 95bc
00000090: 959a 30bd 348d 453e f79c ab3e 6448 d83e
000000a0: 671b 44be 25b3 c2be b246 1ebe 2aaf 543e
000000b0: e5cb a5be 3efb a1bd 0128 84be d34a d2bd
000000c0: 27db c1be d69b c93d 61fa 733e 213e 68be
000000d0: 27f6 bdbe 4070 ae3e 6b19 203e 2ebb 5d3d
000000e0: 54e2 e9bd 67c5 cbbe 53db c8be febc 193e
000000f0: fe58 bb3e cee3 5ebd b243 8ebe 7f67 b53e
00000100: 7e55 bbbe 06d0 a23e a9c3 57be fd9f 3b3e
00000110: 8939 aebe 90ec 9e3e 5cd5 103d 93a5 87bd
00000120: e4d7 dcbe 20ec aabe f4ac c73e 5e45 2bbe
00000130: 1073 88be c1a7 3abe 19a4 8f3e 6d89 1abe
00000140: 03be 713e 4363 393e 70cd dfbe 9b23 a5bd
00000150: 9ba6 c73e 298d 86bb 8eb1 65be 02ae 28be
00000160: 0543 c4be a678 c7be e723 093d 82bd 693e
00000170: 8c2b bdbd 9c4e 213e 6e8d fdbd bae3 423e
00000180: 8368 c4be 1d95 5fbe f1a8 993e 8c01 8d3e
00000190: a829 633d 1658 873e 4d65 8a3e b398 a3be
000001a0: b51b 0bbe fb2a b2be fcdb eebc 8bfc 143d
000001b0: 229d 5a3e ee06 51be 32fe c23e bc84 c53d
000001c0: 1256 afbe 8530 96be 363b dc3d 2a54 433e
000001d0: 11da c03c fc7d 313e a205 bc3e d84a dbbd
000001e0: 3ec1 21be fced a23d 1883 ad3e 559a e23d
000001f0: eb21 983e f2f5 7e3e 008c cc3e 6487 f03d
00000200: b43a 833e cb3b 96be 4a93 eb3d ecad 4bbe
00000210: 46fe 2f3e 9ccc 7f3e dde9 153e cdaa e23c
00000220: 4a67 3c3e fcf0 443e e356 a53e 8111 3bbe
00000230: 228d 8fbe a3fa 91be 09f1 d8be 8940 a43d
00000240: aa4b f1bd 803c 733e c532 32bd a81e 8c3e
00000250: 679e a53e cf80 95bd a90e 31be 7169 283e
00000260: ec93 73bd b5a3 bf3d 2efa 4abe 66d0 af3e
00000270: 0b51 b33e e2a5 cf3e ccc8 823e b257 69bd
00000280: 1dd3 8e3e e521 a6be d0de 8abe b3d1 6cbe
00000290: 3108 423e 231f 793e 7216 253e 17c9 35be
000002a0: 996f 2dbe e0e7 a73e 0802 0a3e 1cfb 583b
000002b0: d806 d4bc ee04 d0be 4f53 313e 0dc8 2cbe
000002c0: b20b 7abe 7dcb 393e 054a da3d 9a83 a0be
000002d0: 8ca9 aebe aa10 cebb 3180 b13e b704 fbbd
000002e0: 02ee 10be b2e5 c23e 2bf0 acbe c11c adbe
000002f0: 72fd 963e 1e25 7ebe da13 6a3e 9e8a d33e

transformer_encoder.layers.0.self_attn.in_proj_bias f4 [24]
-0.018927796 -0.023463814 0.016190382 -0.007256465 0.010122978 -0.020019555 -0.021908116 4.616351e-05
-0.0002806393 0.00058356696 0.0017070229 0.0003278687 0.0006388912 0.00037775678 0.0012434887 -0.0011996649
0.017983643 -0.060229942 0.0237593 -0.01092518 0.0012222955 -0.0017009539 -0.048357543 0.03278275
00000000: 770e 9bbc 2f37 c0bc b1a1 843c a4c7 edbb
00000010: d9da 253c 0d00 a4bc a678 b3bc b19f 4138
00000020: c522 93b9 84fa 183a 2fbe df3a cbe5 ab39
00000030: 437b 273a a80d c639 8ffc a23a 133e 9dba
00000040: 6f52 933c acb3 76bd dda2 c23c 87ff 32bc
00000050: 6e35 a03a 8bf2 deba 8f12 46bd 3447 063d

transformer_encoder.layers.0.self_attn.out_proj.weight f4 [8, 8]
-0.27489564 -0.008288649 -0.35215253 -0.28735474 -0.0068781236 -0.069333844 0.18430272 -0.26455927
-0.2435124 0.21109281 -0.23590983 0.300292 0.064254895 0.051945154 0.09735153 0.036875255
0.2924022 -0.1549711 0.3166696 -0.23918682 0.20986496 -0.10649658 0.31253532 -0.0692529
0.16837427 0.1426286 0.1860469 0.0435387 -0.22434847 -0.18999386 -0.16001697 0.22453524
0.19375826 -0.1366943 0.21443793 0.34699565 0.10560628 0.27071062 -0.28217232 0.28603873
-0.22935975 -0.064486064 -0.29581058 -0.16487578 -0.19931526 0.004906787 -0.20577651 0.1588535
0.28682482 0.29134986 -0.18695527 -0.122778244 -0.2157755 0.09773963 0.14864238 -0.27625814
0.006683494 -0.23355485 0.30813408 0.08458541 0.1953114 -0.10112593 -0.074050106 -0.00260001
00000000: 1fbf 8cbe 1dcd 07bc 564d b4be 2920 93be
00000010: e261 e1bb e7fe 8dbd dab9 3c3e 5074 87be
00000020: 515b 79be b728 583e 5992 71be dfbf 993e
00000030: 1298 833d 71c4 543d 3d60 c73d 820a 173d
00000040: beb5 953e beb0 1ebe 8522 a23e 64ed 74be
00000050: d7e6 563e e11a dabd a104 a03e 77d4 8dbd
00000060: 4e6a 2c3e 3b0d 123e 1483 3e3e a355 323d
00000070: 9bbb 65be c08d 42be 7ddb 23be 91ec 653e
00000080: 9168 463e 97f9 0bbe 9e95 5b3e 6aa9 b13e
00000090: 1b48 d83d 959a 8a3e e478 90be ab73 923e
000000a0: 48dd 6abe 4511 84bd 7c74 97be 32d5 28be
000000b0: 4d19 4cbe 1dc9 a03b 14b7 52be 7eaa 223e
000000c0: b4da 923e cf2b 953e 3471 3fbe 2973 fbbd
000000d0: 41f4 5cbe b72b c83d b535 183e b571 8dbe
000000e0: 3601 db3b 0129 6fbe c0c3 9d3e 1e3b ad3d
000000f0: b6ff 473e 1d1b cfbd 95a7 97bd ee64 2abb

transformer_encoder.layers.0.self_attn.out_proj.bias f4 [8]
-0.009930077 -0.051695872 -0.018558621 -0.018267065 0.045140106 0.032751255 -0.0051541054 0.008079589
00000000: c3b1 22bc 0dbf 53bd 4008 98bc d0a4 95bc
00000010: d5e4 383d 2e26 063d c5e3 a8bb 4160 043c

transformer_encoder.layers.0.linear1.weight f4 [128, 8]
0.15051083 0.16458873 0.23668072 0.16282706 0.23948722 0.21275859 -0.15073119 0.108927846
-0.15884086 -0.26416534 0.14554591 -0.119544476 0.18707094 -0.045624997 0.2225048 0.3195717
0.065157235 0.3427276 0.35039374 -0.020130327 -0.14309232 -0.38526905 -0.30343738 0.22216092
0.25964832 -0.17720011 0.14066222 0.319443 0.02426669 0.06563589 -0.10396375 0.0419802
0.3036014 -0.3218337 0.2832719 -0.23322144 -0.16147186 0.28802928 -0.28802136 -0.17034435
0.011085029 0.3303167 -0.22543043 0.260463 0.08541072 0.009669252 -0.23353985 -0.23623267
0.17400365 0.2647054 0.28534287 0.13016434 0.17518821 0.25581554 0.3172521 -0.29701537
-0.17359228 0.1794527 -0.27063975 -0.082603306 -0.27472934 0.19867587 -0.044320002 0.0571475
0.2977945 -0.23857039 0.30512086 0.2011982 -0.20856304 0.0645948 -0.16630527 -0.14610453
-0.27084824 -0.3161853 -0.31416473 0.16237177 -0.24109945 -0.28564268 0.1664851 -0.25401676
-0.21374528 0.31318006 0.04147474 -0.28985918 0.12961097 -0.20396136 0.012711713 0.3329689
-0.050514635 -0.19458778 0.027540034 -0.310666 0.10019702 0.22385064 0.1388954 0.22204764
0.14671098 0.19490208 -0.07925069 -0.1753755 0.16376923 -0.072667144 -0.3357785 0.0065461397
-0.32769403 0.10484776 -0.05450037 0.2539126 -0.26601914 0.09142101 -0.24389175 -0.2588935
0.17962404 -0.089642905 -0.2753096 0.055899996 -0.26129332 0.10680708 -0.09546814 0.33502668
0.14447449 -0.1397873 -0.2583875 -0.11249662 -0.29701516 0.14053574 -0.027044961 0.042411745
-0.2292293 -0.05288047 0.0261994 0.0876471 0.23364386 0.115185596 0.002116161 -0.16882823
0.07568907 0.28099352 -0.13313614 -0.16431546 0.26862127 0.25877032 -0.08142819 -0.17512739
-0.22416039 0.10798942 0.0650418 -0.35181966 0.36252496 0.35096326 0.25087517 -0.19836886
0.29438764 -0.28901935 0.12982263 0.30801025 -0.34472075 0.046111 -0.20745178 0.13241659
-0.025435686 0.024819376 -0.22851686 0.25781006 -0.2552163 -0.16717158 -0.24846615 0.22285856
0.064120196 -0.055561554 -0.32179213 0.021898994 0.34037864 0.350148 0.06990677 -0.12947872
0.07542577 -0.34559327 -0.134957 0.05130312 -0.34486952 0.23131436 0.31752023 -0.05610532
-0.044550486 -0.020531682 0.16734551 -0.020718772 -0.074244455 -0.2550185 -0.060241967 -0.13185908
0.09238295 -0.037705548 0.20206468 0.006620761 0.012940944 0.33925077 0.063668564 0.07637661
-0.14489293 -0.2715391 0.00861964 -0.14599945 -0.11135729 0.30514115 0.33152145 -0.13891684
0.23734544 0.16649891 -0.13968018 -0.052979678 0.11675639 -0.14997351 -0.14284137 -0.25060594
0.33896932 -0.03325584 0.10849359 -0.094346344 -0.32947084 0.08929156 0.33665228 0.30723715
-0.26805884 -0.20045844 -0.20575549 -0.3115008 -0.2377333 0.06842237 -0.22070958 -0.15944259
-0.2268748 0.15822229 -0.2522714 -0.20663142 0.28754273 0.16625303 -0.25770375 -0.32846552
0.059016507 0.21246459 0.049155585 0.0666868 0.15304203 -0.19138828 0.0006091595 -0.34193784
0.15648429 0.22949564 0.062418345 0.012441587 0.053637307 -0.35292447 0.061209194 -0.06998084
00000000: 831f 1a3e f389 283e 6e5c 723e 23bc 263e
00000010: 233c 753e 63dd 593e 4759 1abe 9015 df3d
00000020: 2ea7 22be ae40 87be fd09 153e bcd3 f4bd
00000030: 868f 3f3e 47e1 3abd 4cd8 633e e79e a33e
00000040: 2871 853d fe79 af3e cf66 b33e 5be8 a4bc
00000050: cb86 12be fc41 c5be 255c 9bbe 277e 633e
00000060: a0f0 843e f273 35be c209 103e 088e a33e
00000070: f0ca c63c 1c6c 863d f2ea d4bd 6ef3 2b3d
00000080: a571 9b3e 63c7 a4be 0409 913e 9ad1 6ebe
00000090: e158 25be 9378 933e 8977 93be c06e 2ebe
000000a0: fb9d 353c 451f a93e 3cd7 66be 685b 853e
000000b0: d1eb ae3d c86b 1e3c 1225 6fbe fae6 71be
000000c0: 032e 323e 7787 873e 7618 923e cd49 053e
000000d0: 8a64 333e 41fa 823e de6e a23e 6612 98be
000000e0: 2dc2 31be 73c2 373e 4b91 8abe ec2b a9bd
000000f0: 53a9 8cbe b071 4b3e e488 35bd 7f13 6a3d
00000100: 8578 983e cc4b 74be cd38 9c3e e706 4e3e
00000110: 8d91 55be 474a 843d ee4b 2abe 6d9c 15be
00000120: 9fac 8abe 0ae3 a1be 33da a0be c944 263e
00000130: c6e2 76be c23f 92be 127b 2a3e 7c0e 82be
00000140: 0be0 5abe 2359 a03e 6be1 293d 6c68 94be
00000150: bdb8 043e 3fdb 50be ca44 503c e67a aa3e
00000160: 6fe8 4ebd 0542 47be a39b e13c 9d0f 9fbe
00000170: 1834 cd3d 1a39 653e 993a 0e3e 7560 633e
00000180: 673b 163e 6994 473e 304e a2bd a395 33be
00000190: 1fb3 273e 83d2 94bd 29eb abbe 0081 d63b
000001a0: 83c7 a7be 6cba d63d c83b 5fbd d500 823e
000001b0: a933 88be f03a bb3d c2be 79be b08d 84be
000001c0: 5def 373e b396 b7bd 61f5 8cbe 65f7 643d
000001d0: 3dc8 85be acbd da3d cd84 c3bd 9e88 ab3e
000001e0: 1ff1 133e 6724 0fbe 5e4b 84be a164 e6bd
000001f0: 5f12 98be 9ae8 0f3e 658d ddbc f0b7 2d3d
00000200: 16bb 6abe 3199 58bd 20a0 d63c 5380 b33d
00000210: 5640 6f3e 6de6 eb3d 4aaf 0a3b 4fe1 2cbe
00000220: df02 9b3d 62de 8f3e d754 08be 5042 28be
00000230: ba88 893e 8b7d 843e d3c3 a6bd 9854 33be
00000240: 4d8a 65be 8f29 dd3d a334 853d b521 b4be
00000250: df9c b93e 75b1 b33e b672 803e 3521 4bbe
00000260: fab9 963e 58fa 93be 39f0 043e 85b3 9d3e
00000270: 3d7f b0be e3de 3c3d 3d6e 54be 3798 073e
00000280: 805e d0bc 0152 cb3c 5300 6abe aeff 833e
00000290: b6ab 82be 072f 2bbe e96d 7ebe 0935 643e
000002a0: 7351 833d 8394 63bd f0c1 a4be 8565 b33c
000002b0: 1c46 ae3e 9946 b33e 482b 8f3d 1296 04be
000002c0: d378 9a3d 9af1 b0be 2b32 0abe 3823 523d
000002d0: bd92 b0be acdd 6c3e 0392 a23e b1ce 65bd
000002e0: 927a 36bd 0f32 a8bc 9f5c 2b3e 6aba a9bc
000002f0: 7a0d 98bd c991 82be 48c0 76bd 1106 07be
00000300: 4633 bd3d 2271 1abd 0bea 4e3e f8f2 d83b
00000310: 4106 543c 47b2 ad3e aa64 823d 576b 9c3d
00000320: d05e 14be 2c07 8bbe 6439 0d3c e180 15be
00000330: 4a0f e4bd 763b 9c3e 2ebd a93e 3740 0ebe
00000340: af0a 733e b17e 2a3e 5208 0fbe 3801 59bd
00000350: f91d ef3d a892 19be 0245 12be 6c4f 80be
00000360: 638d ad3e 4737 08bd e331 de3d a838 c1bd
00000370: 67b0 a8be 7ede b63d b05d ac3e 304e 9d3e
00000380: 023f 89be fa44 4dbe 91b1 52be 087d 9fbe
00000390: 5c70 73be 0721 8c3d b101 62be eb44 23be
000003a0: de51 68be 0605 223e b829 81be 3097 53be
000003b0: cd38 933e 3c3e 2a3e bff1 83be a22c a8be
000003c0: 4bbb 713d 5190 593e 5e57 493d 1793 883d
000003d0: 0db7 1c3e 4afb 43be 01b0 1f3a 7a12 afbe
000003e0: 6b3d 203e e800 6b3e 61aa 7f3d ccd7 4b3c
000003f0: cbb2 5b3d 84b2 b4be 7eb6 7a3d 1d52 8fbd

transformer_encoder.layers.0.linear1.bias f4 [128]
-0.29774147 0.2669028 0.19243498 0.08950068 0.25533482 -0.2924437 -0.0068658222 -0.33373386
-0.28997925 -0.117824085 0.27582416 0.2660622 0.23820074 -0.15517798 -0.22402222 0.23155236
0.24675444 -0.28216472 -0.12197647 -0.33204713 -0.18106358 0.34200418 0.07265429 -0.13762431
0.12807435 -0.28850138 0.3297873 -0.34799424 0.29154074 -0.29538882 0.2814683 -0.026768003
-0.066210076 -0.00047741903 -0.27887815 0.25459024 -0.3008546 0.3017776 -0.33520085 0.1987052
0.3236885 0.22310984 -0.027064634 0.33917597 0.10007595 -0.07130473 0.17070591 -0.06885385
0.025278993 0.27219537 -0.122616805 0.25382593 0.18519886 -0.033741932 -0.22006907 -0.0882751
-0.08017045 -0.027773704 -0.26963922 0.32619047 -0.109374434 -0.16079575 0.25727496 -0.098264515
0.2538765 -0.19048628 0.31549388 -0.1895398 -0.3128526 0.044799965 -0.1654051 0.06454965
0.13658302 0.043804232 -0.17405719 0.17247614 0.12402554 0.23758991 0.13220619 0.19161819
0.10125093 -0.07841223 0.2584463 -0.055475958 0.10848781 0.06861036 0.29780295 -0.06277788
-0.06219804 -0.048876945 0.16015212 0.18691008 0.31073982 -0.20841762 -0.013466555 -0.13782498
-0.14998758 0.01304417 0.0687073 0.25370917 0.3010093 -0.18350123 -0.005230719 0.007872786
-0.1539978 0.2019071 0.14494239 -0.32760045 -0.031526826 0.08280292 0.16060248 0.2298169
0.28702644 -0.20057346 0.12936257 0.0021452776 -0.2434213 -0.095414564 0.09765208 0.13414596
0.12064153 -0.251227 0.03797807 0.34999466 0.29233748 0.26883313 0.30252653 0.2890716
00000000: 9271 98be 7ca7 883e ad0d 453e 224c b73d
00000010: 3fbb 823e 2ebb 95be b1fa e0bb 2adf aabe
00000020: 2978 94be c14d f1bd d338 8d3e 4e39 883e
00000030: e5ea 733e fae6 1ebe 1566 65be 101c 6d3e
00000040: 32ad 7c3e e577 90be cdce f9bd 1502 aabe
00000050: bb68 39be 2c1b af3e c6cb 943d 63ed 0cbe
00000060: ec25 033e 74b6 93be e2d9 a83e 4d2c b2be
00000070: d444 953e 343d 97be 9d1c 903e 9248 dbbc
00000080: 2699 87bd 194e fab9 1ec9 8ebe a759 823e
00000090: 9d09 9abe 9882 9a3e 729f abbe 6079 4b3e
000000a0: 80ba a53e e876 643e a7b6 ddbc 79a8 ad3e
000000b0: 9ff4 cc3d 3708 92bd 88cd 2e3e 3f03 8dbd
000000c0: e415 cf3c 315d 8b3e 851e fbbd 79f5 813e
000000d0: c5a4 3d3e fb34 0abd c959 61be 93c9 b4bd
000000e0: 6830 a4bd ae85 e3bc 270e 8abe 7002 a73e
000000f0: b4ff dfbd a4a7 24be 8bb9 833e e83e c9bd
00000100: 1afc 813e d60e 43be 6a88 a13e b916 42be
00000110: 372e a0be 2b80 373d f45f 29be 9b32 843d
00000120: 6bdc 0b3e 116c 333d 0c3c 32be 969d 303e
00000130: 1a01 fe3d c54a 733e 0f61 073e 8f37 443e
00000140: a65c cf3d 9796 a0bd 1353 843e c23a 63bd
00000150: db2e de3d 9783 8c3d a179 983e b091 80bd
00000160: 5fc3 7ebd 3133 48bd ebfe 233e 5b65 3f3e
00000170: 4a19 9f3e 6e6b 55be d3a2 5cbc fe21 0dbe
00000180: 5896 19be 37b7 553c 6ab6 8c3d 2be6 813e
00000190: e41d 9a3e bfe7 3bbe 7466 abbb dcfc 003c
000001a0: 99b1 1dbe bcc0 4e3e c76b 143e 3fbb a7be
000001b0: 4622 01bd 9494 a93d fa74 243e 1f55 6b3e
000001c0: 21f5 923e 2163 4dbe 9f77 043e c997 0c3b
000001d0: 6f43 79be b668 c3bd d0fd c73d 8f5d 093e
000001e0: e812 f73d d3a0 80be e58e 1b3d 8032 b33e
000001f0: 42ad 953e 7fa4 893e c2e4 9a3e 3101 943e

transformer_encoder.layers.0.linear2.weight f4 [8, 128]
-0.00015423543 0.010914764 0.067663446 -0.0049706525 -0.038078427 0.075446494 -0.0077280654 0.05806097
-0.008579599 -0.056104966 -0.044532277 0.011674495 0.024674328 -0.018441869 0.01194786 0.0478359
-0.000724817 -0.049220584 0.008572736 -0.03422013 0.074431896 0.023233032 -0.010137382 -0.04875441
-0.026137428 0.06413051 -0.018013602 -0.003022256 -0.03312547 0.07410629 0.078817 -0.010828043
0.013816746 0.040290073 0.0504748 -0.054997247 -0.021428918 0.05047745 -0.045433816 -0.077705
0.048558258 0.038207915 -0.0070628496 0.02985307 -0.0003831381 0.0102730375 0.0018054144 0.017471753
-0.052701328 0.018682275 -0.027768726 -0.01935204 -0.09677313 -0.062056966 -0.07549143 0.0638663
-0.0006771668 -0.05167485 -0.03856949 0.034023147 -0.037819274 -0.054666173 0.067284994 0.015458649
0.061306667 -0.0035539658 -0.005369845 -0.009373541 -0.01049617 0.08167545 0.027567985 0.056570295
0.016279625 -0.081073284 0.105543375 -0.05550395 -0.027509913 -0.058584914 0.08530411 -0.06874332
0.079448864 0.06464292 -0.015177409 0.039097827 -0.07341128 -0.04031657 0.06855266 -0.041725636
-0.019064123 -0.09072978 -0.040637176 0.0053988737 0.071015045 0.049867738 0.023220802 0.08244114
0.0665937 -0.07353905 0.07024154 0.0014534905 0.029701201 0.037237078 -0.04346177 -0.017704315
-0.036033403 -0.018294454 0.049951393 -0.06492504 0.022930339 0.023005042 0.056338288 0.05072385
0.018603804 -0.023960227 -0.073089585 -0.037000313 0.05370846 -0.07706322 0.06629457 0.091319054
-0.022448102 -0.039026517 0.017925043 0.02994795 0.015719766 0.0051672077 -0.0072913244 0.04192789
0.022709677 -0.010865491 0.018924966 0.075231105 -0.026149163 0.090510316 0.017135475 -0.0066893664
-0.013133708 -0.042584527 -0.007913195 -0.04809174 0.010605233 0.0018021122 0.046599165 0.059351094
0.046622247 -0.02215038 -0.0907574 -0.042827833 -0.080230735 -0.055777933 0.042601146 -0.06753558
-0.003947759 0.03396879 0.01383867 -0.07254124 -0.013293027 0.012924177 0.087983556 -0.053591613
0.07732347 -0.06908179 0.016675398 -0.09521522 0.0053681545 0.083058335 0.029162362 -0.070689
-0.008909114 0.047480498 0.011926234 -0.066080846 -0.01273627 0.08955942 -0.0472127 -0.09930612
-0.04844067 -0.049495526 0.044294093 0.021769635 -0.06337397 -0.08293614 0.014525191 -0.006169959
-0.008316531 -0.06898863 -0.062043868 -0.068977214 0.07892831 -0.04820709 0.027064536 0.06447229
-0.024530474 -0.036175713 0.056072492 -0.08402385 0.00042116607 -0.048627097 -0.042158708 0.05054441
0.014123162 -0.0016071101 0.054015066 0.0049111093 0.0072605964 0.0920849 0.05294491 -0.0070112417
-0.051431376 0.047263194 -0.09368646 -0.0060733138 0.07088114 0.01152025 -0.023317417 0.030883161
0.04035649 -0.08073368 0.053406015 0.051352225 0.031076416 -0.00883783 -0.03516432 0.009916839
0.07049336 0.048928298 -0.057868186 0.046796937 -0.0019313014 0.06268959 -0.053799413 -0.015850598
0.0071637887 0.00092966284 0.018189427 0.012078126 -0.03680744 -0.09972126 0.054560293 -0.008060587
0.052113593 0.047826048 0.034314603 0.08005239 -0.039643273 -0.07440512 -0.09747218 -0.0065423213
-0.006336647 0.04754442 0.0064203134 0.048115958 -0.043643747 0.08419994 -0.016865674 -0.035781935
00000000: 42ba 21b9 d7d3 323c 2293 8a3d dbe0 a2bb
00000010: 20f8 1bbd b183 9a3d b63b fdbb 57d1 6d3d
00000020: 7291 0cbc 52ce 65bd 7a67 36bd 6246 3f3c
00000030: d121 ca3c 6713 97bc f5c0 433c 94ef 433d
00000040: a501 3eba 869b 49bd a974 0c3c 682a 0cbd
00000050: c06f 983d 3353 be3c 4317 26bc b4b2 47bd
00000060: 291e d6bc db56 833d 4391 93bc 0b11 46bb
00000070: 93ae 07bd 0ac5 973d cf6a a13d 1b68 31bc
00000080: a25f 623c 3407 253d aabe 4e3d cb44 61bd
00000090: b38b afbc 71c1 4e3d cf18 3abd cd23 9fbd
000000a0: 06e5 463d e77f 1c3d 7a6f e7bb 6d8e f43c
000000b0: eddf c8b9 3e50 283c a8a3 ec3a ec20 8f3c
000000c0: 59dd 57bd 920b 993c 3d7b e3bc 2b88 9ebc
000000d0: fe30 c6bd 722f 7ebd 409b 9abd 56cc 823d
000000e0: e583 31ba 02a9 53bd 0bfb 1dbd db5b 0b3d
000000f0: 62e8 1abd a3e9 5fbd b7cc 893d 4646 7d3c
00000100: b31c 7b3d a7e9 68bb 86f5 afbb 7b93 19bc
00000110: 21f8 2bbc 7545 a73d 41d6 e13c 41b6 673d
00000120: d95c 853c c009 a6bd 2027 d83d 1c58 63bd
00000130: 785c e1bc bcf6 6fbd ecb3 ae3d 4cc9 8cbd
00000140: 16b6 a23d 8263 843d abaa 78bc 0b25 203d
00000150: a758 96bd fd22 25bd 5665 8c3d 80e8 2abd
00000160: 5d2c 9cbc 89d0 b9bd 2b73 26bd 09e9 b03b
00000170: 5670 913d 1d42 4c3d 8d39 be3c e7d6 a83d
00000180: 4762 883d a49b 96bd ccda 8f3d 0c83 be3a
00000190: ef4f f33c e885 183d f804 32bd a408 91bc
000001a0: c397 13bd 40de 95bc d599 4c3d 6bf7 84bd
000001b0: 68d8 bb3c 1275 bc3c fac2 663d d0c3 4f3d
000001c0: 0167 983c 3d48 c4bc feaf 95bd a48d 17bd
000001d0: 67fd 5b3d 52d3 9dbd 73c5 873d 7c05 bb3d
000001e0: 15e5 b7bc 45da 1fbd 8ad7 923c 6755 f53c
000001f0: bdc6 803c ae51 a93b 10ec eebb 94bc 2b3d
00000200: a509 ba3c 2c05 32bc 8808 9b3c c412 9a3d
00000210: c536 d6bc 795d b93d b25f 8c3c 7932 dbbb
00000220: c42e 57bc 1d6d 2ebd 58a6 01bc d8fb 44bd
00000230: 92c1 2d3c da34 ec3a c4de 3e3d 221a 733d
00000240: f8f6 3e3d b774 b5bc 04df b9bd 3d6c 2fbd
00000250: 0350 a4bd 6777 64bd 8a7e 2e3d 1850 8abd
00000260: 345c 81bb dc22 0b3d 97bb 623c 8090 94bd
00000270: ffca 59bc edbf 533c b930 b43d e182 5bbd
00000280: c45b 9e3d c17a 8dbd d89a 883c 3200 c3bd
00000290: 58e7 af3b 7d1a aa3d e8e5 ee3c 65c5 90bd
000002a0: 88f7 11bc e97a 423d 4066 433c 6555 87bd
000002b0: caab 50bc ee6a b73d 1b62 41bd 0261 cbbd
000002c0: b969 46bd d2bb 4abd b96d 353d 3c56 b23c
000002d0: 36ca 81bd 6cda a9bd 11fb 6d3c 5e2d cabb
000002e0: 0f42 08bc e949 8dbd b621 7ebd ed43 8dbd
000002f0: 2aa5 a13d cc74 45bd 72b6 dd3c 0c0a 843d
00000300: 22f4 c8bc fc2c 14bd 45ac 653d b214 acbd
00000310: f4cf dc39 352d 47bd 9cae 2cbd a807 4f3d
00000320: d664 673c aba5 d2ba e73e 5d3d 5fed a03b
00000330: 4cea ed3b 0297 bc3d c3dc 583d 8fbe e5bb
00000340: b5a9 52bd 0d97 413d b0de bfbd a602 c7bb
00000350: 222a 913d 6ebf 3c3c 2b04 bfbc affe fc3c
00000360: d94c 253d b357 a5bd 44c0 5a3d b656 523d
00000370: f893 fe3c 8ccc 10bc 7608 10bd 3d7a 223c
00000380: d35e 903d 0a69 483d 3107 6dbd 25ae 3f3d
00000390: b923 fdba 6663 803d c65c 5cbd 1dd9 81bc
000003a0: 37be ea3b 9eb4 733a fe01 953c 55e3 453c
000003b0: 66c3 16bd a93a ccbd 9d7a 5f3d 8d10 04bc
000003c0: 1075 553d 3fe5 433d 788d 0c3d 82f2 a33d
000003d0: fc60 22bd b661 98bd 7f9f c7bd f860 d6bb
000003e0: a6a3 cfbb f0bd 423d 7e61 d23b 3d15 453d
000003f0: c9c3 32bd 0571 ac3d e229 8abc 1490 12bd

transformer_encoder.layers.0.linear2.bias f4 [8]
-0.023424573 0.029633544 0.06193636 0.052057657 0.08238631 -0.03402505 0.04737479 -0.06897904
00000000: e4e4 bfbc 0cc2 f23c fbb0 7d3d 693a 553d
00000010: 27ba a83d da5d 0bbd 110c 423d e244 8dbd

transformer_encoder.layers.0.norm1.weight f4 [8]
0.99729073 1.0231708 0.9539205 1.0389178 0.99542594 1.045121 0.98257816 0.9876609
00000000: 724e 7f3f 43f7 823f 2234 743f 42fb 843f
00000010: 3cd4 7e3f 86c6 853f 3e8a 7b3f 58d7 7c3f

transformer_encoder.layers.0.norm1.bias f4 [8]
0.018773684 -0.008831142 -0.023778297 0.0026082722 0.011764462 0.0057680607 -0.023358488 -0.0003770811
00000000: 45cb 993c 7fb0 10bc b4ca c2bc 8cef 2a3b
00000010: bbbf 403c 0002 bd3b 4d5a bfbc f8b2 c5b9

transformer_encoder.layers.0.norm2.weight f4 [8]
0.98226994 1.0289624 0.95942515 1.028064 0.9980959 1.0122284 0.9930415 0.99300724
00000000: 0b76 7b3f 0ab5 833f e39c 753f 9a97 833f
00000010: 3783 7f3f b390 813f f837 7e3f b935 7e3f

transformer_encoder.layers.0.norm2.bias f4 [8]
0.026280846 -0.0004231713 -0.023727356 0.012143879 0.014474063 0.008825009 -0.009660405 0.0017331792
00000000: ee4a d73c 17dd ddb9 df5f c2bc 1ff7 463c
00000010: 9f24 6d3c c596 103c ad46 1ebc d82b e33a

transformer_encoder.layers.1.self_attn.in_proj_weight f4 [24, 8]
-0.104863554 0.060288105 -0.36593238 -0.28419834 -0.27508983 -0.4620097 -0.14757167 -0.25492233
-0.40738416 -0.25410032 -0.24704297 -0.31762198 -0.28692356 -0.34064233 0.27190167 -0.10568208
-0.19030851 -0.2763257 -0.3348286 -0.087083876 -0.34874147 0.13027449 0.19941682 -0.114583775
-0.25474316 -0.17728378 0.26536262 0.16867886 -0.09839465 0.047383994 -0.31589434 -0.09087325
-0.29203093 0.28945142 -0.32572624 -0.027934879 -0.04487623 0.17285256 0.3369242 0.43447188
-0.19723503 -0.3561569 -0.17695451 0.17764485 -0.31524456 -0.070191845 -0.30147806 -0.11044468
-0.37513855 0.10326964 0.2660008 -0.20660032 -0.37829417 0.34309238 0.16135196 0.04765084
-0.113738835 -0.40726924 -0.39934644 0.15469848 0.38336357 -0.0440811 -0.27619103 0.3606743
-0.36254105 0.33763108 -0.18639828 0.202977 -0.3666828 0.3062791 0.04282923 -0.088833384
-0.44254965 -0.3580414 0.3464488 -0.18279506 -0.23710367 -0.14636832 0.30191138 -0.13584715
0.20316857 0.21105015 -0.43499458 -0.04879033 0.42759103 -0.014786099 -0.27357396 -0.14427495
-0.38133267 -0.39871654 0.049784433 0.21935199 -0.100677215 0.15867533 -0.12220278 0.17309417
-0.3943423 -0.23385772 0.27945727 0.24605025 0.06751603 0.27899072 0.27620044 -0.33514345
-0.15569143 -0.3099629 -0.03687458 0.028982017 0.22785816 -0.22413401 0.36832222 0.083195366
-0.32955575 -0.32236394 0.10204984 0.19300683 0.04724192 0.1607226 0.348356 -0.09358384
-0.15102479 0.06665202 0.3586006 0.1087914 0.28209138 0.2684357 0.39565906 0.11350956
0.28578648 -0.3146336 0.09820884 -0.21483515 0.19548522 0.25104776 0.16046557 0.029524293
0.190356 0.22828022 0.38224214 -0.14949636 -0.2899575 -0.30760118 -0.4215988 0.107822
-0.060939156 0.2585597 -0.1035978 0.26448447 0.35463452 -0.07786076 -0.1950195 0.15054664
-0.038061004 0.122251116 -0.17700522 0.338306 0.3502455 0.40830368 0.29732165 -0.070120744
0.30499616 -0.34158227 -0.28929383 -0.23677254 0.21368575 0.23710085 0.15539226 -0.1704048
-0.17073815 0.36570168 0.16733551 -0.00010989128 -0.07397525 -0.383946 0.16802192 -0.18021327
-0.2980618 0.216603 0.13441545 -0.28962573 -0.36708352 0.021351507 0.3847416 -0.13065435
-0.1176493 0.38276175 -0.34946007 -0.38442698 0.27788875 -0.26584244 0.23547274 0.4017978
00000000: b4c2 d6bd a9f0 763d 7d5b bbbe 7282 91be
00000010: 93d8 8cbe 898c ecbe 071d 17be 2e85 82be
00000020: a894 d0be 7019 82be d5f8 7cbe 599f a2be
00000030: a5e7 92be ac68 aebe b236 8b3e d96f d8bd
00000040: 3ce0 42be 907a 8dbe a76e abbe 0859 b2bd
00000050: 3e8e b2be ad66 053e ec33 4c3e e6aa eabd
00000060: b26d 82be e189 35be 9cdd 873e 27ba 2c3e
00000070: 2283 c9bd b815 423d e7bc a1be c11b babd
00000080: 1485 95be fa32 943e 97c5 a6be b0d7 e4bc
00000090: 23d0 37bd 4300 313e 5481 ac3e 1973 de3e
000000a0: fbf7 49be 325a b6be 9033 35be 88e8 353e
000000b0: bc67 a1be bec0 8fbd 555b 9abe d230 e2bd
000000c0: 2912 c0be 087f d33d 4231 883e 098f 53be
000000d0: c6af c1be cea9 af3e 7339 253e 872d 433d
000000e0: e8ef e8bd 9885 d0be 2377 ccbe 4769 1e3e
000000f0: 3b48 c43e 628e 34bd e968 8dbe 4daa b83e
00000100: fb9e b9be fbdd ac3e 31df 3ebe 34d9 4f3e
00000110: d9bd bbbe 9dd0 9c3e b46d 2f3d 47ee b5bd
00000120: de95 e2be 3451 b7be bd61 b13e a12e 3bbe
00000130: 4ecb 72be 94e1 15be 2194 9a3e 841b 0bbe
00000140: 6c0b 503e 881d 583e 9cb7 debe 5ed8 47bd
00000150: 36ed da3e 6541 72bc e311 8cbe d0bc 13be
00000160: 093e c3be 9324 ccbe c3ea 4b3d cf9d 603e
00000170: db2f cebd c97b 223e 7345 fabd 993f 313e
00000180: 3ce7 c9be 6678 6fbe 0615 8f3e 99f4 7b3e
00000190: d845 8a3d dfd7 8e3e 256a 8d3e ec97 abbe
000001a0: 936d 1fbe 75b3 9ebe cd09 17bd b26b ed3c
000001b0: a653 693e 6383 65be bb94 bc3e 5562 aa3d
000001c0: 88bb a8be e30c a5be 82ff d03d 95a3 453e
000001d0: be80 413d 7794 243e b85b b23e e2a8 bfbd
000001e0: 3ea6 1abe db80 883d 7f9a b73e 07ce de3d
000001f0: 486e 903e 6770 893e d393 ca3e b377 e83d
00000200: 9b52 923e a817 a1be b721 c93d bffd 5bbe
00000210: 472d 483e 5589 803e 1651 243e eedc f13c
00000220: afec 423e 4ac2 693e 3eb5 c33e 9315 19be
00000230: 4f75 94be e77d 9dbe ccdb d7be c8d1 dc3d
00000240: 569b 79bd f061 843e 152b d4bd 826a 873e
00000250: a892 b53e 7675 9fbd 31b3 47be e628 1a3e
00000260: dbe5 1bbd cb5e fa3d db40 35be 7236 ad3e
00000270: 6153 b33e 2e0d d13e 8b3a 983e 779b 8fbd
00000280: 7528 9c3e dfe3 aebe 521e 94be 8074 72be
00000290: 70d0 5a3e 91ca 723e 261f 1f3e 997e 2ebe
000002a0: fbd5 2ebe 403d bb3e 005a 2b3e 6f75 e6b8
000002b0: 5680 97bd 9294 c4be f00d 2c3e d489 38be
000002c0: 8e9b 98be 2dcd 5d3e 34a4 093e d349 94be
000002d0: 5ff2 bbbe 5be9 ae3c dafc c43e 41ca 05be
000002e0: 1ef2 f0bd 59f9 c33e 6eec b2be 9dd3 c4be
000002f0: 6f47 8e3e 801c 88be c41f 713e 71b8 cd3e

transformer_encoder.layers.1.self_attn.in_proj_bias f4 [24]
-0.017027637 -0.01792379 0.024754096 -0.010421886 -0.0013309363 0.0007666867 -0.010990809 0.012868395
5.423265e-05 5.5309443e-05 6.563826e-05 -2.6420632e-05 4.882939e-05 0.00010088962 -6.441805e-05 -0.000130613
0.016317392 -0.014377473 0.025803074 0.0014339732 0.013367524 -0.020443318 -0.0063227396 0.016246734
00000000: 8b7d 8bbc e9d4 92bc 1ac9 ca3c 8fc0 2abc
00000010: d072 aeba 79fb 483a cb12 34bc f6d5 523c
00000020: dd77 6338 10fc 6738 46a7 8938 e0a1 ddb7
00000030: 29ce 4c38 b494 d338 2d18 87b8 29f5 08b9
00000040: 0dac 853c 7e8f 6bbc f860 d33c 28f4 bb3a
00000050: 7603 5b3c bf78 a7bc fc2e cfbb df17 853c

transformer_encoder.layers.1.self_attn.out_proj.weight f4 [8, 8]
-0.2797406 0.0014732959 -0.3477057 -0.26400998 -0.0098022 -0.0735611 0.19671334 -0.27990073
-0.24925868 0.2648915 -0.23705281 0.34141758 0.044305477 0.06420006 0.1423075 0.021610118
0.30696326 -0.13865978 0.34770757 -0.23504443 0.21600299 -0.10010893 0.3445437 -0.06457252
0.16889954 0.20024385 0.20870684 0.06050416 -0.24065796 -0.20486057 -0.13123627 0.22803187
0.1957986 -0.18036193 0.18530567 0.325082 0.13691875 0.29314172 -0.32572603 0.3088321
-0.24424802 -0.11018349 -0.3218334 -0.18523219 -0.19915476 -0.0025649942 -0.24586925 0.16380186
0.32023516 0.2762849 -0.22639327 -0.12124718 -0.23415709 0.11568255 0.14285076 -0.28261012
-0.014002856 -0.2633413 0.32020777 0.08160185 0.2022622 -0.12085165 -0.08977578 -0.0006729955
00000000: 293a 8fbe 9b1b c13a 7b06 b2be 512c 87be
00000010: 6899 20bc 34a7 96bd 396f 493e 264f 8fbe
00000020: ab3d 7fbe dc9f 873e f9bd 72be 49ce ae3e
00000030: a979 353d 527b 833d 0fb9 113e b407 b13c
00000040: 4a2a 9d3e d4fc 0dbe ba06 b23e 7daf 70be
00000050: e32f 5d3e e905 cdbd 0868 b03e 993e 84bd
00000060: 00f4 2c3e b90c 4d3e 3fb7 553e 36d3 773d
00000070: 0a6f 76be f8c6 51be cd62 06be 3081 693e
00000080: 6e7f 483e ccb0 38be c5c0 3d3e 2671 a63e
00000090: 6e34 0c3e ac16 963e 90c5 a6be 3e1f 9e3e
000000a0: 271c 7abe e2a7 e1bd 59c7 a4be 82ad 3dbe
000000b0: 3aef 4bbe 7619 28bb 26c5 7bbe adbb 273e
000000c0: ddf5 a33e 3775 8d3e a3d3 67be 7150 f8bd
000000d0: e0c6 6fbe f9ea ec3d 7847 123e 46b2 90be
000000e0: 3c6c 65bc acd4 86be 46f2 a33e df1e a73d
000000f0: d21d 4f3e 1281 f7bd 5ddc b7bd f76b 30ba

transformer_encoder.layers.1.self_attn.out_proj.bias f4 [8]
0.008754077 -0.016814936 0.009909893 0.027189026 0.013987196 -0.014344137 -0.023494195 0.0059505696
00000000: 436d 0f3c 7abf 89bc 1b5d 223c 85bb de3c
00000010: 8d2a 653c ac03 6bbc e676 c0bc fffc c23b

transformer_encoder.layers.1.linear1.weight f4 [128, 8]
0.14623103 0.17578125 0.23201597 0.15842035 0.23319854 0.19681759 -0.1395645 0.11103854
-0.14711557 -0.25569284 0.1586319 -0.114507 0.17509244 -0.068619385 0.24118678 0.289226
0.063627094 0.3576937 0.33391166 -0.033446815 -0.15165664 -0.3662766 -0.30527547 0.23200947
0.27274376 -0.18459372 0.14219077 0.31670037 0.019260004 0.069254674 -0.11737192 0.064305164
0.30274507 -0.32975355 0.28214404 -0.23595327 -0.15999605 0.27972317 -0.27142444 -0.17133811
0.03261246 0.31827715 -0.23344733 0.27602598 0.08544873 -0.00014301664 -0.22719955 -0.24592274
0.16380747 0.2719811 0.28271514 0.13330498 0.16617829 0.23549178 0.33749682 -0.3014046
-0.1809455 0.19870102 -0.2711195 -0.08523536 -0.2911837 0.18612963 -0.027460901 0.047796015
0.2939248 -0.2397897 0.30455858 0.20512815 -0.21881165 0.07106489 -0.1680211 -0.13731793
-0.2734747 -0.30606213 -0.31315205 0.15467128 -0.25264952 -0.28949896 0.18025208 -0.25657994
-0.21742024 0.3090767 0.042577878 -0.28413975 0.1419568 -0.2145155 -0.00032638543 0.33865193
-0.03496437 -0.19863932 0.0148923285 -0.30422515 0.11120851 0.21604957 0.14258611 0.21632874
0.12482032 0.19036253 -0.09068603 -0.16911615 0.16584803 -0.046939343 -0.34571612 0.02067745
-0.33601066 0.09321852 -0.053711824 0.2581347 -0.26114884 0.098608844 -0.24433206 -0.24699564
0.18222898 -0.0808215 -0.27943987 0.070327885 -0.2769197 0.11173326 -0.113307066 0.34408012
0.13617711 -0.13331303 -0.25406986 -0.11417217 -0.3017369 0.14584084 -0.027665973 0.045087583
-0.22860661 -0.06779286 0.027325766 0.08023911 0.23591852 0.14366414 -0.012755998 -0.15706693
0.08083009 0.28412008 -0.14909711 -0.1767031 0.2618102 0.2806296 -0.06964262 -0.17432718
-0.23105456 0.12078019 0.07378186 -0.3416471 0.35365424 0.33792257 0.25539514 -0.20800197
0.28362265 -0.28762084 0.13248624 0.30717942 -0.32976985 0.05747165 -0.22329383 0.11683325
-0.01955064 0.041291706 -0.22238748 0.25366697 -0.25292543 -0.16254593 -0.25536424 0.19802634
0.063255884 -0.05115391 -0.31453001 0.022281505 0.3326149 0.3382552 0.05062711 -0.10347286
0.06847853 -0.33942083 -0.12761553 0.05119883 -0.34907988 0.21732028 0.31636748 -0.050719623
-0.051782418 -0.011306371 0.17816171 -0.02508618 -0.081154786 -0.2591007 -0.056249954 -0.13665254
0.099201895 -0.033996835 0.21070369 0.009549667 0.010845782 0.32232556 0.05779496 0.08326817
-0.15047605 -0.28233233 0.02937604 -0.15557185 -0.11707157 0.32533586 0.3116101 -0.12760857
0.25378326 0.15415725 -0.11630407 -0.066720046 0.110986084 -0.1428181 -0.14119576 -0.25748095
0.33698052 -0.03294939 0.10805933 -0.093613416 -0.32287976 0.094884604 0.331711 0.30219978
-0.27278322 -0.21395949 -0.20061393 -0.32564428 -0.22473682 0.07088914 -0.22382605 -0.14786296
-0.22476536 0.15319179 -0.25334653 -0.21320248 0.30525076 0.15409014 -0.2511029 -0.33001322
0.061404712 0.20583649 0.054315504 0.06729268 0.1522492 -0.17988148 -0.008116197 -0.337248
0.15254644 0.2267888 0.06405357 0.0005832012 0.056557614 -0.33289644 0.058938023 -0.07273797
00000000: 96bd 153e 0000 343e 9895 6d3e f238 223e
00000010: 99cb 6e3e 8d8a 493e ffe9 0ebe 2d68 e33d
00000020: 77a5 16be 2cea 82be 6770 223e a582 eabd
00000030: 6f4b 333e 5288 8cbd abf9 763e 6e15 943e
00000040: ec4e 823d a123 b73e 78f6 aa3e 87ff 08bd
00000050: e14b 1bbe 9b88 bbbe 114d 9cbe e493 6d3e
00000060: 12a5 8b3e 2306 3dbe 759a 113e 8d26 a23e
00000070: 28c7 9d3c 65d5 8d3d b060 f0bd 6db2 833d
00000080: 6701 9b3e 75d5 a8be 2f75 903e bc9d 71be
00000090: 01d6 23be e037 8f3e 25f8 8abe 4273 2fbe
000000a0: a594 053d 39f5 a23e d10c 6fbe 4753 8d3e
000000b0: beff ae3d bdf6 15b9 00a7 68be 2cd3 7bbe
000000c0: 25bd 273e 1b41 8b3e 0ac0 903e 1a81 083e
000000d0: a42a 2a3e c224 713e 62cc ac3e b451 9abe
000000e0: c749 39be 4878 4b3e 2dd0 8abe e08f aebd
000000f0: 0816 95be c498 3e3e aff5 e0bc c1c5 433d
00000100: 507d 963e 6e8b 75be 1aef 9b3e 1d0d 523e
00000110: 2910 60be 788a 913d b90d 2cbe 129d 0cbe
00000120: e004 8cbe 2db4 9cbe 7755 a0be 2662 1e3e
00000130: 475b 81be 3539 94be 0094 383e 725e 83be
00000140: 69a3 5ebe 4d3f 9e3e 2466 2e3d c47a 91be
00000150: 205d 113e f4a9 5bbe b61e abb9 c963 ad3e
00000160: cd36 0fbd 1b68 4bbe f4fe 733c 66c3 9bbe
00000170: 4ac1 e33d 193c 5d3e 1802 123e 4885 5d3e
00000180: cca1 ff3d 65ee 423e 99b9 b9bd c92c 2dbe
00000190: 11d4 293e 7843 40bd b401 b1be c163 a93c
000001a0: 9709 acbe 5ae9 be3d ee00 5cbd 3b2a 843e
000001b0: 4db5 85be 6ff3 c93d 2f32 7abe 6dec 7cbe
000001c0: 3c9a 3a3e be85 a5bd be12 8fbe 1108 903d
000001d0: 6bc8 8dbe 68d4 e43d 890d e8bd 452b b03e
000001e0: 0372 0b3e 3683 08be 7215 82be 19d3 e9bd
000001f0: 427d 9abe 4d57 153e c0a3 e2bc c2ad 383d
00000200: da17 6abe fcd6 8abd 49da df3c 6754 a43d
00000210: a094 713e b11c 133e 89fe 50bc 27d6 20be
00000220: 3f8a a53d 3078 913e eaac 18be a8f1 34be
00000230: fd0b 863e afae 8f3e caa0 8ebd d382 32be
00000240: 9199 6cbe 9b5b f73d f21a 973d 5eec aebe
00000250: 2b12 b53e 3004 ad3e 27c3 823e 78fe 54be
00000260: fd36 913e 0a43 93be 79aa 073e 9f46 9d3e
00000270: 98d7 a8be 6567 6b3d 23a7 64be 4546 ef3d
00000280: aa28 a0bc 7e21 293d 8bb9 63be a3e0 813e
00000290: 717f 81be 7172 26be 1abf 82be 6bc7 4a3e
000002a0: 4d8c 813d c386 51bd 140a a1be b487 b63c
000002b0: 804c aa3e c92f ad3e 5f5e 4f3d 94e9 d3bd
000002c0: 793e 8c3d 91c8 adbe a5ad 02be ddb5 513d
000002d0: 99ba b2be 3589 5e3e ebfa a13e 61bf 4fbd
000002e0: cd19 54bd 5b3e 39bc 0670 363e 8881 cdbc
000002f0: 7b34 a6bd d9a8 84be 5a66 66bd a5ee 0bbe
00000300: 5d2a cb3d 4440 0bbd b5c2 573e 3576 1c3c
00000310: 82b2 313c db07 a53e 68ba 6c3d 8188 aa3d
00000320: 6516 1abe dd8d 90be 05a6 f03c 3a4e 1fbe
00000330: 38c3 efbd 6c92 a63e 5c8b 9f3e d2ab 02be
00000340: e1ef 813e 66db 1d3e d430 eebd 85a4 88bd
00000350: ac4c e33d e83e 12be 9f95 10be 8bd4 83be
00000360: b688 ac3e f1f5 06bd 364e dd3d 64b8 bfbd
00000370: 7f50 a5be dc52 c23d 06d6 a93e eeb9 9a3e
00000380: 3eaa 8bbe 3218 5bbe bd6d 4dbe d9ba a6be
00000390: 6921 66be 532e 913d a832 65be 6369 17be
000003a0: e428 66be 4fde 1c3e a3b6 81be c051 5abe
000003b0: d449 9c3e cec9 1d3e 8f90 80be 7ef7 a8be
000003c0: 8283 7b3d cdc6 523e ef79 5e3d bfd0 893d
000003d0: 37e7 1b3e da32 38be ccf9 04bc c5ab acbe
000003e0: 2235 1c3e 533b 683e 852e 833d f8e1 183a
000003f0: f5a8 673d 6771 aabe ff68 713d a5f7 94bd
