final/best_model_fold_1.pth (torch, 575082 bytes, 50 tensors)

embedding.weight f4 [50, 8]
000000 21 be 76 bf b5 ef 54 bd 35 6f 31 c0 97 82 fd 3e
       -0.96383864 -0.051986415 -2.7724125 0.49513695
000010 fa f6 b8 3d 9a 0b 82 3f 12 0f 02 40 81 62 aa bf
       0.09031482 1.015979 2.0321698 -1.3311311
000020 bf 43 6b be cb 36 0d bf e6 14 a0 3e b4 c3 1d 3f
       -0.22975062 -0.5516173 0.31265944 0.61626744
000030 4e 34 2e 3e 9b eb 36 3f 58 00 f1 3d 4c a2 06 bf
       0.1701214 0.71453255 0.11767644 -0.52591395
000040 72 0b bb bf 83 85 9a bf 64 92 48 3e 28 68 92 bf
       -1.4612868 -1.2071995 0.19587094 -1.1438036
000050 ab d5 ca bf 77 0d 15 3f 24 24 8e 3f 9c 2f de 3e
       -1.5846456 0.5822367 1.1104779 0.43395698
000060 d3 a5 33 3e 78 6b 14 3f 63 72 8a bd 05 b9 cd 3d
       0.17543726 0.57976484 -0.06760099 0.10045055
000070 f7 0d a5 bf a2 be 69 be af 3a 44 be f2 01 97 bf
       -1.2894887 -0.22826627 -0.19163011 -1.1797469
000080 c0 e5 9e be fa b7 67 bf 13 77 68 3f 79 c8 5a be
       -0.3103466 -0.905151 0.9080669 -0.21365537
000090 c1 76 95 3f 57 34 0a be a4 ea 0d bf bf 71 05 c0
       1.1676866 -0.13496529 -0.5543616 -2.0850675
0000a0 be a2 c7 bd 12 b5 bd bf cd 56 c3 3e 60 ce f1 3f
       -0.097478375 -1.4820883 0.3815216 1.8891106
0000b0 de f6 ed 3e ec 1f 1e 3f 8b 97 80 3e 18 01 ca 3f
       0.46477407 0.6176746 0.25115618 1.5781584
0000c0 5a ad ae 3f 32 45 7d 3f 90 07 db be 87 50 91 be
       1.3646653 0.9893371 -0.42779207 -0.2838175
0000d0 e1 86 a6 bf 6f 5b 5d bf 65 64 59 3f 64 6b d4 bf
       -1.3009912 -0.8646764 0.84918815 -1.6595273
0000e0 88 a4 bb 3c f9 3c 6d 3f 7e bf 40 3e 7f 3d 96 bf
       0.022905603 0.9267116 0.18823048 -1.1737517
0000f0 33 67 24 3f e3 76 7f bf c1 00 ae 3f d7 95 2c bf
       0.6421997 -0.9979078 1.359398 -0.6741614
000100 05 5d 3a 3d 63 82 c2 3f 5f 02 08 c0 ae 83 b8 be
       0.045498867 1.5196041 -2.1251447 -0.36037964
000110 06 45 ea be 85 1a a5 bd 50 a1 8e 3f 04 b6 58 be
       -0.45755786 -0.08061699 1.1142979 -0.21163183
000120 24 67 c6 be 49 e6 f1 3d 59 8a 95 bf 2c 2a 58 bf
       -0.38750565 0.118115015 -1.1682845 -0.8443935
000130 fb 54 b3 bf a8 2f 90 3f 4f d9 8a 3e 1f 15 d3 bf
       -1.4010309 1.1264544 0.27118918 -1.6490821
000140 fa 24 9c 3f ca af bb bd f3 e2 bd 3f fa 33 8f be
       1.2198784 -0.091643885 1.4834884 -0.27969342
000150 58 2a 81 bc 00 00 ec 3f 7e bd 30 bf 25 eb 29 3e
       -0.015767261 1.84375 -0.6903914 0.16593607
000160 4f 82 1e 40 10 a4 5c 3f 31 a8 19 bf bb b5 5d 3f
       2.4767034 0.8618784 -0.60022265 0.86605424
000170 7c 66 bc bf d7 24 92 be b7 00 40 bf b9 06 d1 3f
       -1.4718776 -0.28543732 -0.7500109 1.6330177
000180 25 e8 07 c0 85 a2 0d c0 20 e1 d5 bf 60 e1 a9 bf
       -2.123544 -2.2130444 -1.6709328 -1.3271904
000190 5d 90 38 bf 99 ee 7f 3e 20 32 07 bf c6 b4 f6 bd
       -0.7209528 0.24993362 -0.5281086 -0.120461985
0001a0 d6 ca a2 bf 20 98 4c bf db c6 cf 3e b8 32 14 3f
       -1.2718151 -0.79919624 0.40581402 0.5788989
0001b0 48 31 4b bf fe 7f 85 3f 69 d3 e5 3d 23 28 ac bf
       -0.7937207 1.0429685 0.11221964 -1.3449749
0001c0 0e df 90 3f aa 8d 5d 3e 6e 30 46 be 5c 71 2f 3e
       1.1318071 0.21636072 -0.19354412 0.17133087
0001d0 52 a7 62 3f 13 f6 c6 3f 95 ac 81 3f 14 56 b6 bd
       0.8853656 1.5543846 1.0130793 -0.08903137
0001e0 57 bc 80 3f 1e 44 68 be ad 3c 50 bf 25 47 2f be
       1.0057477 -0.22682235 -0.81342584 -0.17116983
0001f0 2c f5 26 3f 3c 78 fb 3f 99 0c 3b 3f 97 4a 9b 3e
       0.6521785 1.9646068 0.730661 0.30330345
000200 b3 6d d4 3e 6d 4f 99 be 09 e5 43 3e 71 13 13 3f
       0.41489944 -0.2994341 0.19130339 0.5745154
000210 f5 17 54 bf 18 9f 95 3f 91 4f d2 be 54 47 cb be
       -0.82849056 1.1689177 -0.4107633 -0.39702857
000220 75 7a 4c bf 18 e8 5a bf 18 09 9b bf f5 87 61 bf
       -0.79874355 -0.85510397 -1.211215 -0.8809808
000230 0f 92 06 3e 04 ee c6 3c 08 79 86 3e bb a1 f0 3f
       0.13141654 0.024283417 0.26264215 1.8799356
000240 35 ff 68 bf b2 f3 b6 bf 96 b1 eb 3c a8 bb 27 be
       -0.91014415 -1.429312 0.028771203 -0.16380179
000250 6a b2 1d 3f c1 8e 1f 3f cc 55 1f be af fd 7d bf
       0.61600363 0.623272 -0.15560073 -0.99215215
000260 53 ae 10 bf 89 bc b9 bd c1 ed bc be 5d 6b 09 bf
       -0.56516 -0.09069163 -0.36900142 -0.5367945
000270 51 21 db 3e d6 c2 8d 3e 1b 58 19 3f d9 fc 4f 3f
       0.42798856 0.2768771 0.59900063 0.8124519
000280 3a e5 f3 bf b4 b7 2c bf 8e e9 34 be 15 6a 38 3f
       -1.9054329 -0.6746781 -0.17667219 0.7203687
000290 fb 7b 83 bf 3b b1 29 bf 6f d9 92 be 60 1b ed 3f
       -1.0272211 -0.6628606 -0.28681514 1.8523979
0002a0 42 51 c3 3f 34 4a fd 3e ff cc 22 bf dc e2 44 3e
       1.5259173 0.49470675 -0.6359405 0.19227165
0002b0 c4 39 07 c0 93 6d 8a 3f 3f cb e6 bf 6a 4e 79 bf
       -2.1129007 1.0814689 -1.8030776 -0.97385275
0002c0 2f fb f2 3e 44 2d d4 be 8a c0 e8 be 44 d5 15 bf
       0.47457263 -0.41440785 -0.45459396 -0.5852854
0002d0 3a cf 7b 3f 34 78 85 3f ab fe 0e 40 14 fc be 3f
       0.9836308 1.0427308 2.2342937 1.4920678
0002e0 44 af 90 3f 70 63 e5 3f 33 80 9a 3e fb 87 e4 bf
       1.1303487 1.7920971 0.30175933 -1.7853998
0002f0 16 31 4f bd e6 62 16 be 98 73 2b 3f 71 0e 3a 3f
       -0.05058392 -0.14686164 0.6697326 0.72678286
000300 e9 36 48 3e 1f 83 1b bf 05 a7 a2 bf 71 01 fb 3e
       0.19552197 -0.6074695 -1.270722 0.49024537
000310 79 bb 75 bf 59 24 20 3f 81 36 01 3f f7 aa 02 3f
       -0.95989186 0.6255546 0.5047379 0.5104212
000320 19 c2 6b bf a6 4a 7a bd c6 c5 ae 3e c4 ee ea 3e
       -0.92093045 -0.061106347 0.34135264 0.4588529
000330 68 e6 af 3f 7c 8e 90 be 0a 91 66 3f e5 06 c9 3e
       1.374219 -0.28233707 0.9006506 0.39263073
000340 f1 94 ac 3f 27 07 79 bf 44 f0 af bf 3f ee a0 3f
       1.3482953 -0.9727654 -1.3745198 1.2572707
000350 63 51 9c be 5a 83 9f be cf bc 8d be c7 5d 8e 3f
       -0.30530843 -0.311549 -0.27683112 1.1122369
000360 33 a1 cc be b1 02 80 be 12 c7 b9 be 78 3c 00 3f
       -0.39966735 -0.25002053 -0.3628469 0.5009227
000370 6f 03 0c 3f f5 ee d7 3f 3a c9 94 3e 65 e3 13 3f
       0.5469274 1.6869799 0.29059774 0.5776885
000380 62 f5 45 3f 53 c6 d2 bd 01 18 30 3f 3f ce cd 3f
       0.7732755 -0.102917336 0.6878663 1.6078566
000390 aa 9b 0a bf 67 86 81 3f 01 ab 73 3f 41 6f 42 40
       -0.54143775 1.0119141 0.95182806 3.0380404
0003a0 02 66 a7 3c 69 c3 45 c0 1b 1c 2e 3f 1a 16 2a bd
       0.020434383 -3.090052 0.68011636 -0.041524984
0003b0 0f 3d 07 bf c1 f9 ac be 39 35 ac bf 94 84 fc be
       -0.52827543 -0.33784297 -1.3453742 -0.493199
0003c0 9b b3 08 bf 95 52 e9 3e 60 ea bd 3e da 24 7a be
       -0.53399056 0.45570818 0.37092876 -0.2442812
0003d0 e1 c7 40 be 2e 73 f9 be 7a 52 58 c0 4a 65 ca bf
       -0.18826248 -0.48720688 -3.380034 -1.5812161
0003e0 f2 1d 1f be 01 59 36 bf c6 9f ff 3f 67 20 89 be
       -0.15538767 -0.7122956 1.9970634 -0.26782534
0003f0 22 02 e1 3e ea 32 bf bf aa 00 de 3e e1 c8 80 3e
       0.4394694 -1.4937413 0.43359882 0.25153258

pos_encoder.pe f4 [1000, 1, 8]
000000 00 00 00 00 00 00 80 3f 00 00 00 00 00 00 80 3f
       0.0 1.0 0.0 1.0
000010 00 00 00 00 00 00 80 3f 00 00 00 00 00 00 80 3f
       0.0 1.0 0.0 1.0
000020 a4 6a 57 3f 41 51 0a 3f 76 75 cc 3d 98 b8 7e 3f
       0.84147096 0.54030234 0.099833414 0.9950042
000030 57 d6 23 3c b9 fc 7f 3f 6d 12 83 3a f8 ff 7f 3f
       0.009999833 0.99995 0.0009999998 0.9999995
000040 b7 c7 68 3f 33 11 d5 be f8 6f 4b 3e a5 e5 7a 3f
       0.9092974 -0.41614684 0.19866931 0.9800666
000050 3e d4 a3 3c e5 f2 7f 3f 68 12 03 3b df ff 7f 3f
       0.019998666 0.9998 0.0019999985 0.99999803
000060 c3 81 10 3e 26 70 7d bf 6c 4e 97 3e ef 90 74 3f
       0.14112 -0.9899925 0.2955202 0.9553365
000070 1f b9 f5 3c 83 e2 7f 3f 92 9b 44 3b b5 ff 7f 3f
       0.0299955 0.99955004 0.0029999954 0.9999955
000080 cf bd 41 bf 30 55 27 bf d7 61 c7 3e a7 ca 6b 3f
       -0.7568025 -0.6536436 0.38941833 0.921061
000090 db cb 23 3d 94 cb 7f 3f 57 12 83 3b 7a ff 7f 3f
       0.039989334 0.9992001 0.003999989 0.999992
0000a0 10 7c 75 bf 2c 3c 91 3e 43 77 f5 3e 40 a9 60 3f
       -0.9589243 0.2836622 0.47942552 0.87758255
0000b0 f4 b6 4c 3d 19 ae 7f 3f dd d6 a3 3b 2e ff 7f 3f
       0.049979165 0.99875027 0.004999979 0.9999875
0000c0 8c 0f 8f be b8 cd 75 3f 68 8c 10 3f 32 49 53 3f
       -0.2794155 0.96017027 0.5646424 0.8253356
0000d0 d1 9c 75 3d 12 8a 7f 3f 58 9b c4 3b d2 fe 7f 3f
       0.059964005 0.99820054 0.0059999637 0.999982
0000e0 46 30 28 3f bd ff 40 3f 72 eb 24 3f b3 cc 43 3f
       0.6569866 0.75390226 0.6442176 0.7648422
0000f0 32 3e 8f 3d 81 5f 7f 3f c5 5f e5 3b 65 fe 7f 3f
       0.06994285 0.997551 0.006999942 0.9999755
000100 95 46 7d 3f f6 fd 14 be a5 a4 37 3f 5f 5b 32 3f
       0.98935825 -0.14550003 0.717356 0.6967067
000110 50 aa a3 3d 65 2e 7f 3f 12 12 03 3c e7 fd 7f 3f
       0.07991469 0.9968017 0.007999914 0.999968
000120 32 01 d3 3e d5 3f 69 bf 1c 88 48 3f d5 21 1f 3f
       0.4121185 -0.91113025 0.78332686 0.62161
000130 3e 12 b8 3d c2 f6 7e 3f 3a 74 13 3c 59 fd 7f 3f
       0.089878544 0.9959527 0.008999879 0.9999595
000140 f8 44 0b bf 64 cd 56 bf a4 6a 57 3f 41 51 0a 3f
       -0.5440211 -0.8390715 0.84147096 0.54030234
000150 76 75 cc 3d 98 b8 7e 3f 57 d6 23 3c b9 fc 7f 3f
       0.099833414 0.9950042 0.009999833 0.99995
000160 5c ff 7f bf 72 05 91 3b 2a 26 64 3f c3 3d e8 3e
       -0.9999902 0.004425698 0.89120734 0.4535962
000170 72 d3 e0 3d e8 73 7e 3f 69 38 34 3c 09 fc 7f 3f
       0.1097783 0.9939561 0.010999777 0.9999395
000180 d8 5c 09 bf d0 06 58 3f 1d 9a 6e 3f f7 86 b9 3e
       -0.53657293 0.84385395 0.9320391 0.36235783
000190 ac 2b f5 3d b5 28 7e 3f 70 9a 44 3c 48 fb 7f 3f
       0.119712204 0.99280864 0.011999711 0.999928
0001a0 22 20 d7 3e 6f 4e 68 3f c0 ab 76 3f 9d f5 88 3e
       0.42016703 0.9074468 0.9635582 0.26749888
0001b0 d0 be 04 3e 00 d7 7d 3f 6a fc 54 3c 76 fa 7f 3f
       0.12963414 0.9915619 0.012999633 0.9999155
0001c0 72 98 7d 3f d7 04 0c 3e 6f 46 7c 3f e7 0b 2e 3e
       0.9906074 0.13673721 0.98544973 0.16996728
0001d0 64 e4 0e 3e cc 7e 7d 3f 55 5e 65 3c 94 f9 7f 3f
       0.13954312 0.990216 0.013999541 0.999902
0001e0 44 79 26 3f e8 7a 42 bf d5 5b 7f 3f ba de 90 3d
       0.65028787 -0.7596879 0.997495 0.07073732
0001f0 4f 06 19 3e 1a 20 7d 3f 32 c0 75 3c a1 f8 7f 3f
       0.14943813 0.9887711 0.014999436 0.9998875
000200 10 68 93 be 2c 29 75 bf 0e e4 7f 3f a3 33 ef bc
       -0.2879033 -0.9576595 0.9995736 -0.029199427
000210 50 24 23 3e ed ba 7c 3f 00 11 83 3c 9d f7 7f 3f
       0.15931821 0.98722726 0.015999317 0.999872
000220 25 1e 76 bf 36 e2 8c be bf dd 7d 3f cb ef 03 be
       -0.96139747 -0.27516335 0.9916648 -0.12884443
000230 23 3e 2d 3e 49 4f 7c 3f dd 41 8b 3c 88 f6 7f 3f
       0.16918235 0.9855848 0.01699918 0.9998555
000240 b3 40 40 bf 84 0a 29 3f 14 4e 79 3f a7 a7 68 be
       -0.75098723 0.6603167 0.9738476 -0.22720204
000250 87 53 37 3e 2e dd 7b 3f b2 72 93 3c 62 f5 7f 3f
       0.17902957 0.9838437 0.017999027 0.999838
000260 69 79 19 3e bf 1b 7d 3f ba 40 72 3f 31 86 a5 be
       0.1498772 0.9887046 0.94630015 -0.32328942
000270 3a 64 41 3e a1 64 7b 3f 7d a3 9b 3c 2c f4 7f 3f
       0.1888589 0.9820042 0.018998856 0.9998195
000280 c8 b6 69 3f 22 f0 d0 3e b8 c7 68 3f 2f 11 d5 be
       0.9129453 0.40808207 0.90929747 -0.41614673
000290 f8 6f 4b 3e a5 e5 7a 3f 3e d4 a3 3c e5 f2 7f 3f
       0.19866931 0.9800666 0.019998666 0.9998
0002a0 10 2f 56 3f fc 37 0c bf 4b fb 5c 3f 97 3d 01 bf
       0.8366556 -0.54772925 0.8632094 -0.50484604
0002b0 83 76 55 3e 3c 60 7a 3f f3 04 ac 3c 8d f1 7f 3f
       0.2084599 0.9780309 0.020998454 0.9997795
0002c0 15 05 11 bc 6f fd 7f bf a1 f9 4e 3f 00 a8 16 bf
       -0.008851309 -0.99996084 0.80849653 -0.588501
0002d0 96 77 5f 3e 6a d4 79 3f 9e 35 b4 3c 24 f0 7f 3f
       0.21822962 0.97589743 0.021998223 0.999758
0002e0 e6 a1 58 bf bf 67 08 bf 8a e6 3e 3f 10 91 2a bf
       -0.8462204 -0.53283304 0.74570525 -0.666276
0002f0 f0 72 69 3e 34 42 79 3f 3d 66 bc 3c ab ee 7f 3f
       0.22797751 0.9736664 0.02299797 0.99973553
000300 fc d3 67 bf fe 2d d9 3e 29 eb 2c 3f d4 c5 3c bf
       -0.9055784 0.42417902 0.67546326 -0.7373936
000310 51 68 73 3e 9b a9 78 3f d0 96 c4 3c 20 ed 7f 3f
       0.23770262 0.971338 0.023997694 0.999712
000320 38 87 07 be 78 bf 7d 3f 7c 35 19 3f bd 17 4d bf
       -0.13235176 0.99120283 0.59847236 -0.80114347
000330 77 57 7d 3e a5 0a 78 3f 56 c7 cc 3c 85 eb 7f 3f
       0.24740396 0.9689124 0.024997395 0.9996875
000340 08 37 43 3f 81 9c 25 3f e7 f7 03 3f 0f 5d 5b bf
       0.76255846 0.6469193 0.51550144 -0.8568887
000350 10 a0 83 3e 56 65 77 3f ce f7 d4 3c da e9 7f 3f
       0.25708055 0.96639 0.025997069 0.99966204
000360 0e d5 74 3f 38 93 95 be 8f d1 da 3e 44 71 67 bf
       0.95637596 -0.29213881 0.42738006 -0.90407205
000370 05 91 88 3e b1 b9 76 3f 39 28 dd 3c 1d e8 7f 3f
       0.2667314 0.9637709 0.026996719 0.9996355
000380 2a b4 8a 3e 57 6d 76 bf 9a 83 ab 3e 7a 35 71 bf
       0.2709058 -0.9626059 0.33498842 -0.94222224
000390 7d 7e 8d 3e bb 07 76 3f 94 58 e5 3c 50 e6 7f 3f
       0.27635565 0.96105546 0.027996339 0.99960804
0003a0 e9 e3 29 bf b3 80 3f bf d0 fd 74 3e b6 90 78 bf
       -0.6636339 -0.74805754 0.23924947 -0.9709581
0003b0 54 68 92 3e 79 4f 75 3f e1 88 ed 3c 72 e4 7f 3f
       0.2859522 0.9582439 0.028995933 0.99957955
0003c0 a4 ef 7c bf 18 f4 1d 3e d3 81 10 3e 25 70 7d bf
       -0.9880316 0.15425146 0.14112024 -0.98999244
0003d0 6c 4e 97 3e ef 90 74 3f 1e b9 f5 3c 83 e2 7f 3f
       0.2955202 0.9553365 0.029995497 0.99955004
0003e0 06 de ce be 8e 2c 6a 3f 96 50 2a 3d 52 c7 7f bf
       -0.40403765 0.91474235 0.04158076 -0.99913514
0003f0 a5 30 9c 3e 22 cc 73 3f 4b e9 fd 3c 83 e0 7f 3f
       0.30505863 0.95233357 0.030995032 0.9995195

transformer_encoder.layers.0.self_attn.in_proj_weight f4 [24, 8]
000000 89 6c 35 be 1a 59 a0 3e 29 39 d8 3d 84 a3 b5 3e
       -0.17717184 0.3131798 0.105577774 0.35476315
000010 61 48 b8 be de 46 7d bc b4 1f 87 3e b8 b7 c5 be
       -0.3599272 -0.015458791 0.26391375 -0.3861673
000020 92 97 69 be ff fa 66 3e 2a 5e 32 bd dc 5b 1d 3d
       -0.22811726 0.22556685 -0.043546833 0.038417682
000030 3b 6e a4 be 4a 84 c1 3c 7d da 2b be c2 fa 2d ba
       -0.3211535 0.02362265 -0.16782565 -0.0006636792
000040 a2 25 36 3e fa f7 b3 3e c3 95 1e be 3e 2a 27 3d
       0.17787793 0.3515013 -0.15486817 0.04081177
000050 c0 9e 2f 3e 51 40 17 3d f2 bc 83 3e f8 d0 11 3d
       0.17150402 0.03692657 0.2573009 0.03559968
000060 07 50 12 be fd ba b6 be 8c 99 b0 3e d5 b7 95 be
       -0.1428834 -0.35689536 0.34492147 -0.29241815
000070 bd b8 84 3e 87 38 16 be f5 f4 bf be 47 8b 55 be
       0.25922194 -0.14670001 -0.37491575 -0.20853911
000080 b5 7f c1 be f3 5f 03 3e 4d 17 17 3e 60 80 d1 3d
       -0.37792745 0.1282957 0.14754982 0.10229564
000090 3a ca b5 be 3f 91 7b bd 57 b7 b6 be 5a ce a6 be
       -0.3550585 -0.061417814 -0.35686752 -0.3257931
0000a0 32 b2 9f be c2 10 87 3e e2 80 84 bd 10 53 9b 3e
       -0.3119064 0.26379973 -0.06469895 0.3033681
0000b0 46 c1 61 be 5a f5 99 be b4 7e 1e be b2 b3 37 be
       -0.22046384 -0.3007 -0.15478021 -0.17939642
0000c0 4f ff b9 3e 58 aa 99 3a d8 7f 49 3e df 11 73 3c
       0.36327597 0.001172374 0.19677675 0.014835804
0000d0 c4 12 81 3e a2 c1 4a 3e f6 72 5b 3e 9b 1a 41 3e
       0.2520963 0.19800428 0.21430573 0.18857805
0000e0 cc bd 6e be 88 b0 e3 bd 5d d2 38 be 34 27 87 3e
       -0.2331459 -0.11117655 -0.18048997 0.26397097
0000f0 15 89 11 bd 9b df 27 be 8c bf b9 3d 09 0c c2 bd
       -0.035531122 -0.16393892 0.09069738 -0.09474952
000100 51 82 47 be dd 33 92 3d 40 02 a1 bd 66 8c 1a 3e
       -0.19483306 0.071387984 -0.07861757 0.1509262
000110 3d 7d 7e bd f6 bd cc 3e 10 9c c7 3e 20 6d 81 be
       -0.062131155 0.3998868 0.38986254 -0.25278568
000120 07 3d 27 be cd 37 aa be bb ea ce be 02 c9 8a 3d
       -0.16331874 -0.33245698 -0.4041346 0.067766204
000130 c0 14 ce 3e c6 17 a7 bd 8e f0 8c be 69 67 64 be
       0.40250206 -0.08158831 -0.2752728 -0.22305073
000140 d2 16 bb be aa 1b 66 be 7d e4 1b be b5 e1 84 3e
       -0.36540848 -0.2247149 -0.1522388 0.2595345
000150 26 48 f9 3d 7d eb af bd 5d 72 92 3e d6 79 62 be
       0.12171964 -0.08589838 0.28602877 -0.22116789
000160 a5 39 26 be 49 f5 4a be 4e 9b 8c 3e 0b 85 93 be
       -0.16232927 -0.19820131 0.27462238 -0.2881244
000170 9f d7 fe 3d 6c f9 b9 3e c7 d9 8d 3c e0 0f b1 3e
       0.1244347 0.36323106 0.017315758 0.34582424
000180 46 de 13 be 42 97 b6 be 1a e9 c3 3e 1d 11 89 3e
       -0.1444026 -0.35662276 0.3826378 0.2677087
000190 37 26 65 be eb 2d c5 bc a8 c2 9a be 46 b9 9a 3e
       -0.22377859 -0.024069747 -0.30226636 0.30219477
0001a0 47 6f 0a be 7d 3b 5c be 0d dc 73 3e 93 43 82 3d
       -0.13519011 -0.21507068 0.23814411 0.06360545
0001b0 8b 0f d7 be e9 81 38 3e 8f 76 a2 3e 6e 47 bf be
       -0.42004046 0.18018307 0.31731078 -0.37359184
0001c0 d9 68 e3 bc 85 58 95 3e 4b c8 84 be 7d bb 23 3e
       -0.027759956 0.29169098 -0.2593406 0.1598949
0001d0 1f fa 2f be 89 f1 e6 3d 46 29 8e 3e a4 67 ca 3e
       -0.17185257 0.11276538 0.27765864 0.39532197
0001e0 6e 2f ab 3e fd 9d b6 be 92 fc c2 3e 33 d4 b2 3e
       0.33434623 -0.3566741 0.3808332 0.3492752
0001f0 6b f4 c7 be f1 1a 51 3e 07 96 fe 3d 24 00 d3 bc
       -0.39053664 0.20420434 0.12430959 -0.025756903
000200 50 7d 26 be 99 5d a9 3e bc 95 97 be 41 1e 3a 3e
       -0.1625874 0.33079222 -0.29606426 0.18175603
000210 52 46 cc be ec 19 6c 3e b1 11 2a be 70 71 59 be
       -0.398974 0.23056763 -0.16608311 -0.21234679
000220 70 be b1 be 36 36 b9 be 35 8f cb bd 61 3b 5b 3d
       -0.34715605 -0.36174172 -0.09939424 0.053523425
000230 e1 79 35 bc 9a 41 ac 3d 25 51 09 3d ef 7b 8f 3e
       -0.0110764215 0.0841095 0.03352465 0.2802424
000240 b2 3f 7f be 04 1f 26 3e 94 f1 24 be 98 85 59 3e
       -0.24926642 0.16222769 -0.1610778 0.21242368
000250 d4 43 99 3e 42 1e 4e 3e 1b fb b5 be f9 9b b0 3d
       0.2993456 0.2012873 -0.3554314 0.086234994
000260 71 14 b0 bd 6c 8f c1 bc b9 95 e5 3d 9f 29 21 3c
       -0.08597649 -0.02362796 0.11210198 0.009836583
000270 4f e2 96 be 6a 11 b8 be 8e f6 73 be 97 89 d4 bd
       -0.29469535 -0.35950786 -0.23824522 -0.10377806
000280 e1 45 c0 be 11 9d 52 be 2b 0e 3f 3c 25 ca 68 3e
       -0.37553313 -0.20567729 0.011661093 0.22733362
000290 47 6a 70 bb f9 b6 12 3d a8 6a a8 bc 45 2a bd be
       -0.003668444 0.035819028 -0.02055867 -0.36946312
0002a0 44 15 11 3e b4 e5 b8 3e d4 84 04 be 33 f0 3e 3e
       0.14168268 0.3611275 -0.12941295 0.18646316
0002b0 ae f0 54 3e c7 fc 97 be 52 8c 0b 3e 2a b0 8f be
       0.20794937 -0.2968504 0.13627747 -0.2806409
0002c0 d3 04 3f 3e 15 ab 9d be c4 92 ab 3e e3 25 98 3d
       0.18654184 -0.30794588 0.3351041 0.07429101
0002d0 43 02 3b 3e 39 b9 79 3e 2a cb 8d be 31 7a 38 3e
       0.18262582 0.24387063 -0.27694064 0.18015362
0002e0 3f d4 a2 bb 06 47 9d 3e 19 94 b3 3d 67 58 0f 3e
       -0.0049691494 0.3071825 0.08768482 0.13998567
0002f0 3d 85 27 bd 87 12 27 be d4 b1 79 3e 16 bb 1b 3e
       -0.04089855 -0.16315661 0.24384242 0.15208086

transformer_encoder.layers.0.self_attn.in_proj_bias f4 [24]
000000 29 02 2d 3a cc ea 22 bc eb 34 a4 3b 05 1b 8c 3b
       0.0006599748 -0.009943675 0.005011191 0.004275682
000010 b3 75 2a 3c ec 40 08 bb 60 f5 a4 bb 64 96 c2 3b
       0.010404038 -0.002079065 -0.005034134 0.005938338
000020 ba 0e fa b9 95 64 c6 3a 48 2b 8a b9 1f a2 26 3a
       -0.00047694688 0.0015136177 -0.00026353658 0.00063565554
000030 90 51 85 39 06 9c 4e ba de a1 c9 38 4d aa 68 b9
       0.00025428506 -0.00078815257 9.614577e-05 -0.00022188686
000040 d1 94 80 bc 64 57 ba bc 76 6a 81 bc b2 21 2b bc
       -0.015695961 -0.02274675 -0.015797835 -0.010445045
000050 0f 74 93 bb a7 50 43 3c 97 fe f7 bc 3a 28 8e bb
       -0.0044999192 0.0119210845 -0.030272765 -0.0043382915

transformer_encoder.layers.0.self_attn.out_proj.weight f4 [8, 8]
000000 4b e9 25 3e 63 99 59 be 0f a8 36 3e fa c9 30 be
       0.16202275 -0.21249919 0.17837547 -0.17264548
000010 88 86 22 3e 9e b7 88 3b 73 31 85 3e f9 af 31 bd
       0.15871632 0.0041722795 0.2601429 -0.04338071
000020 c4 8c 3c 3e e6 1f 3a be dd c8 7a be e9 9b 4e 3e
       0.18413073 -0.18176231 -0.24490686 0.20176663
000030 20 f7 92 be fc 68 fe 3c 79 62 03 3e 05 31 8b be
       -0.28704166 0.03105592 0.12830533 -0.27185836
000040 9f a7 2b be ef 51 13 be 8f 3f d8 bd a9 a2 89 be
       -0.16763161 -0.14386724 -0.10558998 -0.26881912
000050 39 8b 32 be 23 1d 19 bc c9 6d 9a be d5 1c 43 bb
       -0.17435922 -0.009345326 -0.30161884 -0.0029771824
000060 4a 6f e1 bd b4 1d 47 3e ee 99 11 be d4 83 81 be
       -0.11007555 0.19444925 -0.14218876 -0.2529589
000070 b4 60 47 3d dc 2e 24 3c 69 3b 85 be ef b6 0a bd
       0.048676208 0.010020938 -0.2602189 -0.033865865
000080 e8 ac c7 3d 74 1d 87 3e 8c 97 b1 bd 87 80 26 3d
       0.09749776 0.26389658 -0.086714834 0.040649917
000090 45 6b 95 3d f1 da eb bd ad c0 bc bd 6e ff 21 3e
       0.07295851 -0.11516369 -0.092164375 0.15820095
0000a0 b0 74 71 be cc a3 69 be 8d b0 9d 3d fc f2 8a be
       -0.23579669 -0.2281639 0.0769969 -0.27138507
0000b0 7b 1f 3d be 97 4d b8 3d 16 4e 8d be 0f 32 39 3d
       -0.1846904 0.08999174 -0.27598637 0.045213755
0000c0 c6 0d 02 be d3 7c 95 be d1 25 2f 3d d0 10 4b 3e
       -0.12700567 -0.29196796 0.042760674 0.19830632
0000d0 f9 9c 6b be 2a 1d 08 3c 36 fa 8b be 3f 34 ad 3e
       -0.23009099 0.0083077345 -0.27339333 0.33828923
0000e0 6a 9d 8b 3e b8 78 f9 bd 69 72 a2 be 5c 7f 38 3e
       0.27268535 -0.121812284 -0.31727913 0.18017334
0000f0 3a 74 8f bc 32 08 31 be a7 56 d6 bc 61 22 90 be
       -0.017511476 -0.17288283 -0.026164366 -0.2815123

transformer_encoder.layers.0.self_attn.out_proj.bias f4 [8]
000000 af e2 90 bb 1b 60 a2 bb bf f6 a9 3a 5c 09 9b 3c
       -0.004421554 -0.0049553043 0.0012967213 0.018925361
000010 09 06 d9 ba e8 f2 93 3c 2e c9 ff 3b ab 99 71 3c
       -0.0016557585 0.018060163 0.007805965 0.01474611

transformer_encoder.layers.0.linear1.weight f4 [128, 8]
000000 1e 37 db 3d 45 01 46 be 53 71 a3 3e be fd 82 bd
       0.10703872 -0.19336422 0.31922397 -0.06396054
000010 c8 0e b1 bd 77 31 ab 3e 37 01 98 3e d0 d9 1f 3d
       -0.086453974 0.33436176 0.29688427 0.03902608
000020 d4 80 5a 3e ab b3 0c 3b 84 9d cf bc 83 6a 65 be
       0.21338207 0.0021469395 -0.025343664 -0.22403912
000030 fe cd b5 3e 84 92 b6 3d 64 51 ae be 4a 7e 28 3d
       0.35508722 0.089146644 -0.3404647 0.041136064
000040 bd 4c 48 3e 49 b5 96 be 8a 82 66 3d 24 09 4e 3e
       0.19560523 -0.29435185 0.056276836 0.20120674
000050 0c 74 97 be b5 99 2b bd 2a 87 9d be 2c 95 8c be
       -0.29580724 -0.041894633 -0.30767184 -0.2745756
000060 ad 82 a9 be 06 38 f2 3d 15 0e 6a 3d b4 69 54 3d
       -0.3310751 0.11827092 0.057142336 0.05185862
000070 ff 15 68 3e 5c f3 a8 3e a4 78 6b be 7f 52 8e 3e
       0.22664641 0.32998168 -0.2299524 0.27797315
000080 db db 8e be cb d7 ac be 82 5a 96 3e 75 56 6a be
       -0.2790211 -0.33758387 0.29365927 -0.22884543
000090 47 66 83 be 9f a1 86 3e 60 57 8f be c9 23 79 be
       -0.2566397 0.26295182 -0.2799635 -0.24330057
0000a0 e2 d7 92 3e 2e b5 44 be a7 9a 00 be e6 34 ab 3e
       0.2868033 -0.1920974 -0.12558995 0.33438796
0000b0 30 48 44 be 16 23 1e 3e 47 bb 37 be b0 bf 2b 3d
       -0.19168162 0.15443072 -0.17942534 0.041930854
0000c0 f6 26 98 be 48 ca d5 3d d6 14 26 3d ce 88 46 be
       -0.29717225 0.10438973 0.040547214 -0.19388124
0000d0 08 f7 c2 bd e8 62 48 3d b2 eb b4 be 06 53 a1 3e
       -0.09519774 0.04892245 -0.3533607 0.31508654
0000e0 14 29 a2 3d 66 08 50 be 40 00 45 bd 0d 66 40 be
       0.07917991 -0.20315704 -0.04809594 -0.1878893
0000f0 b9 3f 71 be 91 f2 3d 3d a0 a4 95 be 5f f3 0c 3e
       -0.23559465 0.046373907 -0.2922716 0.13764714
000100 b8 99 3e 3d 23 d5 81 be 80 a8 52 be fd 36 9a be
       0.046533316 -0.25357923 -0.2057209 -0.30120078
000110 ff 7e a0 bd a4 31 9a 3d d0 ee 53 be aa 6f 96 be
       -0.078367226 0.075289994 -0.20696568 -0.29382068
000120 b2 5e c6 bc 3b 4f 63 3e 2d 15 a3 be 84 fc 63 be
       -0.024215076 0.22198193 -0.31852093 -0.22264296
000130 ff 65 5b be 36 c2 65 3c 9e 9a 9b 3e 60 84 ac bd
       -0.21425627 0.014023354 0.303914 -0.08423686
000140 5a 8a 2d 3e c5 9c 92 3c a0 63 99 be 94 4a 28 be
       0.16947308 0.01789702 -0.2995882 -0.164347
000150 60 70 b0 3e b6 c3 34 be 45 e7 b4 3e 87 f1 1b be
       0.34460735 -0.17652783 0.35332695 -0.15228854
000160 b3 81 00 3d dd 7e a5 3b e5 c8 06 be 0e dd 08 be
       0.03137369 0.0050505237 -0.13162573 -0.13365576
000170 48 40 85 3e 53 a1 34 3e 3a 16 58 3d 98 d5 9b be
       0.26025605 0.17639665 0.052755572 -0.30436397
000180 98 24 30 be 16 c0 ea bd d6 f4 bb 3c bb 87 ae 3e
       -0.1720146 -0.11462419 0.022943895 0.3408793
000190 e1 c0 a7 3e e8 45 8d 3d 88 67 09 be d8 0c a6 3e
       0.32764342 0.06898099 -0.134184 0.32431674
0001a0 ff d8 e1 3d 47 8e ad 3e f6 21 49 3d 94 0a bb bd
       0.11027717 0.33897611 0.049104653 -0.09132877
0001b0 0b 27 aa 3d 03 d3 67 be 6c 1c 9c bd 00 93 00 bc
       0.08308228 -0.22639088 -0.076226085 -0.0078475475
0001c0 cb 9f 49 bd 40 2b 86 3e 35 33 8e be 6b 46 93 be
       -0.049224656 0.26204872 -0.27773443 -0.28764662
0001d0 f6 44 b2 3c 3e 19 59 be 5b 8c 9e be 1f a3 35 bd
       0.021761399 -0.21201035 -0.30966458 -0.044345018
0001e0 f5 29 5f 3e f9 ec 84 bd 15 d1 d0 bd a7 ed 8f bc
       0.21793349 -0.064905114 -0.10196129 -0.017569376
0001f0 a9 af 9c be 28 4a 1a be 4e 7f 6d 3e 29 f1 69 3d
       -0.30602768 -0.15067351 0.23193094 0.057114754
000200 65 24 8a be 2c 91 29 be 6c ac 8c 3e 6d 64 1a 3e
       -0.26980892 -0.16559285 0.27475297 0.15077372
000210 13 4d 8f 3e df 12 9b 3d cd c4 85 be f1 2a 34 3e
       0.2798849 0.07571959 -0.2612671 0.17594506
000220 da b3 0b be d8 b9 56 be 6c 56 ba bd c5 2a ae 3d
       -0.13642827 -0.20969331 -0.09098515 0.085042514
000230 d7 e8 0c 3e 2a ea 94 be 90 02 6e bd d3 cf 90 3e
       0.13760696 -0.29084903 -0.058107913 0.28283557
000240 15 6e a9 be 73 0c 5f be 84 0b 90 be 94 c8 23 be
       -0.33091798 -0.21782093 -0.28133786 -0.15994483
000250 9c ed ab bc 9d 86 98 3e 8e c0 f5 bd 35 7b 25 3e
       -0.020987324 0.29790202 -0.119996175 0.16160281
000260 76 86 02 be c3 f4 44 bb 9b 07 7d be f6 ed 09 3e
       -0.12746605 -0.0030053116 -0.24709933 0.13469681
000270 0d 31 06 be 9b af 67 3d ad e5 fa bd 8d 6b 27 3d
       -0.13104649 0.056563955 -0.122508384 0.040874053
000280 1c 93 49 3e 9c b5 6c be 2d a6 39 be 07 df ae be
       0.19685024 -0.23116153 -0.18129797 -0.3415453
000290 da 12 27 3e 9b a2 96 be 3c 7e 3f be 44 2d f6 3d
       0.16315785 -0.29420933 -0.18700498 0.120203525
0002a0 0f 9a 8a 3e d7 59 a0 be 74 30 9f 3e 3d d8 20 3e
       0.27070662 -0.31318542 0.31091654 0.15707488
0002b0 62 a6 7a be 50 a4 25 3e 72 ad f7 bd 3a 62 ac bd
       -0.24477533 0.16175961 -0.12093629 -0.08417173
0002c0 78 00 6d bd 2f 3a ee bd 27 2c 4d 3e 95 53 21 be
       -0.057861775 -0.116321914 0.20036374 -0.1575454
0002d0 a3 e7 72 bd 7a 24 51 3e 23 b5 76 bb b6 fb 2a 3d
       -0.059302937 0.20424071 -0.0037644587 0.041743957
0002e0 ac b2 65 be 76 62 3b bd 4d 38 34 3e 66 be a7 be
       -0.22431439 -0.045748197 0.17599602 -0.3276245
0002f0 96 8e 04 be ac 7f 52 be 3e 4f 8b 3e d4 5c 75 be
       -0.12945017 -0.20556515 0.27208894 -0.23961192
000300 19 67 df bd 5e 38 69 3e 5d 93 10 3e 7c a5 68 3e
       -0.10908336 0.22775409 0.14118715 0.22719377
000310 ae 38 9b 3d a4 2b 8e 3e 41 94 28 3e 34 2d 18 be
       0.0757917 0.2776767 0.16462804 -0.14860994
000320 2f 44 95 be 87 d1 8c be 0e 13 73 3e 8f 6e 43 be
       -0.29153582 -0.27503607 0.23737738 -0.19085144
000330 43 52 a9 be e4 2c 1c 3e dc b4 52 3e 5e 08 a1 3e
       -0.33070573 0.152515 0.20576805 0.31451696
000340 0b 1b 68 be 45 7a 95 3e e3 4a 86 be 6d bd 51 bd
       -0.22666566 0.29194847 -0.2622901 -0.05120604
000350 b4 ea db 3c 99 47 a5 be 10 cc 22 3d 11 b6 9d 3e
       0.026845314 -0.32281187 0.03974539 0.30802968
000360 0c c2 e9 bd 57 00 e1 bd 19 e7 3e be 11 90 a8 3e
       -0.11413965 -0.10986393 -0.18642844 0.32922414
000370 02 9c 66 be 3e fc 52 be 52 15 c7 bd d7 e7 4d be
       -0.2252045 -0.20604035 -0.097208634 -0.20107971
000380 2c ef 33 be bc 98 88 3e 68 c4 ff bd 1a af 40 3e
       -0.17571706 0.26679027 -0.124886334 0.18816796
000390 84 91 17 3e e4 94 1c 3e 45 5c 93 be 1c 97 82 3e
       0.14801604 0.15291172 -0.28781334 0.25505912
0003a0 5e eb 72 3e 17 4b 08 3e 33 35 6e be 9d 14 68 3e
       0.23722598 0.13309895 -0.23262481 0.22664113
0003b0 51 bf 98 3e 3c de d5 3d 8b dc 9a be 07 76 0d be
       0.29833463 0.104427785 -0.30246386 -0.13814555
0003c0 a1 98 4d bd 62 91 99 3e f1 d6 a1 3d f2 20 92 be
       -0.050194386 0.2999373 0.07902325 -0.2854076
0003d0 d9 84 2b bd 51 91 aa 3d a6 21 60 be 5c 05 76 3e
       -0.04187474 0.08328498 -0.21887836 0.24025482
0003e0 53 8a 83 be bd 53 36 be cc 71 90 3e 3b 2a 81 be
       -0.2569147 -0.17805381 0.2821182 -0.25227532
0003f0 7a e4 90 be 67 d7 0f 3e 99 ff 86 3e 41 73 83 be
       -0.28299314 0.14047013 0.2636688 -0.2567387

transformer_encoder.layers.0.linear1.bias f4 [128]
000000 f4 ed 8b be 17 27 4e 3e c5 57 7d be db 19 c0 3d
       -0.2732998 0.20132099 -0.24740513 0.093799315
000010 8b 03 9b 3e 4d 02 0e be 01 e0 62 bd 5a 13 06 3e
       0.3027614 -0.13868065 -0.055389408 0.1309332
000020 f4 f8 ec 3d 7f ad 70 bd 1b 87 8c bd 65 2e b7 3d
       0.115709215 -0.05875921 -0.06861707 0.08944396
000030 6b 81 66 3d ac 39 9f 3d 27 20 75 3e 20 c1 ae be
       0.056275766 0.07774672 0.23938046 -0.34131718
000040 af bd 95 3b 09 87 9b bd 07 46 ac 3d 8e 9d 3a 3d
       0.004569731 -0.07594115 0.08411794 0.045560412
000050 fc 8e a0 be 96 d3 84 bd a0 4b a3 3e 7d a2 29 3e
       -0.31359088 -0.06485669 0.31893635 0.1656589
000060 10 56 78 bd 70 4e 08 be 2b b4 b8 bd 88 8a f0 bd
       -0.06062895 -0.13311172 -0.09018739 -0.11745173
000070 c6 96 85 be b8 a5 77 be 8b ec 7b 3e d4 28 26 3e
       -0.26091594 -0.2418431 0.24601953 0.16226512
000080 d8 2b 90 be 27 be f8 3d f8 9e dd bd 9f 8d 8d be
       -0.2815845 0.12145644 -0.108213365 -0.2764711
000090 5b 0f 92 bd 9d fb b3 3c 1c a3 8b be 3d 5b 88 3e
       -0.07131835 0.021970564 -0.2727288 0.2663211
0000a0 c9 d2 b2 be d4 2e 8a 3e 5e 0c 6c bd e5 ae f8 3d
       -0.3492644 0.26988852 -0.05762898 0.121427335
0000b0 eb d0 4b 3c 81 07 ab 3d 65 a5 9e be a5 7a 53 3e
       0.012439947 0.08351041 -0.3098556 0.20652254
0000c0 48 ef 91 be 64 43 96 bc 73 d6 45 be 33 5e 5c 3e
       -0.2850287 -0.018342681 -0.19320087 0.21520309
0000d0 6a dd 61 3d 2f 03 ad bd b3 d2 21 3c f3 c6 01 3e
       0.055142798 -0.08447873 0.009876895 0.1267355
0000e0 9e c2 8c 3d a0 e8 f2 3d 73 d4 9d bd 59 72 51 be
       0.06873058 0.11860776 -0.07706537 -0.20453776
0000f0 9c 58 22 3d c7 d8 f6 3d ec 20 30 3e 93 d2 9c be
       0.039635286 0.12053066 0.17200059 -0.30629405
000100 d0 37 51 3e ca ab 8b 3e 76 a5 95 bd c9 93 63 be
       0.20431447 0.27279502 -0.0730695 -0.22224344
000110 5f f5 a0 be af 3c 64 3e 75 c3 c5 bd 3a ff 18 3e
       -0.31437203 0.22288774 -0.09656421 0.14941111
000120 c1 13 47 3e d4 4c a2 be f6 cb 25 3e 2e 12 f0 3d
       0.1944113 -0.3169924 0.16191086 0.117222175
000130 0c 3e a8 bd a5 03 e4 3d 26 89 b0 be 8b 7b 69 3e
       -0.082149595 0.11133508 -0.34479636 0.22801034
000140 dc 95 3e bd 91 a2 71 3e 03 ce 21 be cf 37 81 bd
       -0.046529636 0.2359717 -0.15801243 -0.06309473
000150 78 b3 8a 3e 45 8a 38 3e bd 99 98 bd 70 fd eb bd
       0.2709005 0.18021496 -0.07451198 -0.11522949
000160 6c a6 a7 3e 2d 39 76 bd 5d 3c 04 3d 90 16 8a be
       0.32744157 -0.06011312 0.03228413 -0.2697034
000170 36 b2 b3 be ba 12 80 be 26 7a 85 be 0d f5 57 bd
       -0.35096902 -0.25014287 -0.26069754 -0.052723933
000180 08 0c 63 3e 6a 20 97 3e b6 9a eb bd 1b 65 90 bd
       0.22172558 0.29516917 -0.11504118 -0.07050534
000190 20 c2 49 be 0c 91 86 3e 83 8a d5 bd d0 3b 3f 3e
       -0.19702959 0.26282537 -0.1042681 0.1867516
0001a0 f7 06 d3 bc 66 9e 10 be 01 cd 47 3d d7 42 88 be
       -0.025760157 -0.14122924 0.04877949 -0.26613495
0001b0 64 de c5 3d ec 9f 51 be 39 de 70 3e c1 87 cc 3c
       0.09661558 -0.20471162 0.23522271 0.024967076
0001c0 76 bc 8c bb 0a 77 09 be 8d 5a 31 3e a0 aa af b9
       -0.004294927 -0.13424316 0.17319699 -0.00033505727
0001d0 bd 89 6e bd 9d ae 57 3d 08 fc 99 3e af 34 6e be
       -0.058236826 0.05265676 0.30075097 -0.23262285
0001e0 48 88 0e 3e 87 84 6f 3e 43 60 b5 3d 31 5e 66 be
       0.13919175 0.23390399 0.08856251 -0.22496869
0001f0 fc 15 95 be 18 8c 98 3e 9c 9f e5 3d 92 65 23 be
       -0.29118335 0.29794383 0.11212084 -0.15956715

transformer_encoder.layers.0.linear2.weight f4 [8, 128]
000000 7c 70 92 3d fa 2d 72 3c f1 7a 80 bd ac 1d 9c 3c
       0.07150361 0.0147814695 -0.06273449 0.019057117
000010 49 2e 33 3d b6 1e 87 bd e7 00 d1 3c cb 74 8a bd
       0.043745313 -0.065976545 0.025513126 -0.06760558
000020 2f f0 23 bc c1 51 54 3d ea fd 1b 3d 4c 33 45 bd
       -0.010005995 0.05183578 0.03808395 -0.048144624
000030 88 86 01 bd df d8 23 3d e1 a9 23 3c f7 97 64 bd
       -0.03162244 0.040001746 0.009989233 -0.055808987
000040 80 46 7e 3b 25 cb 98 3d b6 3d 8b 3d 71 05 76 bd
       0.0038799345 0.07460622 0.0679888 -0.060063783
000050 35 e2 1e 3d 0c e4 0f 3d da b2 a0 3d 87 aa d0 3d
       0.038789947 0.03512959 0.07846613 0.101887755
000060 76 fe a8 3d 36 d4 80 bd 69 4f 5f 3d d3 54 1a 3b
       0.082516596 -0.06290476 0.05451909 0.0023549094
000070 2a bc 1f bd 43 a4 06 bd 5c 04 ba 3c 97 90 2b bc
       -0.038997807 -0.032871496 0.022707157 -0.010471485
000080 10 dd dc bc fb 89 15 3d c1 eb e6 bc 8c 02 83 b9
       -0.02696088 0.03650854 -0.028188588 -0.00024988165
000090 78 6b 83 3c bd 49 8b 3d 32 0d 75 bd 27 ab 4a 3d
       0.016042456 0.06801174 -0.059827037 0.04947963
0000a0 15 06 cd bc ef 94 b1 3d f2 50 02 3d 78 28 9c 3d
       -0.025027314 0.08670985 0.031815477 0.07624906
0000b0 50 44 80 3d ce 79 b2 3d 3d 55 5d 3c f9 a0 a9 bd
       0.062630296 0.08714639 0.013509092 -0.08282656
0000c0 ed b5 41 bd a2 85 8b bd f6 43 94 bd aa 17 ec bc
       -0.04729264 -0.06812598 -0.07239525 -0.028819878
0000d0 e2 96 7e bd c8 1c c5 bc ae 9f 0a 3d 4b 6c a3 bd
       -0.06215561 -0.024061576 0.03384369 -0.079796396
0000e0 0d 1f 8d 3d cf d3 84 3d bb 9f 53 bc 62 f9 ac 3d
       0.06890688 0.06485712 -0.012916501 0.084460035
0000f0 b9 56 91 3d 1b 31 50 3d 38 3f 43 bd 63 ef e4 3d
       0.07096619 0.05082808 -0.047667712 0.11178472
000100 b9 b6 a2 bd 7b 64 82 bc af 52 87 3c d2 64 42 3d
       -0.07945008 -0.015917053 0.016518919 0.04745943
000110 22 79 68 bd e8 e0 04 3c 7e 08 b6 bd 3d 86 5e bd
       -0.056756146 0.008110262 -0.088883385 -0.05432724
000120 80 a7 7f bd 23 0f 6c bc 42 c3 7a 3d 54 e1 9d bc
       -0.0624156 -0.014407906 0.06122137 -0.019272484
000130 35 94 9c bc a0 fe ec 3b b6 44 95 bd 46 8e ed 3d
       -0.01911364 0.007232502 -0.07288496 0.11599402
000140 30 ad b0 3d 12 77 8e bd 27 95 e1 bc 6c 7e 0f 3c
       0.08626783 -0.069563046 -0.027536942 0.008758169
000150 53 86 63 bd ef 48 c0 3c 3b 5c 60 bd 36 67 ad 3d
       -0.055548023 0.023472277 -0.054775458 0.084669515
000160 ff 28 85 3d 52 a4 b0 3d 73 95 50 bd 91 4f 8a bd
       0.0650196 0.086250916 -0.050923776 -0.06753457
000170 6f eb e2 3d 1e ac 75 bd e1 b8 b7 3d 04 a6 21 bc
       0.11080062 -0.059978597 0.0897081 -0.009866241
000180 fe db b5 bb 50 12 46 bd e3 32 cc bc 2b fc 93 bd
       -0.0055499068 -0.048357308 -0.024926608 -0.072258316
000190 01 e5 8c 3c 3b be 99 3d 04 5a 9a 3d ab b2 ba 3c
       0.017199041 0.07506987 0.075367 0.022790274
0001a0 3e ed ad bd 02 93 ac 3c df a5 8d 3d 40 18 a8 bb
       -0.08492516 0.021066193 0.06916403 -0.005129844
0001b0 b2 6c 0d bd f5 e0 cb 3d 14 75 bf 3c 7c 81 33 bc
       -0.034527488 0.099550165 0.023371257 -0.010956164
0001c0 13 8e 08 3d 89 3b 6d bc 39 28 03 3d 29 3c 96 3c
       0.033338618 -0.014479526 0.03202078 0.018339233
0001d0 39 e6 cb 3c 97 b3 6a bb 0b b2 11 3d bb 86 05 3c
       0.024890052 -0.003581261 0.035570186 0.008149798
0001e0 50 ac 2b bd 9c ea 7f bd 10 e4 40 bc 52 da 8e bd
       -0.041912377 -0.0624796 -0.011773124 -0.06975235
0001f0 0e d0 22 bd 8c f6 87 3d 03 da cf bc d8 9b 07 3d
       -0.039749198 0.06638822 -0.02537251 0.03310761
000200 9f 74 ca 3c 89 6b 9a 3d 41 17 8c 3d 5a 89 55 bd
       0.024713812 0.07540042 0.06840373 -0.05213294
000210 f9 af cf bc 92 57 80 3d 78 cd a5 bc 55 0c 02 bd
       -0.025352465 0.06266703 -0.020239577 -0.031750042
000220 11 2b 5f bd 69 d2 72 3c 67 93 ee 3d cc 20 48 3d
       -0.05448443 0.0148206735 0.116492085 0.048859403
000230 65 c7 07 ba 38 dc ea bc 11 a3 a8 3d 16 d5 22 3d
       -0.00051795534 -0.028669462 0.082342274 0.039753996
000240 be 59 99 bc fa b9 a4 3c 81 4c 61 3d f5 e3 8a bd
       -0.01871955 0.020108212 0.0550046 -0.067817606
000250 d6 f2 91 3d 3f ec 43 3d 51 b9 9f bd 49 9b b5 3d
       0.071263954 0.047832724 -0.07799018 0.08867509
000260 5b fc 1e bd 30 a4 55 bb 6e e1 99 bd b7 c3 0c 3d
       -0.038814884 -0.0032599084 -0.075137004 0.034366336
000270 d8 74 84 bd 46 23 58 bc c3 48 31 3d 39 df 47 3d
       -0.06467599 -0.013192004 0.04328228 0.048796866
000280 66 a9 9d 3d 49 35 57 bc b7 86 98 bc e0 bd f7 3c
       0.07698326 -0.013135263 -0.018618925 0.030241907
000290 67 0b f7 bb cb 97 af 3b e4 4e 9f bd ad a0 4b bd
       -0.007539201 0.0053586713 -0.07778719 -0.04971378
0002a0 62 f0 f6 bc 37 a7 1c bd c1 0b 18 bd 82 76 81 ba
       -0.03014392 -0.038245406 -0.037120584 -0.0009877237
0002b0 15 78 b2 bc 7c 62 ba ba 19 d8 9d 3d d0 77 34 3d
       -0.021785775 -0.0014220024 0.07707233 0.044059575
0002c0 49 a1 7f bd 2c 7a 83 3d f4 2f 30 bd dc c1 af ba
       -0.062409673 0.06419787 -0.04301448 -0.0013409215
0002d0 91 cc 85 3a 3b 03 91 3d d9 c5 21 bd 63 2d ca bd
       0.001020806 0.07080694 -0.039495323 -0.09871938
0002e0 20 6d 4b bc 9e 34 1f bc b4 d8 a7 3c 90 40 83 3d
       -0.012416154 -0.009717135 0.020489074 0.06408799
0002f0 84 a3 57 bd 8c be 55 3c aa 2c 8c bd 2b ee 51 bd
       -0.052646175 0.013045918 -0.068444565 -0.051252525
000300 f2 83 54 bc 9d 07 92 3d f1 2e b3 3c 4d b4 85 bd
       -0.012970911 0.07130358 0.02187297 -0.0652853
000310 68 44 af 3d f1 86 7a 3d 3e 04 8d 3d dd 78 21 bd
       0.08557969 0.061163846 0.06885575 -0.039421905
000320 2d 71 36 3d a6 90 a1 3d 4d 03 55 bd 82 11 22 3d
       0.044541527 0.078889176 -0.0520051 0.039567478
000330 d1 dd e0 3a 88 6d c8 bd 8b b4 2e bd 5b 1f c0 3d
       0.001715595 -0.097865164 -0.042652648 0.093809806
000340 15 3e 4a 3d 5c 5f af 3d d1 6e 99 3d fe df 69 bc
       0.049375612 0.0856311 0.0749184 -0.014274595
000350 77 e2 2c 3c 3f 6c c4 3d 5d f9 a2 3d 3f ad 16 bd
       0.01055204 0.09590959 0.079577185 -0.036786314
000360 e8 b2 99 bd 01 70 81 bd b2 d8 f9 3b 70 bb ac bd
       -0.07504827 -0.06320191 0.007624709 -0.08434188
000370 c4 e0 35 3d 8e 96 cf bd b4 07 cb bc a3 8e 11 3d
       0.044403806 -0.10136138 -0.024783947 0.03553642
000380 2c 33 cc bc f5 c9 82 3d 36 f8 8b 3b 95 7d 0d 3d
       -0.024926744 0.063861765 0.0042715324 0.034543592
000390 47 a4 9f 3d 1c af 33 3c 21 32 aa bc f1 97 7b bd
       0.07795005 0.010967042 -0.020775856 -0.0614242
0003a0 1d fe 9e 3d 60 68 a0 3c a3 93 ca bc f4 fe 1a bd
       0.07763312 0.01958102 -0.024728602 -0.0378408
0003b0 f9 29 74 bd 02 56 68 bc 9a a7 4a 3c 9d a7 9f 3d
       -0.05961034 -0.014180662 0.012369061 0.077956416
0003c0 ba 69 8d bd 4c 13 45 bc 2c e7 94 bd 6a 1d 8e 3d
       -0.06904931 -0.0120285265 -0.07270655 0.06939204
0003d0 bf 32 5e bd 49 08 19 3c 66 e0 58 3c 8a c9 e7 3c
       -0.054247614 0.009340354 0.0132370945 0.028294344
0003e0 48 be 2e 3d c4 46 5c 3d c8 ae 16 3c c5 ef 91 bd
       0.042661935 0.053778425 0.009196945 -0.071258105
0003f0 06 12 bc 3b ae 30 1b 3d e4 f8 35 bd dc 15 05 3d
       0.0057394532 0.03788822 -0.044426814 0.03249155

transformer_encoder.layers.0.linear2.bias f4 [8]
000000 64 b4 f9 3c 78 66 ab 3d ba 27 b6 bc 03 ba 64 bd
       0.030481525 0.08369154 -0.02223574 -0.055841457
000010 85 35 eb 3c 80 90 b1 3c dd 37 4c bd 72 0c 84 3c
       0.028712044 0.021675348 -0.049857963 0.016119216

transformer_encoder.layers.0.norm1.weight f4 [8]
000000 d2 bb 74 3f e8 26 7d 3f 60 23 7d 3f f6 f8 86 3f
       0.9559909 0.9888749 0.988821 1.0544727
000010 ba 69 77 3f 46 37 82 3f d6 46 81 3f 46 b0 82 3f
       0.966457 1.0173118 1.0099742 1.0210044

transformer_encoder.layers.0.norm1.bias f4 [8]
000000 ef d4 3c 3c 47 79 1c 3c ad 32 b6 bc a9 f8 60 3b
       0.011525377 0.009550399 -0.022240961 0.00343279
000010 c5 de 49 3c 28 9f 1c bc 40 98 82 3c 4f 29 84 bc
       0.012321179 -0.00955943 0.01594174 -0.016132979

transformer_encoder.layers.0.norm2.weight f4 [8]
000000 98 f1 7a 3f 46 11 80 3f 41 a8 78 3f 2f f7 87 3f
       0.9802489 1.0005271 0.97131735 1.062231
000010 7d 35 75 3f b2 e1 82 3f d9 f7 7a 3f 63 f6 81 3f
       0.9578474 1.0225127 0.98034436 1.0153316

transformer_encoder.layers.0.norm2.bias f4 [8]
000000 9b 91 c2 3b 5c 0d 00 3c 21 9c 95 bc a3 85 9a 3b
       0.0059377677 0.007815685 -0.018262925 0.004715638
000010 7d 79 5f 3c 05 13 c4 bb a0 de 31 3c 82 08 d6 bc
       0.013639805 -0.0059837126 0.010856301 -0.026127104

transformer_encoder.layers.1.self_attn.in_proj_weight f4 [24, 8]
000000 9d 34 3c be 8a 03 a3 3e 97 4e e2 3d db a1 c6 3e
       -0.18379445 0.31838638 0.11050146 0.3879536
000010 21 dc c0 be 5e 00 bc bc af 32 70 3e 19 75 c0 be
       -0.37667945 -0.022949394 0.23456834 -0.37589338
000020 47 89 63 be 07 a8 3d 3e 1b 74 cb bc a9 80 ce 3b
       -0.22220336 0.18521129 -0.024835637 0.0063019586
000030 d3 20 b0 be 04 53 32 3c 84 1c 2e be ea de 94 bb
       -0.34400043 0.01088405 -0.17003065 -0.004543175
000040 f1 02 4c 3e de 78 be 3e d5 e3 1d be 99 36 8a 3c
       0.19922997 0.3720159 -0.15418942 0.016871737
000050 77 bb 4b 3e 00 62 20 3d fc dc 86 3e ab 13 32 3d
       0.19895731 0.03915596 0.26340473 0.043475788
000060 b0 90 12 be bb 54 b0 be 9e 36 a2 3e ae 73 a7 be
       -0.14313006 -0.34439644 0.31682295 -0.32705444
000070 2c f2 82 3e 2d d9 22 be 0c a3 ad be ce d5 70 be
       0.25575387 -0.15903158 -0.33913457 -0.2351906
000080 e1 24 b4 be ed 4f f6 3d 49 22 3d 3e f6 74 de 3d
       -0.35184386 0.120269634 0.1847011 0.10862152
000090 0a 7d b3 be c5 5e 4e bd 85 21 c4 be 07 a6 b1 be
       -0.35056335 -0.050383348 -0.38306823 -0.3469698
0000a0 7f d3 9f be 9b c3 7a 3e d6 93 38 bd 4b a3 af 3e
       -0.31216046 0.2448868 -0.045062862 0.3430427
0000b0 32 6e 57 be d5 0e a8 be a9 ff 4d be 21 eb 3f be
       -0.2103813 -0.32823816 -0.20117058 -0.18742038
0000c0 11 1e c3 3e 5e fb a6 3b 52 18 56 3e 60 40 26 3d
       0.38108876 0.0050958833 0.20907715 0.040588737
0000d0 b7 54 85 3e 3b ee 44 3e 20 2b 6b 3e 3c 72 5b 3e
       0.26041195 0.19231503 0.2296567 0.21430296
0000e0 7a a9 72 be fb 18 c8 bd 73 38 25 be 18 c2 93 3e
       -0.23697463 -0.0977039 -0.16134815 0.2885902
0000f0 18 c0 22 bd 98 b4 2e be fc c8 7b 3d b7 8b e0 bd
       -0.039733976 -0.17061079 0.06147097 -0.109641485
000100 29 f8 48 be ca 50 d0 3d c7 6d cf bd dc b0 1d 3e
       -0.19625916 0.10171659 -0.1012836 0.15399498
000110 10 a6 b6 bd 0e 7c c9 3e c2 3e c0 3e 41 1b 92 be
       -0.08918393 0.3935246 0.3754788 -0.28536418
000120 6f 31 20 be ee 7f ad be 4e d8 c4 be 75 23 a8 3c
       -0.15643857 -0.33886665 -0.38446277 0.02052472
000130 fc 74 cd 3e 7c a1 4b bd 61 18 8a be 7c 24 6b be
       0.40128314 -0.04971455 -0.26971725 -0.22963136
000140 5e 29 d0 be da 10 6d be 8a 14 47 be cb 43 9b 3e
       -0.4065656 -0.2315096 -0.19441429 0.3032516
000150 b7 c3 0e 3e 95 17 a1 bd 2d ca 7c 3e 1e cd 35 be
       0.13941847 -0.07865826 0.24686499 -0.17754027
000160 91 da 0d be 0c d9 39 be 6d ef 8e 3e 69 98 8e be
       -0.13852908 -0.18149203 0.27917042 -0.27850655
000170 e1 fe 04 3e 66 22 be 3e 41 72 3a 3c 0c 6c b1 3e
       0.12987854 0.3713562 0.011379779 0.34652746
000180 59 76 34 be 64 6b cf be 23 77 c9 3e 63 b9 9b 3e
       -0.17623271 -0.4051162 0.39348707 0.30414876
000190 91 1e 55 be 90 13 d6 3b 08 d9 95 be 3b f0 87 3e
       -0.20812441 0.0065330938 -0.29267144 0.2655047
0001a0 3d 91 31 be 42 82 81 be 1e ff 7d 3e 50 a8 0e 3d
       -0.1734056 -0.2529469 0.2480435 0.034828484
0001b0 08 33 f4 be c1 ea 64 3e ce 70 a3 3e 76 65 a4 be
       -0.47695184 0.22355177 0.31922 -0.3210866
0001c0 07 6b 3f bd 3b 78 94 3e 9d bb 93 be 95 6d 2b 3e
       -0.04673293 0.2899798 -0.28854075 0.16741021
0001d0 f8 28 1a be 16 c2 e3 3d ca e4 98 3e 9e 51 bd 3e
       -0.15054691 0.11121003 0.29862052 0.3697633
0001e0 4c 76 a4 3e 58 61 c2 be 69 ed c9 3e 4f 1a b0 3e
       0.32121503 -0.37964892 0.39438942 0.34395072
0001f0 c2 89 be be cf 43 67 3e 45 04 e1 3d 94 83 59 bc
       -0.37214476 0.2258446 0.109871425 -0.013276
000200 71 da 57 be eb a6 ab 3e 39 2b b4 be a0 b1 68 3e
       -0.21079423 0.33525786 -0.35189226 0.22724009
000210 e3 09 ca be 4d 12 82 3e 85 d5 12 be 04 95 61 be
       -0.39460668 0.25404587 -0.14339264 -0.22029501
000220 c5 8e c0 be 22 b4 ce be 97 a6 df bd 3b 2d ab 3d
       -0.37608925 -0.40371805 -0.10920446 0.083582364
000230 88 3f bd bc 3a 76 8e 3d 72 6c a3 3c 76 46 9e 3e
       -0.023101583 0.06956144 0.019949172 0.30913132
000240 eb 49 51 be 9c 6c 2f 3e 6f 18 04 be b7 65 34 3e
       -0.20438354 0.17131275 -0.12899946 0.17616926
000250 dc 1e 86 3e b1 47 74 3e 07 e1 c5 be c7 b9 f8 3d
       0.2619542 0.23855473 -0.38648245 0.12144809
000260 98 ed e3 bd 1f 01 07 bd e3 fe cb 3d c2 ad 12 3d
       -0.11129302 -0.032960054 0.09960725 0.03581024
000270 16 b1 9b be 73 2b d7 be 4a 36 7c be ba 1a ab bd
       -0.30408543 -0.42025337 -0.24630085 -0.08354707
000280 ab b9 c0 be 75 a8 61 be c9 a8 05 3d 93 fb 77 3e
       -0.37641653 -0.22036918 0.03263167 0.24217062
000290 9a b6 02 bc ad f3 03 3d f2 ad f6 bb d8 da bc be
       -0.007978106 0.03221481 -0.00752806 -0.36885715
0002a0 ec a0 12 3e 89 28 c3 3e 0d 60 29 be 5f 41 20 3e
       0.143192 0.38116863 -0.16540547 0.15649937
0002b0 99 8d 64 3e ef c4 91 be e8 12 0b 3e e6 9f ad be
       0.2231964 -0.2847056 0.13581431 -0.33911055
0002c0 29 1b 48 3e b0 8d aa be cf 80 c6 3e bf 11 94 3d
       0.19541611 -0.33311224 0.38770148 0.07229947
0002d0 b3 17 2f 3e 23 37 8b 3e ee ed a1 be 11 b6 2c 3e
       0.17098884 0.27190503 -0.31626838 0.16866328
0002e0 c1 e7 9b 3c 18 1a 9e 3e 47 97 c1 3d 38 ff 1a 3e
       0.019031407 0.30879283 0.09452682 0.1513642
0002f0 03 2d 71 bd cf d1 20 be 8a 0e 81 3e ef fe 22 3e
       -0.058880817 -0.15705036 0.25206405 0.15917562

transformer_encoder.layers.1.self_attn.in_proj_bias f4 [24]
000000 a9 18 5b 3c 38 c1 a1 bc 71 3c 5d bb c8 d3 70 ba
       0.013372579 -0.019745454 -0.003375795 -0.00091868313
000010 97 e4 97 bc f0 48 5c bc b1 ff 49 3b 37 54 4b bb
       -0.018541617 -0.013445124 0.003082257 -0.0031025538
000020 37 aa f4 b6 e9 68 43 39 ef 03 be 38 5c 23 09 39
       -7.2915823e-06 0.00018635731 9.060639e-05 0.0001307851
000030 e2 1a 91 38 6f 29 de 35 96 f7 c4 38 34 75 b8 b7
       6.919146e-05 1.6552348e-06 9.392125e-05 -2.1989086e-05
000040 a4 3c 45 3c d5 c3 7d bc b2 58 16 bb 93 c4 38 3c
       0.012038384 -0.0154885845 -0.002294105 0.011277336
000050 59 b6 87 bc c4 aa bd 3b 06 7e 16 bb 5d 78 a4 bb
       -0.016566442 0.005788179 -0.00229633 -0.0050192312

transformer_encoder.layers.1.self_attn.out_proj.weight f4 [8, 8]
000000 51 5c 51 3e 70 76 67 be 00 ad 4f 3e a3 c8 2c be
       0.20445372 -0.22603774 0.20280838 -0.16873412
000010 22 d3 2b 3e 21 ad fc 3c ac a5 89 3e 59 ab 83 bd
       0.1677976 0.030844273 0.2688421 -0.06429166
000020 11 28 5c 3e 1a 7e 38 be 2b 26 70 be 0b 9d 65 3e
       0.21499659 -0.18016854 -0.2345206 0.22423188
000030 2d 89 9b be c1 20 c1 3c 7a cc 18 3e da ed 8a be
       -0.30378094 0.023575189 0.14921752 -0.2713459
000040 8a eb 2c be dc da 24 be 3d 88 f9 bd 49 db 90 be
       -0.16886726 -0.16099113 -0.121841885 -0.282923
000050 40 78 38 be 39 be 66 ba b3 d8 aa be 83 71 ee bc
       -0.18014622 -0.0008802149 -0.33368453 -0.029106861
000060 d3 ad 22 be 8e 07 5d 3e 1c 10 1f be 75 39 83 be
       -0.15886621 0.21584913 -0.15533489 -0.25629774
000070 87 7e 3f 3d c0 2f 13 bc 8c 94 90 be 60 8a c6 bc
       0.046751525 -0.008983552 -0.28238332 -0.024235904
000080 48 d8 c3 3d 12 42 97 3e 8a b8 b5 bd 23 ae 30 3d
       0.09562737 0.29542595 -0.08873089 0.04313482
000090 9d 18 6c 3d 3e cc fa bd c8 ea b1 bd 3a 6b 34 3e
       0.05764066 -0.12245987 -0.08687359 0.17619029
0000a0 19 03 74 be de f4 80 be 94 58 8d 3d d7 2d 9e be
       -0.23829307 -0.2518682 0.069016606 -0.30894348
0000b0 7b 40 44 be ee ea fa 3d a6 12 94 be 49 35 2e 3d
       -0.19165222 0.122518405 -0.28920478 0.042531285
0000c0 10 e4 1b be ed d4 a3 be 04 79 86 3d b2 02 4e 3e
       -0.15223718 -0.31998387 0.06566051 0.20118216
0000d0 18 5e 6d be fd dd 5a 3c 10 87 95 be d8 ed b7 3e
       -0.23180425 0.01335859 -0.29204607 0.35923648
0000e0 2b 99 93 3e 69 22 e2 bd 56 da a5 be d5 9c 5e 3e
       0.28827795 -0.110417195 -0.3239314 0.21739514
0000f0 c4 8e 35 3c 1b 38 5b be 4b f8 a7 bc 2f 3b 8c be
       0.011081401 -0.21408121 -0.020504138 -0.27388903

transformer_encoder.layers.1.self_attn.out_proj.bias f4 [8]
000000 50 d2 75 3c 7c 75 a1 3c 59 df 31 bc 93 ec 39 3b
       0.015003756 0.019709341 -0.010856473 0.002836977
000010 eb 80 f8 b9 6d 3e 94 3c dd 8e d8 3c 07 fd 65 3c
       -0.00047398297 0.018096173 0.02643531 0.014037377
