final/best_model_fold_0.pth (torch, 575082 bytes, 50 tensors)

embedding.weight f4 [50, 8]
1.0405694 -0.55260164 0.1224495 -0.12989025 1.9681592 0.79949886 0.22949469 -0.043531116
0.13539489 0.54712206 -0.06513842 -1.45296 -0.4253119 -0.72510093 -0.6292805 -0.609245
0.5020898 -1.6682088 -1.6356972 -0.6549422 0.33722407 0.9292229 0.8724298 -0.4166692
-0.6171816 0.17052573 0.3240165 -0.50782263 -0.9590743 -0.7439955 0.3682264 1.0860208
-0.012967471 -0.12367842 0.6156518 0.32357726 0.05493617 1.8329761 -0.61482835 -0.77708846
1.8468312 2.169119 -0.9955342 0.13701743 -0.06821192 -0.73327607 0.7776465 0.3839654
-1.9772952 -0.6502337 -0.56483936 -0.14431734 0.21663265 -0.6367388 -0.9008416 1.7233236
-0.4016504 -1.7534598 -0.13457806 -0.45577788 -1.5013698 -2.3682072 0.86771554 -1.3769901
0.15162334 0.68111634 -1.0799662 0.77309024 -0.44326663 1.2344669 -0.5987609 0.27332047
2.5711248 -1.3149312 -0.06721964 0.53368944 -0.0803043 -1.3848445 -0.95032084 -0.51926506
-0.13105205 -0.41514573 1.5611757 0.7636253 0.29709744 1.0119085 0.6536445 0.76831424
1.1766583 0.8302041 0.3784617 0.7120564 0.71417785 0.14254758 0.63812214 -0.67285925
0.79527634 0.3261734 -0.086003534 -1.5016745 0.017238995 -1.1446488 -0.030429853 -0.6477905
1.1295877 -0.82314086 -0.22240667 -0.36013305 0.39031163 -0.01872778 0.70156354 0.7733954
-1.8585565 -0.35883644 -0.7804201 -2.003299 -0.18110208 1.5341487 -0.9365132 -0.3719505
0.8562424 0.6349576 0.021004355 -0.0041530714 0.8459446 0.017343475 1.7763492 -0.7620696
-0.780988 0.24774173 0.005813449 0.55834806 -0.5270969 0.11940281 1.6328195 0.9633501
0.74273485 -0.18118347 0.8730934 -0.71499324 0.3505451 0.54863733 0.61544365 1.0886463
-1.0166358 1.4700493 1.4933186 -0.27495712 -1.0153769 -1.0289272 -1.7286563 -0.783371
-1.0356839 -0.17391372 -0.77459705 2.0179412 0.0016521618 -1.193285 1.2019265 0.7084807
0.3625918 1.1472673 -1.0931611 -1.7666392 -1.3307506 -0.68159443 1.2336651 -1.1520764
1.224879 -0.0005882732 -0.04200605 -0.9996652 -0.17380174 0.23754178 -1.4737344 -0.6196788
0.41904753 2.1074336 -0.13053061 -0.084967926 0.7226242 -0.020368112 -1.4605772 -0.027264183
1.5744369 0.2346552 -0.824476 0.50936055 -0.25145477 -0.86653507 2.1873162 0.19128993
-0.0033641576 1.67323 0.6367202 -0.36300117 -0.3742441 1.2048111 1.3307647 0.8416919
0.55703706 -0.9068527 -0.5790508 0.3344244 0.85352004 -1.2903377 -0.063536145 -0.16206166
0.68476754 0.45026556 -0.3290223 0.2850681 0.3546841 1.3021696 -0.84364456 -1.4747022
0.80241907 -0.71828824 2.0807862 -1.1574402 0.9944836 0.29857254 0.007369903 -0.5623176
-0.46729067 -0.020908805 1.4390196 -0.7114256 1.6802571 -0.7498008 1.3344703 0.26675326
-1.6142896 -0.099387385 1.7291374 -1.3795501 0.46785125 -0.4202295 -0.71755695 0.34651774
0.1458325 0.49558303 -0.23799275 -0.54994214 0.014589009 1.2070192 2.1964824 -1.1393539
-1.352221 -0.6837972 0.62804407 -0.16699323 0.30758497 -0.89351165 1.1453106 -0.11417813
00000000: 6131 853f 4d77 0dbf cec6 fa3d f301 05be
00000010: a4ec fb3f f5ab 4c3f a800 6b3e af4d 32bd
00000020: f5a4 0a3e 3110 0c3f 4b67 85bd 98fa b9bf
00000030: 7bc2 d9be 37a0 39bf 8718 21bf 7bf7 1bbf
00000040: f588 003f de87 d5bf 875e d1bf 4baa 27bf
00000050: a2a8 ac3e 8de1 6d3f 8f57 5f3f aa55 d5be
00000060: 9dff 1dbf 4c9e 2e3e 7ee5 a53e aa00 02bf
00000070: e585 75bf 7d76 3ebf 2c88 bc3e bb02 8b3f
00000080: 8475 54bc 1d4b fdbd 5b9b 1d3f ebab a53e
00000090: c004 613d f69e ea3f 6465 1dbf 45ef 46bf
000000a0: f764 ec3f d8d2 0a40 54db 7ebf 4c4e 0c3e
000000b0: b1b2 8bbd fbb7 3bbf d713 473f 1d97 c43e
000000c0: 0218 fdbf b775 26bf 5099 10bf edc7 13be
000000d0: f3d4 5d3e 5001 23bf 8e9d 66bf de95 dc3f
000000e0: 1fa5 cdbe 5f71 e0bf d5ce 09be b85b e9be
000000f0: e32c c0bf b590 17c0 9b22 5e3f 3641 b0bf
00000100: 2643 1b3e a45d 2e3f 553c 8abf 3ee9 453f
00000110: d8f3 e2be 0303 9e3f 6548 19bf a9f0 8b3e
00000120: 4f8d 2440 aa4f a8bf 73aa 89bd df9f 083f
00000130: 9576 a4bd 9642 b1bf 3a48 73bf 8eee 04bf
00000140: 8232 06be fb8d d4be 9bd4 c73f f37c 433f
00000150: 281d 983e 3886 813f 3f55 273f 3eb0 443f
00000160: bd9c 963f 4288 543f bbc5 c13e 5449 363f
00000170: 5cd4 363f fef7 113e f95b 233f 8140 2cbf
00000180: 3b97 4b3f 3300 a73e 9f22 b0bd df36 c0bf
00000190: cb38 8d3c da83 92bf 0748 f9bc 99d5 25bf
000001a0: 5496 903f 5cb9 52bf 93be 63be 5c63 b8be
000001b0: edd6 c73e 006b 99bc ab99 333f 3efd 453f
000001c0: 2ee5 edbf 69b9 b7be 9dc9 47bf 0d36 00c0
000001d0: d372 39be fc5e c43f 54bf 6fbf 4c70 bebe
000001e0: b432 5b3f 958c 223f 5311 ac3c 7d16 88bb
000001f0: d38f 583f e713 8e3c 695f e33f fe16 43bf
00000200: d4ee 47bf 02b0 7d3e bf7e be3b e6ef 0e3f
00000210: d3ef 06bf 7689 f43d 3b00 d13f 1d9e 763f
00000220: df23 3e3f 2988 39be 0d83 5f3f cc09 37bf
00000230: a67a b33e 7f73 0c3f b78d 1d3f c358 8b3f
00000240: 1f21 82bf 932a bc3f 1025 bf3f 2ec7 8cbe
00000250: dff7 81bf e3b3 83bf 9c44 ddbf 008b 48bf
00000260: 4a91 84bf 7016 32be fe4b 46bf f325 0140
00000270: 5a8d d83a 90bd 98bf bad8 993f fe5e 353f
00000280: a2a5 b93e a8d9 923f b4ec 8bbf 3c21 e2bf
00000290: 0956 aabf f97c 2ebf bde8 9d3f 3d77 93bf
000002a0: d6c8 9c3f 5936 1aba 890e 2cbd 0fea 7fbf
000002b0: 15f9 31be 273e 733e 54a3 bcbf 45a3 1ebf
000002c0: 668d d63e 31e0 0640 d1a9 05be aa03 aebd
000002d0: e6fd 383f 07db a6bc 32f4 babf 2359 dfbc
000002e0: 2687 c93f 7449 703e dc10 53bf 7465 023f
000002f0: aebe 80be 3ed5 5dbf fdfc 0b40 82e1 433e
00000300: 3379 5cbb 672c d63f 1800 233f 4adb b9be
00000310: ec9c bfbe 4037 9a3f 7f56 aa3f 1f79 573f
00000320: fb99 0e3f 8027 68bf ac3c 14bf ad39 ab3e
00000330: 4a80 5a3f c929 a5bf 3d1f 82bd 7ef3 25be
00000340: ed4c 2f3f 3589 e63e 9c75 a8be 72f4 913e
00000350: 2899 b53e 7ead a63f 17f9 57bf 0bc3 bcbf
00000360: 566b 4d3f bde1 37bf 9a2b 0540 0027 94bf
00000370: 7a96 7e3f 80de 983e 3a7f f13b 0cf4 0fbf
00000380: b940 efbe f148 abbc cb31 b83f fd1f 36bf
00000390: aa12 d73f f2f2 3fbf eccf aa3f e293 883e
000003a0: 0ba1 cebf 9d8b cbbd 6054 dd3f 1995 b0bf
000003b0: 338a ef3e 5228 d7be d0b1 37bf c66a b13e
000003c0: 1d55 153e 0fbd fd3e 5fb4 73be 02c9 0cbf
000003d0: bd06 6f3c 9b7f 9a3f 2b93 0c40 59d6 91bf
000003e0: 9415 adbf 550d 2fbf 7fc7 203f 4600 2bbe
000003f0: c77b 9d3e 2ebd 64bf 8a99 923f 39d6 e9bd

pos_encoder.pe f4 [1000, 1, 8]
0.0 1.0 0.0 1.0 0.0 1.0 0.0 1.0
0.84147096 0.54030234 0.099833414 0.9950042 0.009999833 0.99995 0.0009999998 0.9999995
0.9092974 -0.41614684 0.19866931 0.9800666 0.019998666 0.9998 0.0019999985 0.99999803
0.14112 -0.9899925 0.2955202 0.9553365 0.0299955 0.99955004 0.0029999954 0.9999955
-0.7568025 -0.6536436 0.38941833 0.921061 0.039989334 0.9992001 0.003999989 0.999992
-0.9589243 0.2836622 0.47942552 0.87758255 0.049979165 0.99875027 0.004999979 0.9999875
-0.2794155 0.96017027 0.5646424 0.8253356 0.059964005 0.99820054 0.0059999637 0.999982
0.6569866 0.75390226 0.6442176 0.7648422 0.06994285 0.997551 0.006999942 0.9999755
0.98935825 -0.14550003 0.717356 0.6967067 0.07991469 0.9968017 0.007999914 0.999968
0.4121185 -0.91113025 0.78332686 0.62161 0.089878544 0.9959527 0.008999879 0.9999595
-0.5440211 -0.8390715 0.84147096 0.54030234 0.099833414 0.9950042 0.009999833 0.99995
-0.9999902 0.004425698 0.89120734 0.4535962 0.1097783 0.9939561 0.010999777 0.9999395
-0.53657293 0.84385395 0.9320391 0.36235783 0.119712204 0.99280864 0.011999711 0.999928
0.42016703 0.9074468 0.9635582 0.26749888 0.12963414 0.9915619 0.012999633 0.9999155
0.9906074 0.13673721 0.98544973 0.16996728 0.13954312 0.990216 0.013999541 0.999902
0.65028787 -0.7596879 0.997495 0.07073732 0.14943813 0.9887711 0.014999436 0.9998875
-0.2879033 -0.9576595 0.9995736 -0.029199427 0.15931821 0.98722726 0.015999317 0.999872
-0.96139747 -0.27516335 0.9916648 -0.12884443 0.16918235 0.9855848 0.01699918 0.9998555
-0.75098723 0.6603167 0.9738476 -0.22720204 0.17902957 0.9838437 0.017999027 0.999838
0.1498772 0.9887046 0.94630015 -0.32328942 0.1888589 0.9820042 0.018998856 0.9998195
0.9129453 0.40808207 0.90929747 -0.41614673 0.19866931 0.9800666 0.019998666 0.9998
0.8366556 -0.54772925 0.8632094 -0.50484604 0.2084599 0.9780309 0.020998454 0.9997795
-0.008851309 -0.99996084 0.80849653 -0.588501 0.21822962 0.97589743 0.021998223 0.999758
-0.8462204 -0.53283304 0.74570525 -0.666276 0.22797751 0.9736664 0.02299797 0.99973553
-0.9055784 0.42417902 0.67546326 -0.7373936 0.23770262 0.971338 0.023997694 0.999712
-0.13235176 0.99120283 0.59847236 -0.80114347 0.24740396 0.9689124 0.024997395 0.9996875
0.76255846 0.6469193 0.51550144 -0.8568887 0.25708055 0.96639 0.025997069 0.99966204
0.95637596 -0.29213881 0.42738006 -0.90407205 0.2667314 0.9637709 0.026996719 0.9996355
0.2709058 -0.9626059 0.33498842 -0.94222224 0.27635565 0.96105546 0.027996339 0.99960804
-0.6636339 -0.74805754 0.23924947 -0.9709581 0.2859522 0.9582439 0.028995933 0.99957955
-0.9880316 0.15425146 0.14112024 -0.98999244 0.2955202 0.9553365 0.029995497 0.99955004
-0.40403765 0.91474235 0.04158076 -0.99913514 0.30505863 0.95233357 0.030995032 0.9995195
00000000: 0000 0000 0000 803f 0000 0000 0000 803f
00000010: 0000 0000 0000 803f 0000 0000 0000 803f
00000020: a46a 573f 4151 0a3f 7675 cc3d 98b8 7e3f
00000030: 57d6 233c b9fc 7f3f 6d12 833a f8ff 7f3f
00000040: b7c7 683f 3311 d5be f86f 4b3e a5e5 7a3f
00000050: 3ed4 a33c e5f2 7f3f 6812 033b dfff 7f3f
00000060: c381 103e 2670 7dbf 6c4e 973e ef90 743f
00000070: 1fb9 f53c 83e2 7f3f 929b 443b b5ff 7f3f
00000080: cfbd 41bf 3055 27bf d761 c73e a7ca 6b3f
00000090: dbcb 233d 94cb 7f3f 5712 833b 7aff 7f3f
000000a0: 107c 75bf 2c3c 913e 4377 f53e 40a9 603f
000000b0: f4b6 4c3d 19ae 7f3f ddd6 a33b 2eff 7f3f
000000c0: 8c0f 8fbe b8cd 753f 688c 103f 3249 533f
000000d0: d19c 753d 128a 7f3f 589b c43b d2fe 7f3f
000000e0: 4630 283f bdff 403f 72eb 243f b3cc 433f
000000f0: 323e 8f3d 815f 7f3f c55f e53b 65fe 7f3f
00000100: 9546 7d3f f6fd 14be a5a4 373f 5f5b 323f
00000110: 50aa a33d 652e 7f3f 1212 033c e7fd 7f3f
00000120: 3201 d33e d53f 69bf 1c88 483f d521 1f3f
00000130: 3e12 b83d c2f6 7e3f 3a74 133c 59fd 7f3f
00000140: f844 0bbf 64cd 56bf a46a 573f 4151 0a3f
00000150: 7675 cc3d 98b8 7e3f 57d6 233c b9fc 7f3f
00000160: 5cff 7fbf 7205 913b 2a26 643f c33d e83e
00000170: 72d3 e03d e873 7e3f 6938 343c 09fc 7f3f
00000180: d85c 09bf d006 583f 1d9a 6e3f f786 b93e
00000190: ac2b f53d b528 7e3f 709a 443c 48fb 7f3f
000001a0: 2220 d73e 6f4e 683f c0ab 763f 9df5 883e
000001b0: d0be 043e 00d7 7d3f 6afc 543c 76fa 7f3f
000001c0: 7298 7d3f d704 0c3e 6f46 7c3f e70b 2e3e
000001d0: 64e4 0e3e cc7e 7d3f 555e 653c 94f9 7f3f
000001e0: 4479 263f e87a 42bf d55b 7f3f bade 903d
000001f0: 4f06 193e 1a20 7d3f 32c0 753c a1f8 7f3f
00000200: 1068 93be 2c29 75bf 0ee4 7f3f a333 efbc
00000210: 5024 233e edba 7c3f 0011 833c 9df7 7f3f
00000220: 251e 76bf 36e2 8cbe bfdd 7d3f cbef 03be
00000230: 233e 2d3e 494f 7c3f dd41 8b3c 88f6 7f3f
00000240: b340 40bf 840a 293f 144e 793f a7a7 68be
00000250: 8753 373e 2edd 7b3f b272 933c 62f5 7f3f
00000260: 6979 193e bf1b 7d3f ba40 723f 3186 a5be
00000270: 3a64 413e a164 7b3f 7da3 9b3c 2cf4 7f3f
00000280: c8b6 693f 22f0 d03e b8c7 683f 2f11 d5be
00000290: f86f 4b3e a5e5 7a3f 3ed4 a33c e5f2 7f3f
000002a0: 102f 563f fc37 0cbf 4bfb 5c3f 973d 01bf
000002b0: 8376 553e 3c60 7a3f f304 ac3c 8df1 7f3f
000002c0: 1505 11bc 6ffd 7fbf a1f9 4e3f 00a8 16bf
000002d0: 9677 5f3e 6ad4 793f 9e35 b43c 24f0 7f3f
000002e0: e6a1 58bf bf67 08bf 8ae6 3e3f 1091 2abf
000002f0: f072 693e 3442 793f 3d66 bc3c abee 7f3f
00000300: fcd3 67bf fe2d d93e 29eb 2c3f d4c5 3cbf
00000310: 5168 733e 9ba9 783f d096 c43c 20ed 7f3f
00000320: 3887 07be 78bf 7d3f 7c35 193f bd17 4dbf
00000330: 7757 7d3e a50a 783f 56c7 cc3c 85eb 7f3f
00000340: 0837 433f 819c 253f e7f7 033f 0f5d 5bbf
00000350: 10a0 833e 5665 773f cef7 d43c dae9 7f3f
00000360: 0ed5 743f 3893 95be 8fd1 da3e 4471 67bf
00000370: 0591 883e b1b9 763f 3928 dd3c 1de8 7f3f
00000380: 2ab4 8a3e 576d 76bf 9a83 ab3e 7a35 71bf
00000390: 7d7e 8d3e bb07 763f 9458 e53c 50e6 7f3f
000003a0: e9e3 29bf b380 3fbf d0fd 743e b690 78bf
000003b0: 5468 923e 794f 753f e188 ed3c 72e4 7f3f
000003c0: a4ef 7cbf 18f4 1d3e d381 103e 2570 7dbf
000003d0: 6c4e 973e ef90 743f 1eb9 f53c 83e2 7f3f
000003e0: 06de cebe 8e2c 6a3f 9650 2a3d 52c7 7fbf
000003f0: a530 9c3e 22cc 733f 4be9 fd3c 83e0 7f3f

transformer_encoder.layers.0.self_attn.in_proj_weight f4 [24, 8]
-0.3699001 -0.09696601 -0.28317347 0.011990449 -0.2743291 -0.2119137 -0.0078012627 0.4290607
-0.38438746 0.20169894 0.1597572 0.12761833 0.24923037 0.040347803 0.040153425 0.30960286
0.3044799 0.025353936 -0.28390622 0.36869556 0.08727208 0.29896134 -0.42038205 -0.30090526
-0.3438742 0.2998401 -0.25112852 0.32464117 0.3385654 0.27728882 -0.23607229 -0.30013645
0.2547483 0.26495245 -0.07847413 0.058759708 -0.13639545 -0.10205026 -0.30789992 0.39168146
-0.14977214 0.23643455 0.23608497 0.019721549 -0.008257673 -0.38875088 0.3145475 -0.31222942
0.2970729 0.10588739 0.0039162654 0.19054708 -0.25479135 0.10465469 -0.29121023 0.12846595
-0.22475135 -0.06366453 -0.06974838 0.3866633 -0.25919652 -0.07167128 0.14339973 -0.17437655
0.122472875 -0.34815073 -0.12495815 0.3228339 0.12766539 0.1214745 0.14343925 0.40510064
-0.40278533 -0.17323187 0.27349705 -0.11582633 0.21988618 -0.09609995 0.3060127 -0.28149492
0.14339928 0.29388145 -0.20316625 0.1552157 0.42364728 -0.16477054 0.18150802 -0.32453856
-0.06095075 0.36803415 0.27416858 -0.32133755 0.14073719 0.020603038 0.26327845 0.35371122
-0.39578378 0.092220716 -0.25295305 -0.3403726 0.40096077 -0.031448822 -0.21598832 -0.1705981
-0.27006808 0.3464508 0.37910917 0.024448084 0.27777004 0.11205199 0.09339649 -0.06262531
-0.3680136 0.29777783 -0.16880666 0.0066776476 -0.13177213 0.33828932 0.1627 0.23787917
-0.36036527 -0.28437752 0.05247286 0.43395314 -0.2809382 -0.1621883 0.09109444 0.2914587
-0.40828463 -0.097489566 0.27438945 0.27317816 -0.2122014 -0.17423332 0.16949816 0.14411984
-0.15937242 -0.13807273 0.05277107 0.19143271 0.34974533 0.2282216 -0.13992251 -0.33969152
-0.1423139 0.02932174 -0.28250435 -0.36547205 0.24523902 -0.30488127 -0.048693478 0.0033752066
0.16752057 0.2862194 0.09572228 0.39976275 -0.4128368 0.0022173952 0.18209493 -0.42374054
0.20045653 -0.03365166 0.16550557 0.20384511 0.18199937 0.023482421 -0.36742288 0.2816512
0.15169054 -0.30473456 0.41161317 -0.15050954 -0.22319509 0.19256245 0.13423881 0.33299175
-0.24120703 -0.16659746 0.15166232 -0.21045889 -0.16989271 0.18498346 0.3489024 0.16625422
0.019243399 -0.05760986 0.37911373 0.027411478 -0.16065629 -0.021320064 -0.1763136 0.026808303
00000000: 8c63 bdbe 1e96 c6bd 1dfc 90be 9773 443c
00000010: dd74 8cbe e8ff 58be bca1 ffbb d8ad db3e
00000020: 6fce c4be 2b8a 4e3e 6497 233e 61ae 023e
00000030: 3f36 7f3e bd43 253d eb77 243d 4484 9e3e
00000040: cae4 9b3e 0fb3 cf3c 285c 91be aac5 bc3e
00000050: b4bb b23d 7611 993e 513c d7be 4110 9abe
00000060: 4710 b0be a484 993e eb93 80be 5e37 a63e
00000070: 7258 ad3e cdf8 8d3e efbc 71be 7cab 99be
00000080: 5f6e 823e d9a7 873e 0bb7 a0bd 05ae 703d
00000090: 40ab 0bbe baff d0bd 0fa5 9dbe 798a c83e
000000a0: de5d 19be e61b 723e 42c0 713e 168f a13c
000000b0: 314b 07bc 5b0a c7be 5f0c a13e 89dc 9fbe
000000c0: f019 983e 7ddb d83d 0454 803b c61e 433e
000000d0: 0374 82be 3355 d63d 8219 95be 948c 033e
000000e0: 3825 66be 8d62 82bd 3dd8 8ebd bbf8 c53e
000000f0: 68b5 84be 64c8 92bd 61d7 123e c48f 32be
00000100: 0fd3 fa3d d040 b2be 0fea ffbd 7c4a a53e
00000110: b7ba 023e 9fc7 f83d bde1 123e 5a69 cf3e
00000120: e139 cebe b263 31be ce07 8c3e 5b36 edbd
00000130: d829 613e 0dd0 c4bd b2ad 9c3e 1a20 90be
00000140: 43d7 123e a177 963e d00a 50be ddf0 1e3e
00000150: 4ce8 d83e 9cb9 28be 3ddd 393e eb29 a6be
00000160: 7ea7 79bd f96e bc3e d35f 8c3e 5b86 a4be
00000170: 691d 103e b4c7 a83c 6fcc 863e a319 b53e
00000180: 2ca4 cabe 37de bc3d 1083 81be 5145 aebe
00000190: bb4a cd3e 7bd0 00bd 0b2c 5dbe 45b1 2ebe
000001a0: 5d46 8abe 0062 b13e 991a c23e 5947 c83c
000001b0: e037 8e3e 847b e53d a946 bf3d b341 80bd
000001c0: 476c bcbe 5676 983e a7db 2cbe 2bd0 da3b
000001d0: 46ef 06be 4234 ad3e d49a 263e 9996 733e
000001e0: cc81 b8be ee99 91be c8ed 563d 1b2f de3e
000001f0: 22d7 8fbe b114 26be b98f ba3d 133a 953e
00000200: af0a d1be 9ca8 c7bd c67c 8c3e 02de 8b3e
00000210: 534b 59be 386a 32be ed90 2d3e 2794 133e
00000220: 8632 23be f062 0dbe 7a26 583d f006 443e
00000230: d211 b33e ecb2 693e d947 0fbe 0cec adbe
00000240: bcba 11be 2534 f03c 69a4 90be 271f bbbe
00000250: f01f 7b3e 6619 9cbe d072 47bd 9232 5d3b
00000260: 838a 2b3e 598b 923e 0b0a c43d b4ad cc3e
00000270: 585f d3be b851 113b 1877 3a3e 85f4 d8be
00000280: 7a44 4d3e 53d6 09bd 4b7a 293e c6bc 503e
00000290: 0b5e 3a3e 355e c03c da1e bcbe 9634 903e
000002a0: c454 1b3e 2b06 9cbe f6be d23e 2c1f 1abe
000002b0: 418d 64be 172f 453e e675 093e e57d aa3e
000002c0: fafe 76be 8698 2abe 5e4d 1b3e 8982 57be
000002d0: 5bf8 2dbe 4e6c 3d3e 56a3 b23e 8c3e 2a3e
000002e0: 55a4 9d3c 51f8 6bbd 321b c23e 098e e03c
000002f0: 1583 24be 6aa7 aebc 8d8b 34be 169d db3c

transformer_encoder.layers.0.self_attn.in_proj_bias f4 [24]
-0.0069854995 0.014852349 0.0048708436 -0.010752738 -0.009352437 -0.0068458575 -0.0023643344 -0.021429334
0.00020864424 2.321928e-05 0.0012741953 -0.00030103113 0.0009476211 0.0002968001 -0.00034753646 0.000265357
-0.0033663872 0.019112047 0.011535587 -0.0013378221 0.0059609157 -0.001849149 0.015227896 -0.010073794
00000000: 9ee6 e4bb 4457 733c 999b 9f3b 412c 30bc
00000010: f73a 19bc 3753 e0bb f3f2 1abb 928c afbc
00000020: 83c7 5a39 06c7 c237 e602 a73a b7d3 9db9
00000030: c769 783a d69b 9b39 8e35 b6b9 9d1f 8b39
00000040: 9b9e 5cbb de90 9c3c c2ff 3c3c dc59 afba
00000050: c953 c33b 255f f2ba 6d7e 793c 8e0c 25bc

transformer_encoder.layers.0.self_attn.out_proj.weight f4 [8, 8]
0.11053734 0.23409598 0.18353137 0.13745818 -0.35743186 0.022487769 0.14243533 0.18237506
0.25572807 -0.15862025 -0.19902703 -0.16460815 -0.16767967 -0.061093543 -0.26867977 0.23105124
-0.32851464 0.1895245 -0.23865221 -0.234485 0.22632986 -0.25138244 0.13252158 0.31085438
0.16766739 -0.06979886 0.24976218 -0.3216836 0.22082078 -0.31958026 -0.094173186 -0.07565418
0.28564954 -0.15360172 0.301922 -0.15365286 0.30399993 0.33403456 -0.25929004 -0.05831134
-0.02227363 0.085332975 0.099943615 0.10920221 -0.092670046 -0.3160443 -0.17216007 0.08206356
-0.17828247 -0.2298867 0.27426705 0.26956877 -0.33250642 0.043497726 0.18177393 -0.14928946
-0.29658017 -0.27775642 -0.34714258 0.13363038 0.22239031 -0.26226437 -0.32334894 -0.33073875
00000000: 6761 e23d dbb6 6f3e a6ef 3b3e d6c1 0c3e
00000010: 4f01 b7be 4538 b83c 91da 113e 87c0 3a3e
00000020: caee 823e 596d 22be becd 4bbe 0a8f 28be
00000030: 38b4 2bbe 393d 7abd 6590 89be b298 6c3e
00000040: 1233 a8be b612 423e 3f61 74be d61c 70be
00000050: 04c3 673e 33b5 80be bdb3 073e 4e28 9f3e
00000060: 00b1 2b3e b4f2 8ebd a8c1 7f3e b6b3 a4be
00000070: d81e 623e 06a0 a3be dfdd c0bd 94f0 9abd
00000080: a840 923e c549 1dbe 8595 9a3e 2d57 1dbe
00000090: e1a5 9b3e 9406 ab3e aac1 84be dfd7 6ebd
000000a0: 3077 b6bc 0ec3 ae3d 3daf cc3d 69a5 df3d
000000b0: cbc9 bdbd 8fd0 a1be bb4a 30be f110 a83d
000000c0: ae8f 36be 6b67 6bbe bb6c 8c3e eb04 8a3e
000000d0: 483e aabe ac2a 323d f222 3a3e 56df 18be
000000e0: 5bd9 97be 1736 8ebe acbc b1be 67d6 083e
000000f0: 49ba 633e 8447 86be fe8d a5be 9756 a9be

transformer_encoder.layers.0.self_attn.out_proj.bias f4 [8]
0.01583382 -0.036726195 0.000616581 0.012341213 0.0071676117 -0.007495419 -0.005618856 0.0029595338
00000000: edb5 813c 356e 16bd 0da2 213a cd32 4a3c
00000010: 49de ea3b 229c f5bb 611e b8bb bdf4 413b

transformer_encoder.layers.0.linear1.weight f4 [128, 8]
-0.20610014 -0.2885284 -0.23369586 -0.22619078 -0.15995282 -0.27444088 0.3114467 0.29977182
-0.08717907 -0.0036864546 -0.12533733 0.02712085 0.25694987 0.053623803 -0.15797797 0.28201148
-0.14434154 0.17432337 0.1455138 -0.12060989 -0.23585418 0.24687654 0.31626442 0.2985836
8.268575e-05 0.13423434 0.098427504 0.26196757 -0.12634553 -0.22428778 -0.25006813 0.2905885
-0.21693853 -0.057188623 0.3061273 -0.13738622 -0.079464376 -0.20455912 0.24080098 0.13369925
-0.1593399 0.36217418 -0.101136476 -0.26186186 -0.08857835 0.03956475 0.2659323 -0.27089033
0.35015336 -0.13571355 -0.33490765 -0.020604985 0.101375915 -0.02142696 0.25448832 -0.045480546
-0.27448127 -0.26631242 0.04733227 0.3344539 0.29772446 0.04011151 -0.33301878 0.09099777
0.16590063 0.056357168 0.21270096 0.23983848 0.0012510582 -0.32081202 -0.24862662 -0.31539944
0.15837337 0.34758562 -0.27980205 0.30534503 0.19421811 -0.19287045 0.112432905 0.011970884
0.0638096 -0.0646226 0.38325548 0.14831309 -0.2893551 0.051825672 -0.30222657 -0.2208777
0.04988778 0.3186298 0.2009576 0.08245639 -0.12614727 -0.00998723 -0.14599837 -0.1800734
0.09291769 -0.3856523 -0.0017708858 -0.109856084 0.14186327 -0.2126734 0.3140195 0.21266048
-0.30261484 -0.05419679 0.20380814 0.07168797 -0.20234779 0.110094555 -0.31313556 -0.29523
0.13880199 -0.2866502 -0.1294865 0.32171416 -0.29455575 0.027600268 -0.23322536 -0.20633473
0.26779097 0.29337156 0.039862163 0.36756894 0.30129725 0.09359009 0.09645707 0.06907426
0.2834904 0.23780484 -0.088383146 0.055631876 0.21577424 -0.10042064 0.1554631 0.049246784
0.21374568 0.12315072 0.057965484 -0.35707057 0.25776982 0.12207286 -0.21297807 0.28224444
-0.037986323 0.29906073 -0.020941645 -0.011481716 -0.08936005 -0.30755588 -0.33674616 -0.057781216
-0.1598248 -0.09530764 -0.08565863 0.18421909 0.31888402 0.085306205 0.042136565 -0.07634011
0.11109822 0.17970148 0.3411665 0.12770613 0.18413411 -0.31879985 0.33381924 -0.16155024
-0.20591643 0.06642602 0.3020071 0.067885615 -0.29919052 -0.12542604 0.14195314 -0.23490825
-0.32085449 -0.07753399 0.04336159 0.25721994 0.17134015 -0.33649272 -0.18646435 0.228135
-0.12737153 -0.3191419 0.148005 -0.05525793 0.37733173 0.13149685 -0.14390324 0.19069904
0.2718987 -0.25558868 -0.3280938 0.002100982 0.20886378 -0.17244175 -0.33396378 -0.2498803
-0.029354205 0.053830605 0.10700203 0.104337424 0.25882608 -0.32164863 -0.07147029 -0.27394158
0.108620346 -0.31099382 0.30014017 -0.18534519 0.29433662 -0.00048612818 0.12150605 -0.13465644
-0.30108973 0.20575668 -0.35265622 -0.0056419116 -0.26072717 0.14458224 0.018178726 -0.2605157
0.34685248 -0.32448056 0.26843008 -0.022873318 -0.17729464 -0.2367457 -0.30877653 0.25156462
-0.27899566 -0.31361926 -0.24500026 -0.004866159 -0.11807746 -0.31771967 0.22250083 0.016454253
0.30096558 -0.12261485 -0.15962298 -0.14222619 -0.3237891 0.23462182 0.061647102 0.12145788
0.3002057 0.00076513994 0.034174677 -0.30582106 -0.34645787 0.194398 0.21433476 0.33990276
00000000: ea0b 53be ffb9 93be f84d 6fbe 8e9e 67be
00000010: acca 23be 8483 8cbe f175 9f3e b17b 993e
00000020: f18a b2bd 7298 71bb 6e58 00be 8b2c de3c
00000030: ef8e 833e a2a4 5b3d fac4 21be cf63 903e
00000040: 45ce 13be d381 323e 9201 153e 5102 f7bd
00000050: c283 71be 34cd 7c3e 69ed a13e f3df 983e
00000060: 9367 ad38 ba74 093e 5c94 c93d 9d20 863e
00000070: b960 01be b2ab 65be ee08 80be 04c8 943e
00000080: 2225 5ebe 9e3e 6abd b8bc 9c3e f9ae 0cbe
00000090: 38be a2bd f277 51be 8894 763e 75e8 083e
000000a0: 002a 23be e56e b93e a420 cfbd c212 86be
000000b0: 9168 b5bd a60e 223d 4728 883e 23b2 8abe
000000c0: 4d47 b33e 7ef8 0abe 0479 abbe c9cb a8bc
000000d0: 2d9e cf3d 9887 afbc 4b4c 823e cf49 3abd
000000e0: cf88 8cbe 1a5a 88be 7bdf 413d 8b3d ab3e
000000f0: 576f 983e f74b 243d 7081 aabe 0a5d ba3d
00000100: dbe1 293e c6d6 663d 48ce 593e 3898 753e
00000110: 8cfa a33a 7941 a4be fa97 7ebe 097c a1be
00000120: a12c 223e bef6 b13e 3742 8fbe 2f56 9c3e
00000130: 1de1 463e d57f 45be 3943 e63d 8721 443c
00000140: 9cae 823d db58 84bd 103a c43e 63df 173e
00000150: 5a26 94be 2847 543d 71bd 9abe c42d 62be
00000160: 2157 4c3d 7223 a33e d4c7 4d3e e5de a83d
00000170: c02c 01be 7ba1 23bc 9980 15be 2965 38be
00000180: a14b be3d 3874 c5be 111d e8ba 3afc e0bd
00000190: 9b44 113e 0ec7 59be 2ac7 a03e abc3 593e
000001a0: 55f0 9abe 74fd 5dbd 15b3 503e 24d1 923d
000001b0: 4234 4fbe 4179 e13d 4e53 a0be 6328 97be
000001c0: 1c22 0e3e d1c3 92be 1c98 04be b8b7 a43e
000001d0: 03d0 96be f519 e23c a1d2 6ebe 6949 53be
000001e0: e61b 893e cc34 963e 8246 233d ff31 bc3e
000001f0: a243 9a3e 29ac bf3d 498b c53d ce76 8d3d
00000200: a725 913e 1d83 733e 3902 b5bd 40de 633d
00000210: ecf3 5c3e 56a9 cdbd b831 1f3e ffb6 493d
00000220: 26e0 5a3e 7236 fc3d 376d 6d3d f4d1 b6be
00000230: 68fa 833e 5601 fa3d ec16 5abe 5882 903e
00000240: 8c97 1bbd 7d1e 993e d08d abbc cf1d 3cbc
00000250: 6702 b7bd f777 9dbe fe69 acbe ffab 6cbd
00000260: 1da9 23be a730 c3bd cb6d afbd eea3 3c3e
00000270: c444 a33e 05b5 ae3d 6497 2c3d 3458 9cbd
00000280: 7787 e33d aa03 383e 60ad ae3e 65c5 023e
00000290: a78d 3c3e bc39 a3be 5bea aa3e 6d6d 25be
000002a0: c2db 52be 5d0a 883d ada0 9a3e 9d07 8b3d
000002b0: 802f 99be af6f 00be 2a5c 113e ca8b 70be
000002c0: 0a47 a4be 24ca 9ebd ec9b 313d 55b2 833e
000002d0: cb73 2f3e c648 acbe 83f0 3ebe 399c 693e
000002e0: af6d 02be 9166 a3be 9f8e 173e 2456 62bd
000002f0: a031 c13e 1ca7 063e 5f5b 13be 9c46 433e
00000300: 4e36 8b3e 85dc 82be e9fb a7be a1b0 093b
00000310: 63e0 553e 9294 30be 4dfd aabe 9fe0 7fbe
00000320: 3b78 f0bc 7b7d 5c3d e123 db3d dcae d53d
00000330: da84 843e 21af a4be 045f 92bd 1242 8cbe
00000340: 5874 de3d 953a 9fbe f9ab 993e 21cb 3dbe
00000350: 4ab3 963e 05df feb9 2ad8 f83d 61e3 09be
00000360: 6f28 9abe e1b1 523e 5b8f b4be c9df b8bb
00000370: 087e 85be 5e0d 143e 8deb 943c 5062 85be
00000380: a696 b13e 5122 a6be ab6f 893e d360 bbbc
00000390: ba8c 35be 776d 72be f517 9ebe 14cd 803e
000003a0: 85d8 8ebe b492 a0be 59e1 7abe 4d74 9fbb
000003b0: 98d2 f1bd 27ac a2be 42d7 633e 12cb 863c
000003c0: 2918 9a3e 7f1d fbbd 3574 23be bea3 11be
000003d0: afc7 a5be b440 703e ac81 7c3d e9be f83d
000003e0: 90b4 993e ac93 483a bffa 0b3d 9494 9cbe
000003f0: ed62 b1be 4510 473e 927a 5b3e bc07 ae3e

transformer_encoder.layers.0.linear1.bias f4 [128]
0.0359325 0.14025292 -0.15132423 0.33353588 0.073916815 -0.0881966 0.18357173 0.044683952
0.3132192 -0.2062635 -0.23241338 0.17105064 -0.06748315 0.11295135 0.112986 -0.16230813
-0.3299483 -0.16032095 0.08227737 -0.088006824 0.10533832 0.0144584095 -0.3147411 -0.26207703
0.30949575 -0.2510893 -0.22103995 -0.24929737 0.02602591 0.3051245 0.07751302 -0.13780877
0.31626105 -0.276979 -0.32438803 0.05156938 0.2071133 0.28159457 0.0759063 -0.35365665
0.108515695 0.1287484 0.25969508 0.13478318 0.016235067 0.07002864 0.25729734 0.29944968
0.3087925 0.21744633 -0.30252022 -0.23825747 -0.10780657 -0.25001252 -0.25281757 -0.32855025
-0.33328465 -0.28249055 0.14184797 -0.3421575 0.20557855 -0.34751102 -0.037578445 -0.13714802
-0.20899247 -0.29625016 0.33974043 -0.12340478 -0.07157761 0.007614909 -0.3160883 -0.18955442
-0.04556015 -0.12520242 0.083708815 0.05830958 -0.00946772 0.003136268 0.0003087654 -0.029739516
-0.0023332997 0.0033145584 0.21096858 -0.025011107 -0.10673701 -0.20143382 0.08749287 0.03157759
-0.29287517 0.26776934 -0.27148256 0.023092741 0.2961108 0.012749314 -0.33024213 -0.23465718
0.21758062 0.27870154 0.20201325 -0.15291825 0.2505279 -0.32014298 -0.27966923 0.03720569
-0.16820076 -0.30628622 0.05757793 -0.10116004 -0.24067794 0.1599167 0.08384693 -0.21990474
0.31347942 -0.15845758 0.32579428 -0.14794713 0.33131236 0.2258495 0.22307588 0.16635562
0.2650818 0.33484083 -0.0897107 0.29267454 0.34697583 -0.2341654 -0.36836365 -0.30285057
00000000: f52d 133d 769e 0f3e bdf4 1abe 37c5 aa3e
00000010: b361 973d 6ba0 b4bd 3afa 3b3e 8506 373d
00000020: 445e a03e bd36 53be c6fd 6dbe e627 2f3e
00000030: 9b34 8abd 0a53 e73d 3465 e73d 1a34 26be
00000040: fcee a8be 2d2b 24be 0a81 a83d ec3c b4bd
00000050: 9ebb d73d f7e2 6c3c bf25 a1be f62e 86be
00000060: 3a76 9e3e c78e 80be 4c58 62be cf47 7fbe
00000070: 4a34 d53c 4739 9c3e 25bf 9e3d be1d 0dbe
00000080: f8ec a13e 31d0 8dbe 3016 a6be 6a3a 533d
00000090: 8215 543e 2a2d 903e c374 9b3d 7c12 b5be
000000a0: 7a3d de3d 9fd6 033e c1f6 843e 9a04 0a3e
000000b0: 67ff 843c 2d6b 8f3d 7abc 833e 7851 993e
000000c0: 0d1a 9e3e 40aa 5e3e eee3 9abe c4f9 73be
000000d0: b1c9 dcbd a401 80be 4e71 81be bd37 a8be
000000e0: 49a4 aabe 9aa2 90be 9840 113e 452f afbe
000000f0: 2f83 523e f7ec b1be dbeb 19bd 8870 0cbe
00000100: 1f02 56be 1aae 97be 75f2 ad3e a5bb fcbd
00000110: 4897 92bd 7d86 f93b 53d6 a1be 8e1a 42be
00000120: 489d 3abd 1035 00be 876f ab3d 07d6 6e3d
00000130: 7f1e 1bbc d889 4d3b cae1 a139 49a0 f3bc
00000140: 46ea 18bb 1039 593b 2608 583e 18e4 ccbc
00000150: ef98 dabd ab44 4ebe 762f b33d 8157 013d
00000160: bcf3 95be 1019 893e c3ff 8abe fd2c bd3c
00000170: d69b 973e 80e2 503c 7f15 a9be f949 70be
00000180: 74cd 5e3e f8b1 8e3e 90dc 4e3e 9a96 1cbe
00000190: 3145 803e c8e9 a3be ce30 8fbe fe64 183d
000001a0: d23c 2cbe 8cd1 9cbe d6d6 6b3d ff2c cfbd
000001b0: 4774 76be 34c1 233e f0b7 ab3d b52e 61be
000001c0: 6080 a03e b442 22be 82ce a63e 747f 17be
000001d0: c6a1 a93e 1745 673e 016e 643e 2159 2a3e
000001e0: cdb8 873e 4270 ab3e 3eba b7bd 70d9 953e
000001f0: d1a6 b13e 0ec9 6fbe 299a bcbe 3b0f 9bbe

transformer_encoder.layers.0.linear2.weight f4 [8, 128]
0.031173857 0.074250035 0.020795343 -0.013740509 0.043864224 -0.025282247 0.026687983 -0.057269327
-0.007674121 0.00979692 0.034344856 0.07371783 0.011215214 -0.02426984 -0.013966561 -0.022097668
-0.01136681 -0.017915806 -0.01465675 -0.02570792 -0.06290921 0.0832546 0.050761297 -0.1032615
-0.07288284 0.06641042 0.04652512 -0.05652772 0.0034517038 -0.04871767 0.013999445 -0.03971368
-0.040430833 0.010874139 -0.014815047 0.049137108 0.045681845 -0.05775129 -0.031724818 0.072637856
-0.068804674 0.07088923 -0.027964627 -0.03344654 0.05914431 0.046785496 0.005110758 -0.068973355
0.048247583 -0.037069146 -0.023149032 0.02778527 -0.035575934 0.051719308 0.055730935 0.04025874
0.01084995 -0.07509309 0.04710943 -0.05438161 0.08968003 -0.0035021566 0.0603368 0.03497548
0.08424851 -0.11089169 -0.009286034 0.07034588 -0.0136757055 0.026252324 -0.05628196 0.046586677
-0.023956446 -0.006688938 0.012540311 -0.030959373 0.07519282 0.0753612 0.022177527 -0.053016435
-0.07932738 0.04030073 -0.01650058 -0.087555744 0.0054521402 -0.06003994 -0.050144006 0.003937289
0.0557395 -0.0074787145 -0.034586977 0.08322454 0.06360898 -0.02073983 -0.07703653 0.09492149
0.046301614 0.047118753 -0.05027315 0.039537676 0.06443328 -0.09842627 0.039403632 0.066988476
-0.022665981 0.07190043 0.08713382 -0.07978075 0.02678259 0.059673633 -0.041197315 -0.064958364
0.055450726 0.0031108467 0.02638324 -0.07414792 0.039581604 -0.007232206 0.012121372 -0.061567098
0.002158887 0.041606843 -0.06068605 0.08009154 -0.0786413 -0.03510636 -0.044571277 0.016722724
-0.033203617 -0.013541306 0.010531906 -0.10650178 -0.02628458 0.039252516 -0.025693791 -0.061010383
-0.030257156 -0.084552005 0.03307015 -0.058180988 -0.06696563 0.023767767 -0.063164145 0.01108451
0.037425064 0.046418007 -0.041173197 0.02280989 -0.047174 -0.04658341 -0.032718595 -0.0045883455
-0.09055688 0.012024642 -0.036941525 -0.048911676 0.002431284 0.013316218 0.056574676 -0.0671289
0.043085773 0.0061548236 0.03703986 -0.021147978 -0.023673812 -0.005465803 0.016545996 0.016635554
-0.027665056 -0.06874036 -0.056946512 -0.007307338 0.06747273 -0.0555534 0.019664189 -0.041894086
0.05213923 0.057043824 -0.05257456 0.04280798 -0.055768702 0.09493104 0.044614762 0.10629554
0.056659732 -0.08435809 -0.030748855 0.034930907 0.046335217 0.053140838 0.035677932 0.07372665
0.07445512 0.013810396 0.03606025 -0.030610722 -0.06827999 -0.00041137493 -0.08239848 0.08275732
0.050179165 0.058187936 -0.06269931 0.05171113 -0.052963994 0.009276725 0.05751819 0.063200116
-0.047211163 -0.04432811 -0.061448354 0.073408246 0.081891894 0.008600842 -0.018674402 -0.00037090748
-0.05416996 -0.06570466 0.07539643 -0.030197278 -0.020388082 -0.015868273 -0.032156687 0.013837094
0.04994807 -0.10186202 0.046407633 0.03397611 -0.06465701 0.07767392 0.08984951 0.050720986
0.008326462 0.007626444 0.051898334 -0.01979302 -0.05521329 -0.036851548 -0.041192103 -0.074877866
-0.108412705 0.017055089 0.04482911 -0.08527881 0.026996521 -0.07893782 -0.0397534 0.015649276
-0.040029168 0.054937653 0.062363375 -0.042055413 0.046788342 -0.03044622 -0.041134372 -0.046327926
00000000: 5160 ff3c 6710 983d ff5a aa3c df1f 61bc
00000010: f9aa 333d b71c cfbc c2a0 da3c 3e93 6abd
00000020: 3177 fbbb 4383 203c 31ad 0c3d 60f9 963d
00000030: 04c0 373c 8bd1 c6bc 01d4 64bc 2b06 b5bc
00000040: db3b 3abc 2bc4 92bc dd22 70bc 6a99 d2bc
00000050: 8bd6 80bd 6381 aa3d 14eb 4f3d c47a d3bd
00000060: 9943 95bd 3002 883d 2091 3e3d 9c89 67bd
00000070: fb35 623b 2e8c 47bd ee5d 653c d0aa 22bd
00000080: cd9a 25bd 7229 323c d0ba 72bc fe43 493d
00000090: e31c 3b3d 9e8c 6cbd e2f1 01bd 28c3 943d
000000a0: 77e9 8cbd 5f2e 913d 1316 e5bc 3dff 08bd
000000b0: 4e41 723d 26a2 3f3d 2578 a73b e741 8dbd
000000c0: 429f 453d d1d5 17bd 0aa3 bdbc ef9d e33c
000000d0: 12b8 11bd a0d7 533d 1f46 643d 59e6 243d
000000e0: fdc3 313c 68ca 99bd d1f5 403d 40bf 5ebd
000000f0: 2aaa b73d 7084 65bb b823 773d 7342 0f3d
00000100: 7c8a ac3d 2f1b e3bd 7324 18bc 8011 903d
00000110: 1110 60bc 1d0f d73c ea87 66bd acd1 3e3d
00000120: 4f40 c4bc e12e dbbb e075 4d3c 839e fdbc
00000130: b1fe 993d f956 9a3d a5ad b53c c327 59bd
00000140: 6576 a2bd 6112 253d 392c 87bc 6d50 b3bd
00000150: dea7 b23b 71ec 75bd cd63 4dbd 6004 813b
00000160: 1a4f 643d 0110 f5bb 13ab 0dbd a171 aa3d
00000170: 6d45 823d 93e6 a9bc 54c5 9dbd 3366 c23d
00000180: c3a6 3d3d 98ff 403d 38eb 4dbd 42f2 213d
00000190: 98f5 833d b693 c9bd b465 213d 4131 893d
000001a0: 02ae b9bc 8840 933d 3773 b23d 1764 a3bd
000001b0: 2a67 db3c 576c 743d 84be 28bd e408 85bd
000001c0: 4d20 633d 59df 4b3b aa21 d83c ddda 97bd
000001d0: 5220 223d 24fc ecbb b898 463c c82d 7cbd
000001e0: 1d7c 0d3b f06b 2a3d f091 78bd 0907 a43d
000001f0: b10e a1bd b0cb 0fbd 5f90 36bd 18fe 883c
00000200: 8400 08bd 5bdc 5dbc 048e 2c3c 9b1d dabd
00000210: c252 d7bc 3fc7 203d c97b d2bc 06e6 79bd
00000220: dbdd f7bc 9a29 adbd 9174 073d 304f 6ebd
00000230: 4725 89bd 9fb4 c23c 345c 81bd ce9b 353c
00000240: 064b 193d cf20 3e3d 3aa5 28bd cedb ba3c
00000250: 8639 41bd 3fce 3ebd ef03 06bd d559 96bb
00000260: e375 b9bd 0103 453c ff4f 17bd 9c57 48bd
00000270: 2d56 1f3b 442c 5a3c d9ba 673d e07a 89bd
00000280: b57a 303d 67ae c93b 1cb7 173d 863e adbc
00000290: 95ef c1bc 7b1a b3bb 788b 873c 4947 883c
000002a0: d4a1 e2bc bfc7 8cbd bf40 69bd 6572 efbb
000002b0: 252f 8a3d f68b 63bd cb16 a13c 2299 2bbd
000002c0: f28f 553d c9a6 693d 6c58 57bd 6c57 2f3d
000002d0: b96d 64bd 356b c23d f8bd 363d 7ab1 d93d
000002e0: 0914 683d efc3 acbd 06e5 fbbc b613 0f3d
000002f0: ffc9 3d3d 35aa 593d 0623 123d fffd 963d
00000300: ed7b 983d 0045 623c eab3 133d 56c3 fabc
00000310: 61d6 8bbd cfad d7b9 89c0 a8bd ab7c a93d
00000320: ab88 4d3d 7956 6e3d 7f68 80bd 0dcf 533d
00000330: c6f0 58bd 68fd 173c 3298 6b3d 106f 813d
00000340: 7e60 41bd 6491 35bd 45b1 7bbd 1057 963d
00000350: f0b6 a73d 8cea 0c3c 0ffb 98bc 5c76 c2b9
00000360: 52e1 5dbd 2a90 86bd 7269 9a3d 4860 f7bc
00000370: e804 a7bc 2efe 81bc bbb6 03bd fbb4 623c
00000380: 5996 4c3d 099d d0bd ee15 3e3d 892a 0b3d
00000390: e56a 84bd 8113 9f3d 0503 b83d cfc0 4f3d
000003a0: b66b 083c 40e7 f93b 5993 543d f924 a2bc
000003b0: 5527 62bd a6f1 16bd 0db9 28bd 9159 99bd
000003c0: 7b07 debd 1db7 8b3c bb9e 373d a8a6 aebd
000003d0: cf27 dd3c 27aa a1bd 76d4 22bd e932 803c
000003e0: a0f5 23bd 4e06 613d bd70 7f3d 4c42 2cbd
000003f0: 22a5 3f3d 5a6a f9bc 847c 28bd 5ac2 3dbd

transformer_encoder.layers.0.linear2.bias f4 [8]
-0.02440886 0.04523248 0.029556679 -0.008452914 -0.044836126 0.0607881 0.05536073 0.022449477
00000000: 17f5 c7bc b145 393d d920 f23c 177e 0abc
00000010: 16a6 37bd f1fc 783d efc1 623d f7e7 b73c

transformer_encoder.layers.0.norm1.weight f4 [8]
0.99211276 1.0539963 0.98461944 1.0199393 0.9956267 1.0119439 0.9696233 0.9776863
00000000: 1afb 7d3f 5ae9 863f 0510 7c3f 5f8d 823f
00000010: 64e1 7e3f 6187 813f 3c39 783f a649 7a3f

transformer_encoder.layers.0.norm1.bias f4 [8]
-0.0014654292 -0.018579915 0.015965102 0.0015535613 0.0051619327 -0.0019289671 0.009562546 0.0059285946
00000000: a513 c0ba e834 98bc 3fc9 823c dea0 cb3a
00000010: 6e25 a93b 65d5 fcba 3aac 1c3c a844 c23b

transformer_encoder.layers.0.norm2.weight f4 [8]
0.99808973 1.0393486 0.9905954 1.0197202 0.9979074 0.97862077 0.97704834 0.98365587
00000000: cf82 7f3f 6009 853f a997 7d3f 3186 823f
00000010: dc76 7f3f e486 7a3f d71f 7a3f dfd0 7b3f

transformer_encoder.layers.0.norm2.bias f4 [8]
-0.0010111615 -0.027222784 0.010272899 -0.0018399513 0.0046672006 -0.010258132 0.0088747945 0.006284546
00000000: f388 84ba 5102 dfbc a94f 283c 852a f1ba
00000010: 51ef 983b b911 28bc 9667 113c 98ee cd3b

transformer_encoder.layers.1.self_attn.in_proj_weight f4 [24, 8]
-0.35909778 -0.115112245 -0.30707347 0.0144905355 -0.27396864 -0.2415498 -0.004916867 0.44686195
-0.3939386 0.1883719 0.15736549 0.1383584 0.23607011 0.048871834 0.044143632 0.32178202
0.30692303 -0.013138725 -0.27599704 0.41197062 0.09341096 0.27333382 -0.42779574 -0.26555023
-0.3291575 0.2787387 -0.26313892 0.32328892 0.35569462 0.27095425 -0.22708488 -0.3040843
0.27875006 0.2725166 -0.089240134 0.07385603 -0.12226244 -0.09959569 -0.31479433 0.40314054
-0.14294115 0.23399578 0.21254998 0.010935315 -0.00037252018 -0.37987384 0.32908416 -0.31848982
0.28619447 0.14266221 0.007730049 0.20948125 -0.27306765 0.12956789 -0.32619488 0.1038559
-0.22003908 -0.092564546 -0.04631094 0.4170488 -0.23477866 -0.03580787 0.14917214 -0.16280532
0.10945485 -0.35980883 -0.11276686 0.3449406 0.12363434 0.11850846 0.14000836 0.421404
-0.4074152 -0.18554188 0.27807778 -0.11003254 0.21985523 -0.092576824 0.29338244 -0.2864984
0.15168469 0.31010896 -0.19284289 0.16958344 0.4188998 -0.16394061 0.18628117 -0.30423683
-0.036606006 0.38341716 0.27569896 -0.31087416 0.12129053 0.00069758936 0.26076093 0.34518188
-0.3951188 0.106795035 -0.25707626 -0.3601483 0.40118134 -0.0059009995 -0.22063047 -0.16936475
-0.27976912 0.34642547 0.3752914 0.019650022 0.25656667 0.11452904 0.10261839 -0.042737234
-0.40828317 0.29144362 -0.14602397 -0.017637521 -0.14999576 0.3736274 0.18066171 0.25269294
-0.3757084 -0.3008331 0.056255177 0.41826525 -0.26612577 -0.15583102 0.09910229 0.2815345
-0.43244967 -0.13772759 0.2828706 0.31854936 -0.18276659 -0.16091488 0.16131558 0.17566581
-0.13732433 -0.14508952 0.04903575 0.18384013 0.36068624 0.24973808 -0.13750203 -0.32997844
-0.17375112 0.017462147 -0.28353694 -0.36944535 0.22977506 -0.30272475 -0.072580606 0.017977202
0.15919434 0.322224 0.10492909 0.40892607 -0.4226054 -0.01263999 0.17930022 -0.42096937
0.2315798 -0.06280711 0.18355344 0.23002985 0.17649314 0.007262397 -0.37461612 0.3045902
0.1647136 -0.31465963 0.43744773 -0.10421373 -0.19769579 0.21613254 0.10220585 0.3392008
-0.285623 -0.15093055 0.15312491 -0.2196356 -0.15649039 0.20739394 0.3594527 0.18245381
0.021620097 -0.069602266 0.38055453 0.015569463 -0.15948896 -0.006307134 -0.18096909 0.021778336
00000000: aadb b7be f8bf ebbd bc38 9dbe b669 6d3c
00000010: 9e45 8cbe d558 77be ab1d a1bb 17cb e43e
00000020: 52b2 c9be 90e4 403e 6b24 213e d3ad 0d3e
00000030: 5dbc 713e d52d 483d f4cf 343d 9dc0 a43e
00000040: 0425 9d3e cf43 57bc 7c4f 8dbe d0ed d23e
00000050: 3f4e bf3d 69f2 8b3e 0b08 dbbe 33f6 87be
00000060: 5587 a8be d7b6 8e3e 25ba 86be 2086 a53e
00000070: 9b1d b63e 84ba 8a3e f088 68be f0b0 9bbe
00000080: 54b8 8e3e 4c87 8b3e 88c3 b6bd d541 973d
00000090: bb64 fabd d3f8 cbbd b92c a1be 7068 ce3e
000000a0: 2a5f 12be 979c 6f3e b4a6 593e 092a 333c
000000b0: d04e c3b9 d37e c2be b87d a83e 1911 a3be
000000c0: 1588 923e 0b16 123e 5a4c fd3b 4182 563e
000000d0: 86cf 8bbe 72ad 043e 0403 a7be 67b2 d43d
000000e0: ed51 61be 7b92 bdbd 8ab0 3dbd 6c87 d53e
000000f0: d169 70be 46ab 12bd 95c0 183e 70b6 26be
00000100: dd29 e03d dd38 b8be 50f2 e6bd 0e9c b03e
00000110: 0034 fd3d 90b4 f23d 5a5e 0f3e 44c2 d73e
00000120: ba98 d0be b1fe 3dbe 3660 8e3e be58 e1bd
00000130: bb21 613e eb98 bdbd 3936 963e ebaf 92be
00000140: 3b53 1b3e 9ac6 9e3e 9b78 45be 48a7 2d3e
00000150: 097a d63e 0ce0 27be 7ec0 3e3e eec4 9bbe
00000160: 2ef0 15bd 414f c43e 6a28 8d3e e62a 9fbe
00000170: 2b67 f83d 6ede 363a 7582 853e aebb b03e
00000180: 034d cabe 5bb7 da3d 809f 83be 5c65 b8be
00000190: a467 cd3e 2c5d c1bb f4ec 61be f46d 2dbe
000001a0: e63d 8fbe ae5e b13e 3226 c03e 15f9 a03c
000001b0: b55c 833e 348e ea3d 9729 d23d 3d0d 2fbd
000001c0: 7e0a d1be 1938 953e 4f87 15be 907c 90bc
000001d0: 7d98 19be 174c bf3e 62ff 383e f860 813e
000001e0: da5c c0be cc06 9abe d46b 663d dd26 d63e
000001f0: a341 88be 2b92 1fbe 24f6 ca3d 4a25 903e
00000200: 0b6a ddbe 7608 0dbe 6ad4 903e e718 a33e
00000210: 2a27 3bbe dfc6 24be e92f 253e bde1 333e
00000220: c09e 0cbe 5992 14be b6d9 483d 9640 3c3e
00000230: deab b83e 57bb 7f3e 55cd 0cbe eff2 a8be
00000240: d0eb 31be c70c 8f3c c12b 91be f127 bdbe
00000250: 274a 6b3e bdfe 9abe 24a5 94bd ed44 933c
00000260: d703 233e 8bfa a43e 10e5 d63d c25e d13e
00000270: bc5f d8be f617 4fbc 7a9a 373e 4c89 d7be
00000280: 4123 6d3e 04a1 80bd 6ff5 3b3e f28c 6b3e
00000290: 9eba 343e 67f9 ed3b afcd bfbe 3ff3 9b3e
000002a0: afaa 283e 111b a1be 26f9 df3e 026e d5bd
000002b0: c470 4abe d951 5d3e 4d51 d13d baab ad3e
000002c0: 2e3d 92be 8a8d 1abe c7cc 1c3e 28e8 60be
000002d0: 043f 20be 145f 543e 2f0a b83e 2cd5 3a3e
000002e0: a11c b13c a28b 8ebd 0bd8 c23e 1017 7f3c
000002f0: 1351 23be 13ac cebb f64f 39be 7b68 b23c

transformer_encoder.layers.1.self_attn.in_proj_bias f4 [24]
-0.0011022164 0.012992457 -0.0023293498 0.004747705 0.00039614947 0.011993533 -0.014389333 0.0070825163
-0.00010580506 -7.897074e-06 -0.00014742326 -0.00012665101 3.5504956e-05 -9.674247e-05 -3.8150647e-05 -2.2976823e-05
-0.0053196475 0.017374955 -0.008573614 -0.011404652 0.008067264 -0.020949677 0.00036751945 0.009960421
00000000: 3f78 90ba 50de 543c 01a8 18bb a392 9b3b
00000010: 48b2 cf39 8680 443c 3dc1 6bbc 7414 e83b
00000020: a9e3 ddb8 ad7d 04b7 a195 1ab9 9fcd 04b9
00000030: 28eb 1438 38e2 cab8 f203 20b8 5abe c0b7
00000040: 7050 aebb ec55 8e3c 5878 0cbc 94da 3abc
00000050: 8f2c 043c a89e abbc a0af c039 0931 233c

transformer_encoder.layers.1.self_attn.out_proj.weight f4 [8, 8]
0.097707406 0.23201764 0.19245453 0.14172047 -0.35941637 0.029795077 0.17591195 0.17829706
0.26749778 -0.1641124 -0.21977077 -0.17981096 -0.20194323 -0.083957754 -0.2922441 0.23813924
-0.3646018 0.17506988 -0.22780102 -0.23404546 0.22759898 -0.2543837 0.1411981 0.3149359
0.16642201 -0.09111614 0.2685757 -0.33949146 0.23847468 -0.3153368 -0.101492524 -0.08306288
0.32571602 -0.15260021 0.2924834 -0.16556223 0.32493186 0.3516639 -0.2931079 -0.057262857
-0.013922185 0.083103314 0.108714275 0.11959553 -0.11227939 -0.32475573 -0.17813662 0.08435216
-0.1822128 -0.22383744 0.27099487 0.28842 -0.33954713 0.028535366 0.18401022 -0.13244884
-0.30605718 -0.28900078 -0.34975815 0.13328117 0.23389499 -0.25221044 -0.312232 -0.34405518
00000000: d21a c83d 0896 6d3e cd12 453e 2c1f 113e
00000010: 6c05 b8be ce14 f43c 4322 343e 8193 363e
00000020: 78f5 883e 150d 28be 970b 61be 5d20 38be
00000030: 35ca 4ebe 0bf2 abbd 05a1 95be c6da 733e
00000040: 16ad babe 8545 333e ac44 69be 9da9 6fbe
00000050: b50f 693e 953e 82be 3c96 103e 473f a13e
00000060: 886a 2a3e 199b babd c182 893e d3d1 adbe
00000070: b532 743e d373 a1be 50db cfbd df1c aabd
00000080: 40c4 a63e 3b43 1cbe 62c0 953e 2589 29be
00000090: 785d a63e 4a0d b43e 3d12 96be 758c 6abd
000000a0: e019 64bc 1232 aa3d 97a5 de3d 80ee f43d
000000b0: bdf2 e5bd 6246 a6be 7269 36be d3c0 ac3d
000000c0: fe95 3abe a435 65be d7bf 8a3e c9ab 933e
000000d0: 1fd9 adbe 00c3 e93c 2d6d 3c3e aba0 07be
000000e0: 87b3 9cbe e9f7 93be 8013 b3be dc7a 083e
000000f0: 2b82 6f3e ba21 81be dfdc 9fbe 0028 b0be

transformer_encoder.layers.1.self_attn.out_proj.bias f4 [8]
0.0072580758 -0.005917793 0.021183185 0.012410325 -0.002788195 0.0060429415 -0.00841195 0.0017806664
00000000: 27d5 ed3b 0cea c1bb 5c88 ad3c ad54 4b3c
00000010: 26ba 36bb de03 c63b 47d2 09bc 4065 e93a

transformer_encoder.layers.1.linear1.weight f4 [128, 8]
-0.2058397 -0.2892196 -0.24212696 -0.24318178 -0.15099116 -0.23838474 0.306037 0.30534223
-0.09284226 -0.014495608 -0.12724444 0.014843483 0.26611245 0.07039023 -0.1580113 0.2963006
-0.14791152 0.19475928 0.14950837 -0.13952571 -0.23248278 0.2617414 0.32171327 0.28215843
-0.000934518 0.14774264 0.083577 0.2397414 -0.12615645 -0.21633564 -0.24726811 0.29549217
-0.22959635 -0.06696927 0.30252925 -0.1340838 -0.06578419 -0.199331 0.23403749 0.14620064
-0.17130214 0.34392795 -0.085713275 -0.24427591 -0.067302555 0.013590925 0.26140308 -0.2789017
0.32992655 -0.14361401 -0.33034492 -0.022528633 0.11627518 -0.0061827544 0.24531393 -0.034090947
-0.27593678 -0.28117317 0.029914651 0.33346334 0.30501884 0.03532632 -0.2993979 0.099203326
0.16420999 0.06173653 0.21439789 0.252642 -0.008843304 -0.31705883 -0.25269338 -0.31398913
0.15443054 0.33801013 -0.2703326 0.3202102 0.19268304 -0.19536039 0.113288894 0.00079718244
0.07828611 -0.083109036 0.38787067 0.1683453 -0.30069247 0.041472387 -0.29779953 -0.21381089
0.074681826 0.31989324 0.19213916 0.069212906 -0.12763695 -0.009604105 -0.14393637 -0.18161187
0.0779537 -0.373331 -0.00045014932 -0.109755106 0.14367245 -0.21136484 0.314788 0.20427199
-0.30038613 -0.061767645 0.21164379 0.07627571 -0.19585477 0.096145995 -0.30411825 -0.3022009
0.15699066 -0.29386893 -0.13130727 0.31219983 -0.30867437 0.023831073 -0.22027585 -0.20433214
0.27052274 0.27572182 0.05904635 0.34946418 0.3041743 0.091428176 0.10551793 0.068911456
0.2812281 0.23839973 -0.084198974 0.04609533 0.21579148 -0.09541756 0.15133394 0.061392974
0.22968811 0.13026728 0.054311417 -0.36725822 0.24496537 0.118541434 -0.20981005 0.2942379
-0.022275917 0.32178223 -0.033399884 -0.019691793 -0.10848498 -0.29534188 -0.33414525 -0.06538634
-0.15917724 -0.09314616 -0.10553654 0.19346285 0.31590128 0.08776758 0.0460568 -0.07118593
0.104127415 0.17393462 0.35550454 0.12708783 0.1951141 -0.32708675 0.3329455 -0.1666299
-0.21481198 0.06775713 0.30924687 0.064754695 -0.28498957 -0.10519873 0.13015889 -0.25145364
-0.31901833 -0.079920225 0.04367004 0.2596632 0.18257396 -0.33812004 -0.19168678 0.22024442
-0.1334649 -0.3147068 0.14520997 -0.060551986 0.37840667 0.12467484 -0.13015923 0.19735698
0.26678857 -0.24545631 -0.3384195 0.0030129296 0.20751095 -0.18379332 -0.3268531 -0.23622839
-0.03936836 0.045535427 0.11610324 0.11454186 0.26934588 -0.33249956 -0.072167024 -0.27152056
0.10542451 -0.31007764 0.31762114 -0.1967958 0.2831151 0.0038623544 0.11348378 -0.1192827
-0.31958535 0.20125864 -0.35333917 0.009960547 -0.25215146 0.15176387 0.018861873 -0.26529187
0.31392127 -0.32997632 0.27815992 -0.008223617 -0.15126486 -0.22008915 -0.33225855 0.24313277
-0.27913496 -0.3107329 -0.24465357 -0.010566537 -0.12190257 -0.3136829 0.22932161 0.0074649183
0.30584338 -0.115898915 -0.15221155 -0.14215842 -0.3389525 0.2373829 0.07405408 0.10342383
0.2912712 -0.014763284 0.039307598 -0.29470327 -0.32794696 0.20095818 0.2032189 0.33681357
00000000: a4c7 52be 9714 94be 21f0 77be a504 79be
00000010: 6d9d 1abe 211b 74be e2b0 9c3e d155 9c3e
00000020: 1524 bebd fd7e 6dbc 5e4c 02be 1532 733c
00000030: e43f 883e c128 903d b7cd 21be b6b4 973e
00000040: 1e76 17be fa6e 473e b918 193e d4df 0ebe
00000050: f70f 6ebe f802 863e 9ab7 a43e 1277 903e
00000060: 71fa 74ba d949 173e 6b2a ab3d c57e 753e
00000070: 282f 01be 1787 5dbe da33 7dbe c04a 973e
00000080: 4e1b 6bbe 2f27 89bd 1de5 9a3e 434d 09be
00000090: ddb9 86bd 6d1d 4cbe 86a7 6f3e 9fb5 153e
000000a0: d469 2fbe 5317 b03e 718a afbd 7723 7abe
000000b0: ecd5 89bd 79ac 5e3c a0d6 853e 34cc 8ebe
000000c0: 22ec a83e 8d0f 13be f822 a9be f88d b8bc
000000d0: ae21 ee3d b498 cabb 9333 7b3e f3a2 0bbd
000000e0: 9647 8dbe eef5 8fbe 920f f53c b5bb aa3e
000000f0: 6e2b 9c3e 55b2 103d ae4a 99be 1d2b cb3d
00000100: aa26 283e 72df 7c3d 1f8b 5b3e 4b5a 813e
00000110: 81e3 10bc 8955 a2be 0761 81be 2fc3 a0be
00000120: 0a23 1e3e aa0f ad3e 0969 8abe 97f2 a33e
00000130: b44e 453e 8e0c 48be 0204 e83d 02fa 503a
00000140: 7854 a03d 1235 aabd fc96 c63e b662 2c3e
00000150: 5df4 99be f3de 293d 2e79 98be 3ef1 5abe
00000160: c9f2 983d 0cc9 a33e 21c0 443e 7fbf 8d3d
00000170: 43b3 02be 895a 1dbc 0e64 13be 76f8 39be
00000180: 31a6 9f3d 3e25 bfbe 0502 ecb9 49c7 e0bd
00000190: df1e 133e 0670 58be e52b a13e ad2c 513e
000001a0: 36cc 99be 1200 7dbd 26b9 583e 7036 9c3d
000001b0: 278e 48be 31e8 c43d 63b5 9bbe 14ba 9abe
000001c0: 29c2 203e fd75 96be 6a75 06be a8d8 9f3e
000001d0: 910a 9ebe 6239 c33c fe8f 61be 723c 51be
000001e0: f581 8a3e 692b 8d3e 96da 713d f8ec b23e
000001f0: bcbc 9b3e b23e bb3d c919 d83d 7321 8d3d
00000200: 21fd 8f3e 0f1f 743e 8370 acbd 75ce 3c3d
00000210: 71f8 5c3e 486a c3bd 49f7 1a3e 3377 7b3d
00000220: 5c33 6b3e c964 053e a675 5e3d 4509 bcbe
00000230: 34d8 7a3e dac5 f23d 72d8 56be 5aa6 963e
00000240: fc7b b6bc a4c0 a43e 51ce 08bd af50 a1bc
00000250: 602d debd 0d37 97be 1615 abbe 46e9 85bd
00000260: 5cff 22be 6ac3 bebd 8b23 d8bd 201b 463e
00000270: d0bd a13e 7dbf b33d 0ea6 3c3d eec9 91bd
00000280: c140 d53d eb1b 323e b104 b63e 5023 023e
00000290: fecb 473e ea77 a7be d577 aa3e 07a1 2abe
000002a0: acf7 5bbe 40c4 8a3d 9b55 9e3e 1c9e 843d
000002b0: 27ea 91be 6f72 d7bd 5f48 053e 88be 80be
000002c0: 5f56 a3be 37ad a3bd 5bdf 323d 93f2 843e
000002d0: abf4 3a3e 121e adbe 8a49 44be c187 613e
000002e0: 06ab 08be 4021 a1be ecb1 143e 5c05 78bd
000002f0: 85be c13e 8655 ff3d 7648 05be f317 4a3e
00000300: 8398 883e e658 7bbe 5245 adbe 9274 453b
00000310: c07d 543e 5134 3cbe 4a59 a7be dbe5 71be
00000320: b840 21bd 5b83 3a3d 89c7 ed3d ec94 ea3d
00000330: b4e7 893e 623d aabe 4ecc 93bd be04 8bbe
00000340: cee8 d73d 7fc2 9ebe 3d9f a23e d784 49be
00000350: 76f4 903e 8e1f 7d3b 2f6a e83d 7d4a f4bd
00000360: b1a0 a3be bf16 4e3e dfe8 b4be 9031 233c
00000370: ff19 81be fd67 1b3e 3784 9a3c 56d4 87be
00000380: 4aba a03e a8f2 a8be fa6a 8e3e 5abc 06bc
00000390: 2de5 1abe 0d5f 61be cb1d aabe ccf7 783e
000003a0: c7ea 8ebe 6218 9fbe 7786 7abe 451f 2dbc
000003b0: 0ea8 f9bd 0c9b a0be 49d3 6a3e 469c f43b
000003c0: 8197 9c3e 695c edbd 58dd 1bbe fa91 11be
000003d0: 2f8b adbe 8114 733e aaa9 973d dfcf d33d
000003e0: 8021 953e b3e1 71bc 0101 213d 59e3 96be
000003f0: aae8 a7be fbc7 4d3e 9e18 503e d472 ac3e
